models/dgsr_pre_train/3_covar_koza/controller.pt (torch, 836109 bytes, 196 tensors)

state_manager.parent_embeddings.weight f4 [9, 16]
-1.5788468 -0.6725976 1.8494449 0.5906159 0.5435939 1.7418562 1.420317 -1.2434887
1.2804264 -0.62272066 -1.1397458 -0.40229794 -0.48356068 1.5985712 -2.296951 0.38476312
-1.3981675 -0.015501712 1.942584 0.8747888 0.6000171 -1.0026447 0.31238598 0.70291954
-0.6507237 -0.84988254 1.2488359 -0.2403332 -1.2277849 0.89306253 0.37541384 -1.042727
2.3180692 -0.008054455 0.3981937 -0.95206225 -0.5957397 0.8491075 -1.1393491 -0.27537638
2.02401 -1.1580471 -1.6636659 0.864181 2.484638 0.1787399 -1.2340583 -1.4540162
0.48362124 0.10176879 0.3168069 0.37509242 1.8196789 0.7742225 -1.6734759 0.17677319
0.01900462 -0.17826904 -1.6605678 0.84390354 0.77657616 1.6438655 0.1957252 0.4230477
1.0905796 -1.4296467 1.0821202 1.5161159 -0.38078973 0.08217197 1.8834312 1.1135266
-1.2958736 0.15141833 -1.1007771 0.8086318 0.064585924 0.9069077 -0.5643956 -2.1469865
-0.6890317 -0.25672576 -2.011614 -0.47625247 -0.45831963 -1.3716297 -0.34725288 -0.19891338
0.05561012 -0.7790448 0.33839977 2.429732 1.4268851 0.2462006 -1.8225218 -0.943485
-2.1394384 1.9383544 0.62254584 -1.8596534 -0.24864931 0.066753015 1.0425073 1.1048287
-0.51295394 0.31302637 -1.1371399 -0.36361665 -0.1010889 0.5851168 -0.20022677 1.4757898
-0.59061354 -0.91082597 -1.4586073 0.2485593 1.0245807 -0.20712636 -0.5231596 0.64320725
-1.7149698 -1.35298 0.42119738 0.26314518 0.029701477 -0.26829076 0.848087 -0.4559823
-0.68399155 -0.4484171 -0.5584755 1.2773355 -0.19684704 1.8788664 -2.697843 0.7508656
-0.95068514 1.5432047 1.2032295 -1.0974405 -1.1248806 1.0237756 0.65833956 0.4548196
00000000: a717 cabf 5b2f 2cbf 9cba ec3f 9b32 173f
00000010: f828 0b3f 25f5 de3f f3cc b53f a32a 9fbf
00000020: 03e5 a33f 9f6a 1fbf 31e3 91bf fff9 cdbe
00000030: 4495 f7be fb9d cc3f 3f01 13c0 acff c43e
00000040: 27f7 b2bf e5fa 7dbc 98a6 f83f 29f2 5f3f
00000050: b89a 193f a956 80bf 0ef1 9f3e 89f2 333f
00000060: d495 26bf e791 59bf dbd9 9f3f e819 76be
00000070: 0e28 9dbf bf9f 643f 3e36 c03e 1478 85bf
00000080: 3f5b 1440 d5f6 03bc 0be0 cb3e 5aba 73bf
00000090: 6682 18bf 1c5f 593f 31d6 91bf 22fe 8cbe
000000a0: 6189 0140 e33a 94bf 01f3 d4bf f73a 5d3f
000000b0: 4f04 1f40 9807 373e 9ff5 9dbf 341d babf
000000c0: 349d f73e 286c d03d 8434 a23e 1d0c c03e
000000d0: 3deb e83f 7233 463f 7534 d6bf 0804 353e
000000e0: 94af 9b3c 298c 36be 7c8d d4bf 100a 583f
000000f0: b2cd 463f 2f6a d23f 306c 483e b599 d83e
00000100: 1d98 8b3f aafe b6bf ea82 8a3f 1610 c23f
00000110: dff6 c2be c749 a83d 4614 f13f 0a88 8e3f
00000120: 30df a5bf 680d 1b3e 44e6 8cbf 7e02 4f3f
00000130: a045 843d 1a2b 683f 3b7c 10bf 3a68 09c0
00000140: 6264 30bf 8f71 83be 49be 00c0 5dd7 f3be
00000150: dfa8 eabe 9091 afbf 21cb b1be f3af 4bbe
00000160: 70c7 633d 7b6f 47bf bc42 ad3e bb80 1b40
00000170: 2ca4 b63f 031c 7c3e 6548 e9bf 3c88 71bf
00000180: 8fec 08c0 ff1b f83f 2a5f 1f3f 1f09 eebf
00000190: ed9d 7ebe ceb5 883d e170 853f 076b 8d3f
000001a0: f350 03bf fe44 a03e cd8d 91bf f62b babe
000001b0: b207 cfbd 37ca 153f 3f08 4dbe aee6 bc3f
000001c0: 7332 17bf e42b 69bf a5b3 babf 5486 7e3e
000001d0: 7625 833f ef18 54be caed 05bf 3ba9 243f
000001e0: 2184 dbbf 732e adbf 2fa7 d73e f7ba 863e
000001f0: 8350 f33c 685d 89be 3b1c 593f 8376 e9be
00000200: 121a 2fbf ed96 e5be 40f8 0ebf bb7f a33f
00000210: 4592 49be b27e f03f 76a9 2cc0 ba38 403f
00000220: 1a60 73bf bb87 c53f 6d03 9a3f ee78 8cbf
00000230: 16fc 8fbf 140b 833f f188 283f 1dde e83e

state_manager.sibling_embeddings.weight f4 [12, 16]
-0.03293283 -0.77916926 0.48324516 -0.5814074 2.008015 1.5153304 -0.13034073 -0.086617164
0.34488797 -0.6300334 -1.1077136 0.26311657 -1.3216707 -0.12972918 -1.72822 -1.0744457
0.43985066 -0.05587816 -0.14094046 0.107473366 -0.11096394 -0.5414454 0.86298233 0.8115855
-0.9693499 1.8583673 -0.68519324 0.22393937 -1.5993409 1.404074 -1.5428119 0.027178712
-0.74012154 0.21171485 0.30721876 -0.2777332 1.6570052 2.1831758 0.089203954 -1.493876
-0.6572807 0.6603304 0.39790353 0.4572916 -0.70188046 -0.5559714 1.4404804 0.63856864
1.2470129 0.4325047 0.17258967 -0.289004 1.3250213 -0.40964678 -1.0814354 -0.6228925
-1.1924238 0.2654572 0.6420678 -0.3963548 -1.1861438 -1.3479697 -1.0504396 -0.6359024
1.5355307 -0.6220677 -0.9323628 0.17072935 0.03688505 0.33878675 -0.7892169 -0.64272404
0.10506131 0.7586672 -0.47740513 0.56491673 -0.0069185942 0.613727 -0.77136654 -0.7267258
-1.018458 -0.7287295 0.72367245 -0.110813424 0.1159719 -0.27239165 -0.55714655 0.74701864
-1.1679634 -0.44326228 -0.5616159 -0.0027710889 1.2319554 -0.5696625 -0.72348166 -0.28663588
-0.17850092 0.801181 1.7696817 -0.46494198 -0.6114004 -0.9453341 0.71922326 0.46635014
-1.6917977 0.85115206 0.63563526 0.35756004 -0.8697856 -0.68130064 -0.008744381 0.8666804
1.2452129 -0.71332574 -0.040286504 -2.143766 -1.1477919 -0.73910093 1.525975 1.2484381
-1.1643509 -0.810265 2.2928472 -0.6169556 -0.26414463 1.250325 0.10311665 0.9171948
0.54351133 -0.51763046 -0.78324836 1.6254697 -0.7740047 -1.2946817 -0.5321091 1.1021175
-0.26562467 1.1832656 2.2084904 2.4796634 2.1797411 -1.1739504 0.46202916 -0.058795057
1.4660841 0.7896848 -0.084018305 -1.0227693 0.23533794 0.92407364 0.07090606 1.1925975
-0.1981472 1.2808537 0.35389718 1.1928388 -0.98338836 -0.73695564 -1.1797725 0.2922534
0.76096237 0.8357951 1.8440559 -1.4580878 0.40554938 -0.069974996 1.43466 -0.8573448
-0.93939227 0.7330463 -0.14213733 0.07582353 0.4456756 2.1198916 -1.208834 -1.0041542
-0.1877031 0.36555624 0.4901562 0.37912187 1.2283819 1.938566 0.15312706 0.11635007
-0.36706802 0.12926412 -0.89406204 -0.36720207 -0.56498104 -1.169837 -1.1632066 -0.61450344
00000000: 93e4 06bd a377 47bf e96b f73e 1ed7 14bf
00000010: 5183 0040 59f6 c13f 0a78 05be 5764 b1bd
00000020: 2895 b03e de49 21bf 8fc9 8dbf 37b7 863e
00000030: 812c a9bf bad7 04be 5036 ddbf 7087 89bf
00000040: 1b34 e13e 7fe0 64bd b252 10be ff1a dc3d
00000050: 1041 e3bd 2a9c 0abf 69ec 5c3f 11c4 4f3f
00000060: 5127 78bf fbde ed3f d368 2fbf 5d50 653e
00000070: 34b7 ccbf b2b8 b33f dc7a c5bf e4a5 de3c
00000080: 9b78 3dbf c7cb 583e c74b 9d3e 0c33 8ebe
00000090: bf18 d43f 27b9 0b40 90b0 b63d 5437 bfbf
000000a0: 8c43 28bf 6a0b 293f 03ba cb3e 2022 ea3e
000000b0: 70ae 33bf 2454 0ebf a961 b83f 3c79 233f
000000c0: 1e9e 9f3f 4271 dd3e 59bb 303e 55f8 93be
000000d0: 4c9a a93f 39bd d1be 7a6c 8abf e275 1fbf
000000e0: 58a1 98bf 02ea 873e 8e5e 243f 04ef cabe
000000f0: 8fd3 97bf 458a acbf ce74 86bf 80ca 22bf
00000100: 458c c43f d43f 1fbf 54af 6ebf add3 2e3e
00000110: c714 173d 7575 ad3e 1e0a 4abf 9089 24bf
00000120: 622a d73d 0338 423f 726e f4be 629e 103f
00000130: 60b5 e2bb 361d 1d3f 4778 45bf b40a 3abf
00000140: d55c 82bf 048e 3abf 9942 393f 26f2 e2bd
00000150: ad82 ed3d eb76 8bbe 28a1 0ebf 9d3c 3f3f
00000160: d37f 95bf 46f3 e2be 0fc6 0fbf 289b 35bb
00000170: b7b0 9d3f 67d5 11bf 1836 39bf f0c1 92be
00000180: f2c8 36be 331a 4d3f ee84 e23f e00c eebe
00000190: bd84 1cbf 6a01 72bf 041f 383f 72c5 ee3e
000001a0: d48c d8bf 1ae5 593f feb8 223f 1c12 b73e
000001b0: 45aa 5ebf b869 2ebf 9844 0fbc c4de 5d3f
000001c0: 2363 9f3f 849c 36bf 7603 25bd 7633 09c0
000001d0: d8ea 92bf b835 3dbf 2653 c33f d2cc 9f3f
000001e0: 7309 95bf 876d 4fbf 02be 1240 cdf0 1dbf
000001f0: f73d 87be a60a a03f d22e d33d 47cd 6a3f
00000200: 8f23 0b3f 6e83 04bf f782 48bf 640f d03f
00000210: 2c25 46bf 21b8 a5bf 4d38 08bf 3012 8d3f
00000220: f5ff 87be 3f75 973f e857 0d40 ceb2 1e40
00000230: e180 0b40 0244 96bf 168f ec3e 16d3 70bd
00000240: a5a8 bb3f c828 4a3f ca11 acbd 1bea 82bf
00000250: 6efc 703e 1790 6c3f 3237 913d 09a7 983f
00000260: 19e7 4abe 04f3 a33f 0332 b53e f1ae 983f
00000270: 57bf 7bbf 20a9 3cbf c902 97bf 3da2 953e
00000280: 6ece 423f abf6 553f 060a ec3f 9fa2 babf
00000290: 2ba4 cf3e 0d4f 8fbd f0a2 b73f f37a 5bbf
000002a0: 037c 70bf eca8 3b3f 738c 11be 5e49 9b3d
000002b0: 982f e43e 4eac 0740 13bb 9abf 2088 80bf
000002c0: 3e35 40be 302a bb3e c1f5 fa3e 431c c23e
000002d0: 9e3b 9d3f ee22 f83f 57cd 1c3e f248 ee3d
000002e0: 57f0 bbbe d05d 043e 40e1 64bf e901 bcbe
000002f0: 99a2 10bf 38bd 95bf f4e3 94bf 1950 1dbf

model.decoder.weight f4 [13, 32]
0.45021337 -0.8131313 0.2456387 -1.2227945 -0.56274396 0.11768267 0.61742055 -0.9635696
0.701746 0.096748576 0.739812 1.7891916 -0.58772796 -0.42331713 0.07084879 -0.11933238
0.5271535 0.4375953 1.1674563 -2.686509 2.2009497 -0.4353869 -0.18235698 -0.53324246
-0.63602495 0.26773953 0.8803157 -0.24589387 -0.5269267 -0.71088094 -1.0439006 1.2384232
1.0644056 -0.13295586 0.5128972 -0.34279665 -1.0537493 -1.0304735 -0.02831798 0.18338433
0.1077256 1.2795312 0.79579127 0.71447384 0.05957995 -1.2045863 0.37468487 0.663902
-0.07639792 -1.0509076 -2.2636101 -1.4835628 1.3225572 -1.0059859 -0.1857542 -0.70189065
-0.77365005 0.84444386 0.3030278 0.5060692 -1.4061968 -1.4150629 -0.42315546 1.4785516
0.31557763 1.7318174 0.94415146 1.0694448 0.2502042 -0.8859986 0.084158756 -0.9861893
0.8230393 0.88400596 -0.084932886 0.107796036 0.33494908 -0.6732719 0.5501351 2.2255723
-0.50452703 0.21276134 0.8178179 -1.2957689 1.8201523 0.037483297 -0.59200203 0.55703294
-2.0937572 -0.31416726 -0.60422105 2.5685084 -0.51644456 0.5337172 0.65063447 -0.32390663
0.924999 1.1785388 -0.67254525 -0.54962474 -0.2620488 -1.0734495 1.8649354 0.5026608
0.919654 -1.5126345 -0.3697559 -0.16177526 -0.3519474 0.6430805 -0.12855594 -1.2848816
0.8390453 0.19138928 0.4380775 -1.9094546 0.5723116 0.81942445 -1.7540112 -1.2187779
-1.0858955 1.2606642 0.14460503 -0.54381454 1.2437826 0.45406786 -0.13586289 -0.4739422
-0.028679632 -0.84756637 -0.06566738 1.0705001 1.2263968 -1.1007155 -2.4763548 -1.0977473
-0.8104718 1.5394752 -0.49921295 -1.3696487 -0.52541834 -0.5381562 -0.59631616 -0.82272553
-0.25514305 0.93546784 -0.87603754 0.2625835 0.5705092 -0.14659928 0.65670806 1.7403712
0.5159947 -0.43875912 -0.08571266 -1.334391 -0.24658018 0.08934484 0.84467816 -0.033136584
0.1884644 -0.27539027 -0.12343991 1.3385009 0.18968625 -0.74692076 1.2615396 -0.3645727
-1.8868353 1.3293321 -1.3971356 -0.99517083 -1.66178 -0.22165807 -0.31358898 -0.7304737
-0.6072702 1.4433533 -0.7398269 -0.2705923 -0.49264324 -0.5059375 -0.687885 -0.13776931
-1.7350876 0.9769217 0.12913743 1.2459115 0.8441467 0.08467741 -0.19756821 0.45012072
1.300619 -1.1907667 0.73579013 -1.4778839 -0.12899742 -0.9294224 0.9151889 -0.21475448
-0.9605569 1.3227745 -0.49204844 1.2681214 -0.0857235 -2.0854704 -0.5335015 -0.8458158
0.07440947 1.2448329 -0.9393564 -0.1674052 -1.6954397 0.213636 1.3050015 0.6434492
1.3949811 1.1667848 0.4582048 -0.58736324 -1.1979706 -0.57470775 0.03223504 0.107887864
1.2302048 1.9966694 0.72751987 0.09373737 1.6538038 1.0113621 -0.80494475 -0.31189936
-0.26531848 0.5310396 0.42970166 0.1887015 -0.86538756 -0.9108869 -0.4452927 0.27679142
1.632378 0.7727373 -0.20729981 -1.1397316 -1.0416219 -0.6202374 0.25109485 -1.1185756
-0.32515246 -1.3802303 1.242953 1.6088446 2.561188 -0.121225454 0.35700086 1.7621405
00000000: 5e82 e63e 5f29 50bf b688 7b3e 8884 9cbf
00000010: fd0f 10bf 9d03 f13d 460f 1e3f 7fac 76bf
00000020: a0a5 333f 1e24 c63d 5264 3d3f 3b04 e53f
00000030: 5775 16bf 06bd d8be 2c19 913d 8964 f4bd
00000040: 88f3 063f 7e0c e03e 356f 953f c3ef 2bc0
00000050: 5cdc 0c40 08eb debe cabb 3abe 9482 08bf
00000060: 88d2 22bf 2815 893e 5f5c 613f 9acb 7bbe
00000070: abe4 06bf 4bfc 35bf 899e 85bf a784 9e3f
00000080: 713e 883f 9525 08be 3b4d 033f 0b83 afbe
00000090: 42e1 86bf 8ee6 83bf 1cfb e7bc 1ac9 3b3e
000000a0: 3d9f dc3d aec7 a33f fab8 4b3f c2e7 363f
000000b0: 1b0a 743d e22f 9abf b2d6 bf3e 7bf5 293f
000000c0: 8376 9cbd 2484 86bf fdde 10c0 63e5 bdbf
000000d0: 8e49 a93f 25c4 80bf 5936 3ebe 1baf 33bf
000000e0: ee0d 46bf 792d 583f 7626 9b3e c08d 013f
000000f0: 42fe b3bf c820 b5bf d5a7 d8be 2e41 bd3f
00000100: 6493 a13e 31ac dd3f e9b3 713f 91e3 883f
00000110: c41a 803e ced0 62bf 6d5b ac3d e776 7cbf
00000120: b4b2 523f 374e 623f 4bf1 adbd 2bc4 dc3d
00000130: 727e ab3e 8c5b 2cbf a7d5 0c3f c76f 0e40
00000140: af28 01bf 1cde 593e 845c 513f c1db a5bf
00000150: c0fa e83f 1688 193d 728d 17bf b699 0e3f
00000160: 1e00 06c0 88da a0be 3bae 1abf 7162 2440
00000170: b635 04bf b1a1 083f fb8f 263f 17d7 a5be
00000180: bccc 6c3f 5cda 963f ed2b 2cbf 35b4 0cbf
00000190: 432b 86be cb66 89bf 34b6 ee3f 61ae 003f
000001a0: 726e 6b3f 029e c1bf a550 bdbe 6aa8 25be
000001b0: 7332 b4be eca0 243f 2ba4 03be 0077 a4bf
000001c0: accb 563f 8dfb 433e b24b e03e 0269 f4bf
000001d0: 0383 123f cdc5 513f 7083 e0bf ea00 9cbf
000001e0: a0fe 8abf 725d a13f 5713 143e 6e37 0bbf
000001f0: 4534 9f3f 957b e83e a41f 0bbe 8da8 f2be
00000200: 8cf1 eabc 1cfa 58bf 9f7c 86bd 2606 893f
00000210: 92fa 9c3f 3fe4 8cbf 997c 1ec0 fc82 8cbf
00000220: 147b 4fbf 860d c53f d798 ffbe a650 afbf
00000230: d181 06bf 9bc4 09bf 2da8 18bf 249e 52bf
00000240: 1ca2 82be d27a 6f3f ff43 60bf 5871 863e
00000250: e40c 123f 1f1e 16be 051e 283f 7cc4 de3f
00000260: 3b18 043f 09a5 e0be 1e8a afbd 53cd aabf
00000270: 847f 7cbe 6dfa b63d d43c 583f 3aba 07bd
00000280: d0fc 403e f4ff 8cbe 10ce fcbd ff53 ab3f
00000290: 1d3d 423e 3336 3fbf 217a a13f 46a9 babe
000002a0: d283 f1bf 8e27 aa3f 57d5 b2bf 84c3 7ebf
000002b0: 35b5 d4bf 55fa 62be bc8e a0be 5300 3bbf
000002c0: 0f76 1bbf cdbf b83f 4c65 3dbf 138b 8abe
000002d0: bc3b fcbe 1f85 01bf 3b19 30bf 6613 0dbe
000002e0: 5a17 debf 8a17 7a3f 9a3c 043e 077a 9f3f
000002f0: 001a 583f 5a6b ad3d 524f 4abe 3976 e63e
00000300: af7a a63f 0b6b 98bf be5c 3c3f 4d2b bdbf
00000310: e617 04be a0ee 6dbf d249 6a3f 99e8 5bbe
00000320: 0fe7 75bf ad50 a93f c6ed fbbe cd51 a23f
00000330: cd8f afbd 5978 05c0 8e93 08bf 6287 58bf
00000340: fe63 983d af56 9f3f a979 70bf 456c 2bbe
00000350: 2b04 d9bf 65c3 5a3e 4a0a a73f 16b9 243f
00000360: be8e b23f 3459 953f d299 ea3e 705d 16bf
00000370: 1a57 99bf 0c20 13bf e408 043d 50f4 dc3d
00000380: 5a77 9d3f dd92 ff3f be3e 3a3f 61f9 bf3d
00000390: d8af d33f 5074 813f dc10 4ebf 46b1 9fbe
000003a0: d3d7 87be 36f2 073f db01 dc3e f73a 413e
000003b0: 0a8a 5dbf e22f 69bf 68fd e3be 9bb7 8d3e
000003c0: c3f1 d03f 1dd2 453f 6746 54be bae2 91bf
000003d0: de53 85bf e1c7 1ebf 818f 803e 7c2d 8fbf
000003e0: 627a a6be 63ab b0bf 1519 9f3f 9fee cd3f
000003f0: 81ea 2340 0d45 f8bd d1c8 b63e d28d e13f

model.transformer.encoder.layers.0.self_attn.in_proj_weight f4 [96, 32]
-0.084115535 -0.05743155 0.019763952 0.007463691 -0.0943646 -0.04060937 0.013654613 -0.05127426
0.018605275 -0.105032705 0.10619243 -0.06807203 -0.07306076 0.056635685 -0.0053744614 -0.06698384
-0.028873852 0.12686911 0.24049519 -0.04912019 0.07442496 -0.07423827 -0.10905126 -0.08264431
-0.19009872 0.25373363 -0.25392583 -0.087346695 0.021390758 -0.20646267 0.12289454 -0.19554406
0.043317907 0.05155563 -0.042806983 0.12545323 0.027710434 0.22059087 0.06723678 0.22988912
-0.19043075 0.13138041 0.10547951 -0.081802025 0.09357449 0.082279496 0.25262278 -0.045466296
0.016558869 -0.09672247 -0.1273091 -0.18447009 0.033467397 -0.07663855 -0.025804318 -0.16886532
-0.093332276 -0.1815731 -0.19003609 0.085601136 -0.14108405 -0.20946692 -0.1206376 0.16141719
0.20721723 -0.19885135 -0.09599525 -0.107540645 -0.009352177 0.009437306 0.10478163 0.032123126
0.11530963 -0.06727185 -0.07703002 -0.15070018 0.24136762 -0.14494474 0.07972514 0.21778032
0.13892257 0.0937718 0.007497275 -0.13769674 -0.25828704 0.18907541 -0.1158916 -0.019596925
-0.24883871 0.036800783 0.2032584 -0.13645457 -0.06547479 0.17334147 0.09679484 0.2920564
0.1549273 0.24115404 -0.17587538 0.08830305 0.1692102 0.15816148 -0.065383695 0.06928386
-0.27356556 0.25217894 -0.24757385 -0.19113486 -0.048755486 -0.19325456 0.1269676 0.2730665
-0.027881008 -0.098747745 0.102849536 -0.027736077 0.007235224 0.15363976 0.17769171 -0.055748135
-0.05557671 0.090373635 -0.17248808 -0.124231614 -0.011947632 -0.040014956 -0.088675626 0.15293017
0.19910981 0.12614557 -0.061033502 -0.0072887023 0.05879353 -0.15285423 0.08529746 -0.030859893
-0.02771465 0.042022172 -0.031125512 -0.2467591 -0.04541875 0.022457058 -0.14274389 -0.070218876
-0.2126118 -0.25252566 0.1718736 -0.07754349 -0.1252715 -0.16432315 -0.16676864 -0.049062576
0.07308788 0.14551404 0.11105391 0.10760215 0.17293772 -0.060880203 0.2561525 0.10973865
-0.03558197 0.04992334 -0.22286975 0.0946362 0.06548372 -0.24347673 -0.025121223 0.1273446
-0.10030615 0.0037491133 0.205045 -0.02236186 0.03769535 0.12692216 0.10771397 0.09597053
0.17302851 0.016161432 -0.09772812 -0.11492333 0.18204504 0.083600454 -0.030138465 0.14583646
0.22656825 0.07671981 0.14602737 -0.1617991 0.17475526 0.04761016 0.030852186 0.044323005
-0.033827905 -0.10279859 0.005127371 0.11591398 0.050190177 -0.03047645 0.085810795 0.046786454
-0.0034006787 0.027698908 -0.03850762 0.2173313 -0.073825076 0.13068745 -0.11287603 0.30965772
-0.20625691 0.09379305 0.052928794 0.021950437 0.04203671 0.068025224 0.17673573 0.17830633
0.14105521 0.04717695 0.064270526 0.13442908 0.015428762 -0.10188711 0.22911152 -0.03422198
-0.10315203 0.18547179 0.09272119 -0.00986607 -0.16993366 -0.17067254 -0.15920871 -0.023984643
0.11042592 0.031243866 0.04114559 -0.046691187 -0.12460824 0.059908967 -0.019515319 -0.067784056
-0.08429171 -0.030487737 -0.116928294 0.035054345 0.08310904 -0.13891068 0.022572583 -0.16091788
-0.057842005 0.010767851 0.17660299 -0.18152153 0.17400762 0.044971485 -0.17195064 -0.16018139
00000000: c444 acbd 583d 6bbd 03e8 a13c fa91 f43b
00000010: 3a42 c1bd 0356 26bd 99b7 5f3c f504 52bd
00000020: 176a 983c 631b d7bd 6b7b d93d 5969 8bbd
00000030: e1a0 95bd d2fa 673d 401c b0bb d32e 89bd
00000040: db88 ecbc fae9 013e 5f44 763e 4132 49bd
00000050: 1d6c 983d 3c0a 98bd 4456 dfbd 6c41 a9bd
00000060: 3da9 42be 60e9 813e 9102 82be d3e2 b2bd
00000070: ac3b af3c f36a 53be 22b0 fb3d b43c 48be
00000080: 1e6e 313d ff2b 533d 6056 2fbd d076 003e
00000090: fe00 e33c 93e2 613e 70b3 893d 0e68 6b3e
000000a0: 4700 43be 9688 063e a405 d83d d287 a7bd
000000b0: fba3 bf3d 2782 a83d c657 813e de3a 3abd
000000c0: 77a6 873c 6e16 c6bd 515d 02be bae5 3cbe
000000d0: 1c15 093d acf4 9cbd 9463 d3bc 08eb 2cbe
000000e0: fe24 bfbd 4cee 39be d298 42be a64f af3d
000000f0: 5678 10be 7f7e 56be d910 f7bd 8c4a 253e
00000100: c130 543e b09f 4bbe 2899 c4bd 453e dcbd
00000110: e039 19bc ee9e 1a3c c097 d63d 8a93 033d
00000120: 7527 ec3d d3c5 89bd eac1 9dbd 2651 1abe
00000130: 1329 773e 656c 14be ef46 a33d ce01 5f3e
00000140: b841 0e3e 6e0b c03d b3ab f53b 6000 0dbe
00000150: 333e 84be fc9c 413e 9358 edbd bb89 a0bc
00000160: 93cf 7ebe 6bbc 163d f822 503e bfba 0bbe
00000170: a617 86bd 6d80 313e 603c c63d 6b88 953e
00000180: 43a5 1e3e 16f1 763e ad18 34be 3bd8 b43d
00000190: 7045 2d3e 15f5 213e e3e7 85bd b2e4 8d3d
000001a0: c910 8cbe 991d 813e 0084 7dbe dbb8 43be
000001b0: d5b3 47bd 86e4 45be cb03 023e 5fcf 8b3e
000001c0: b666 e4bc 423c cabd c7a2 d23d c536 e3bc
000001d0: 7515 ed3b be53 1d3e d1f4 353e 2858 64bd
000001e0: 67a4 63bd d015 b93d b7a0 30be 256d febd
000001f0: 00c0 43bc b9e6 23bd 919b b5bd ba99 1c3e
00000200: 71e3 4b3e 4e2c 013e 44fe 79bd 11d6 eebb
00000210: 7cd1 703d d285 1cbe 6fb0 ae3d e3cd fcbc
00000220: d509 e3bc 711f 2c3d eefa febc 6bae 7cbe
00000230: 0309 3abd ddf7 b73c 742b 12be eace 8fbd
00000240: e8b6 59be 0b4b 81be a2ff 2f3e 1fcf 9ebd
00000250: 2c47 00be 5444 28be 66c5 2abe d7f5 48bd
00000260: 19af 953d a201 153e 3b70 e33d 845e dc3d
00000270: 9616 313e 855d 79bd 6c26 833e a8be e03d
00000280: 66be 11bd 6b7c 4c3d f837 64be a0d0 c13d
00000290: 541c 863d f751 79be 06cb cdbc 9f66 023e
000002a0: 506d cdbd afb3 753b 51f7 513e 3830 b7bc
000002b0: 7066 1a3d e2f7 013e 2499 dc3d 328c c43d
000002c0: 632e 313e fb64 843c ae25 c8bd ec5c ebbd
000002d0: 046a 3a3e b736 ab3d f1e4 f6bc 2756 153e
000002e0: 8201 683e 471f 9d3d 3388 153e aaae 25be
000002f0: 0bf3 323e df02 433d b9bd fc3c 0a8c 353d
00000300: 218f 0abd 1188 d2bd 8103 a83b 4f64 ed3d
00000310: 3794 4d3d c0a9 f9bc 92bd af3d 27a3 3f3d
00000320: ecdd 5ebb d2e8 e23c 2bba 1dbd 198c 5e3e
00000330: 9a31 97bd eed2 053e 8c2b e7bd 758b 9e3e
00000340: 0335 53be 9216 c03d ddcb 583d 67d1 b33c
00000350: af2e 2c3d cf50 8b3d 36fa 343e ef95 363e
00000360: c770 103e 9e3c 413d 44a0 833d c7a7 093e
00000370: ebc8 7c3c 30aa d0bd 369c 6a3e 592c 0cbd
00000380: 5f41 d3bd 51ec 3d3e 9be4 bd3d 4ca5 21bc
00000390: 1703 2ebe c8c4 2ebe 9c07 23be 717b c4bc
000003a0: fc26 e23d 23f3 ff3c 4788 283d 423f 3fbd
000003b0: 9b32 ffbd 1b63 753d 97de 9fbc 5ed2 8abd
000003c0: 22a1 acbd 6bc1 f9bc 1a78 efbd 2595 0f3d
000003d0: 1335 aa3d 9a3e 0ebe 23ea b83c a8c7 24be
000003e0: bdeb 6cbd a46b 303c 6ad7 343e c8e0 39be
000003f0: 0e2f 323e 0534 383d d413 30be 9706 24be

model.transformer.encoder.layers.0.self_attn.in_proj_bias f4 [96]
0.024847755 -0.019209318 0.04094562 -0.02154567 -0.093083076 -0.081898265 0.02425276 0.02830715
-0.06316572 0.020556618 0.0418256 -0.03451969 -0.031917915 0.011218247 0.063207105 0.0035684223
-0.039519724 0.0020016003 0.04458592 0.059413996 -0.003416933 -0.07364125 -0.03551099 -0.0032663073
-0.020923564 -0.023549058 0.007202607 0.05594577 -0.058132198 -0.08357994 -0.07150778 -0.07647534
0.008746126 0.0041733086 -0.0031948853 -0.007347989 0.0006014057 -0.0020087238 -0.0077277804 0.00077525363
-0.0007385004 0.001014645 0.00027988877 0.0022363844 0.0023561113 -0.0022620852 -0.008540315 -0.0071900766
0.0006642132 -0.0027791285 -0.001081549 -0.0029368326 -0.0025602523 0.0034990888 0.00056783744 -0.0018524943
0.004821424 -0.0016043062 0.001858527 -0.004634241 0.008403916 0.0032463002 0.00017161782 -0.0014041307
0.0059159794 0.04665348 0.020242628 0.043052983 -0.04520816 0.022075377 0.032348342 -0.031980496
-0.008888223 0.007996212 0.0086069945 -0.02037609 -0.0039895433 0.014077069 0.017468538 -0.0043506115
-0.003508437 -0.038622838 0.0082272645 0.03850733 -0.0056952084 -0.034845103 -0.0022128727 0.01613695
-0.0036869256 -0.041783188 0.024073958 0.0036084827 0.031817015 0.019363565 -0.01621633 0.020092616
00000000: 858d cb3c dc5c 9dbc 98b6 273d 8c80 b0bc
00000010: 57a2 bebd 47ba a7bd b9ad c63c 65e4 e73c
00000020: 075d 81bd 5a66 a83c 5251 2b3d 8564 0dbd
00000030: 5cbc 02bd bdcc 373c ba72 813d 31dc 693b
00000040: 6fdf 21bd 482d 033b ba9f 363d 175c 733d
00000050: 9fee 5fbb 39d1 96bd f973 11bd 8b0f 56bb
00000060: e567 abbc f4e9 c0bc d903 ec3b 6427 653d
00000070: 071c 6ebd f62b abbd ac72 92bd 1a9f 9cbd
00000080: e94b 0f3c 40c0 883b 4861 51bb 66c7 f0bb
00000090: a7a7 1d3a cba4 03bb 5239 fdbb 643a 4b3a
000000a0: ec97 41ba d6fd 843a 09be 9239 4e90 123b
000000b0: fd68 1a3b 7e3f 14bb adec 0bbc bc9a ebbb
000000c0: 981e 2e3a 0a22 36bb c3c2 8dba e077 40bb
000000d0: e8c9 27bb f850 653b edda 143a 65cf f2ba
000000e0: 09fd 9d3b 9547 d2ba d199 f33a d5da 97bb
000000f0: 94b0 093c e1bf 543b 4ff4 3339 cf0a b8ba
00000100: d5da c13b b817 3f3d ded3 a53c 5358 303d
00000110: 312c 39bd 6cd7 b43c b27f 043d fbfd 02bd
00000120: e99f 11bc 8b02 033c 5a04 0d3c c2eb a6bc
00000130: b7ba 82bb 82a3 663c 2e1a 8f3c 938f 8ebb
00000140: ceed 65bb fb32 1ebd a6cb 063c ddb9 1d3d
00000150: df9e babb bdb9 0ebd d805 11bb a331 843c
00000160: 59a0 71bb d924 2bbd c036 c53c 4b7c 6c3b
00000170: 8f52 023d 57a0 9e3c 1cd8 84bc 4599 a43c

model.transformer.encoder.layers.0.self_attn.out_proj.weight f4 [32, 32]
0.0356964 0.16013502 0.18785922 0.03425939 -0.32077336 -0.34055087 0.13998498 -0.3641174
-0.062994264 0.27970663 0.1279147 -0.28102148 0.17898467 -0.35913345 -0.16583395 -0.12884182
-0.071169786 -0.15506321 -0.043601137 -0.009162317 0.15494923 -0.14724359 0.23761436 0.21077296
-0.30577007 0.21464421 0.26347002 -0.16373517 0.2303616 0.09675996 0.2777284 -0.0645896
-0.06982742 -0.15611556 -0.31490093 0.05478179 0.13403818 -0.08694094 0.31832927 -0.07394417
0.23340742 -0.28146103 0.050344396 0.2963146 0.28881443 -0.00017757705 -0.12858473 0.11886356
-0.29508612 0.31423804 -0.18552703 0.039857928 0.32544038 -0.3263261 -0.2865618 0.027374009
-0.04366795 -0.17687513 -0.09327771 0.16049832 0.15889747 -0.0069457768 0.14894705 0.31718543
0.109223224 -0.0042173597 0.110192604 -0.18371446 -0.105874516 -0.13552494 0.05043086 0.22690201
0.26288188 0.05707409 0.20432772 0.09916942 0.13617547 0.23274373 -0.3004221 0.07540704
-0.115332164 -0.21280916 -0.18747377 -0.22887847 0.193547 -0.2181002 -0.098070085 -0.22500281
0.20171857 -0.31291163 0.12662065 0.14190106 0.039192695 -0.11147214 0.15045883 0.18864219
0.23456259 -0.07535129 0.12527297 0.07757436 0.084653474 -0.05778078 -0.37087864 -0.21305235
-0.05280853 0.3000697 0.36555457 0.12737375 -0.05962982 -0.3144485 0.009564115 0.21225281
-0.12965824 -0.083673865 -0.12030084 0.22464812 0.11525799 0.08661241 0.21625952 0.34984252
0.11444576 -0.091906644 0.16590212 -0.32763636 -0.026470657 -0.07786573 -0.22125454 -0.19219515
0.30509725 -0.17265885 0.24228746 0.103383094 -0.03411162 -0.22783889 0.014627909 0.105091415
0.07056709 0.11182848 -0.23959306 -0.18570872 -0.037315466 0.17235833 -0.0041265115 0.2192174
0.2930603 0.30772606 0.10880285 -0.17248705 -0.24387203 0.09192564 0.24321969 0.06064053
-0.016683683 -0.083854035 0.100197606 -0.099732496 0.18137425 0.2654878 -0.22116487 -0.2194272
-0.1735717 -0.12354243 -0.11814882 -0.14448307 0.24268404 -0.23319927 0.27183676 0.11059799
0.20954542 -0.19830947 -0.3006225 0.138006 -0.08779259 -0.31809226 -0.006065161 -0.12658252
0.124468856 -0.07233498 -0.30889857 -0.17178358 0.05611442 -0.092664614 0.05297317 -0.19251198
0.14960788 0.03630581 0.09483147 0.19845329 0.15097046 -0.24313793 -0.049793318 -0.27027825
-0.043200925 -0.069831915 -0.34712434 0.07476593 0.0019877597 -0.24684085 0.24842973 0.0042797187
0.18768196 -0.283377 0.27077466 0.15001647 0.014967926 0.25585142 0.021597838 0.24199548
0.087134585 0.13030808 -0.27593055 0.2691617 0.28074503 -0.08643272 -0.0057623857 -0.040729523
0.2235341 0.0004762923 -0.19177058 0.2990863 0.047780998 -0.10152214 -0.1768393 -0.20033595
0.026844017 0.20655894 -0.32904223 0.204768 -0.03457803 -0.2192882 0.28385386 0.06579964
0.015279246 0.11049662 -0.15831304 0.13912593 0.22085178 -0.12641983 0.053852785 0.050078984
0.30502036 -0.054200336 0.27086216 -0.0024705732 0.1259505 -0.20050454 0.23662846 0.2156271
-0.18841067 0.2148655 0.24358426 0.14284852 0.06160387 0.049024325 -0.19885199 0.28302708
00000000: 6336 123d 6ffa 233e 2b5e 403e 9353 0c3d
00000010: 683c a4be af5c aebe 3958 0f3e 996d babe
00000020: 2303 81bd b535 8f3e 12fc 023e 0ce2 8fbe
00000030: c247 373e 57e0 b7be 60d0 29be 1cef 03be
00000040: 77c1 91bd e4c8 1ebe 1b97 32bd 8b1d 16bc
00000050: 03ab 1e3e 06c7 16be 2e51 733e ded4 573e
00000060: e58d 9cbe b1cb 5b3e 8be5 863e 31aa 27be
00000070: e9e3 6b3e 162a c63d 6b32 8e3e 8d47 84bd
00000080: ae01 8fbd c2dc 1fbe b23a a1be df62 603d
00000090: 4e41 093e 170e b2bd 0efc a23e 0a70 97bd
000000a0: 5b02 6f3e a91b 90be ed35 4e3d 8cb6 973e
000000b0: 7cdf 933e fa33 3ab9 b7ab 03be bd6e f33d
000000c0: 8715 97be cfe3 a03e ccfa 3dbe 1142 233d
000000d0: 1fa0 a63e 3714 a7be 3ab8 92be 753f e03c
000000e0: 2add 32bd c11e 35be 6208 bfbd ac59 243e
000000f0: 05b6 223e 6699 e3bb 9385 183e 2166 a23e
00000100: 6db0 df3d c731 8abb a9ac e13d a51f 3cbe
00000110: bdd4 d8bd 0dc7 0abe 9790 4e3d 0059 683e
00000120: 7498 863e 85c6 693d 493b 513e 5619 cb3d
00000130: 9571 0b3e 5f54 6e3e edd0 99be 026f 9a3d
00000140: 4533 ecbd a5ea 59be 20f9 3fbe 1e5f 6abe
00000150: 2f31 463e a955 5fbe f8d8 c8bd 2367 66be
00000160: 508f 4e3e f435 a0be d8a8 013e 834e 113e
00000170: 8588 203d 814b e4bd e111 1a3e 6b2b 413e
00000180: 2d31 703e c751 9abd 8f47 003e 4edf 9e3d
00000190: cd5e ad3d 8aab 6cbd cee3 bdbe 652a 5abe
000001a0: c24d 58bd bca2 993e f829 bb3e 446e 023e
000001b0: 663e 74bd 65ff a0be ceb2 1c3c cd58 593e
000001c0: 21c5 04be 345d abbd 4960 f6bd 280a 663e
000001d0: 620c ec3d d961 b13d 2373 5d3e 8f1e b33e
000001e0: 8a62 ea3d 8d39 bcbd 3fe2 293e f4bf a7be
000001f0: fed8 d8bc 1178 9fbd 8d90 62be cece 44be
00000200: b535 9c3e 7bcd 30be 341a 783e 84ba d33d
00000210: a0b8 0bbd 994e 69be e6a9 6f3c 2b3a d73d
00000220: 7a85 903d 5506 e53d e257 75be 6d2a 3ebe
00000230: 1ad8 18bd b47e 303e b037 87bb 877a 603e
00000240: 000c 963e 458e 9d3e 07d4 de3d 72a0 30be
00000250: 97b9 79be 8343 bc3d 950e 793e 3462 783d
00000260: 38ac 88bc aabb abbd 6734 cd3d 8d40 ccbd
00000270: 2cba 393e 04ee 873e 0b79 62be 86b1 60be
00000280: c8bc 31be d003 fdbd 02f8 f1bd 5ff3 13be
00000290: 2a82 783e cacb 6ebe 302e 8b3e 3381 e23d
000002a0: 1393 563e a311 4bbe 31eb 99be 7251 0d3e
000002b0: 9acc b3bd fddc a2be 42be c6bb d99e 01be
000002c0: 87e9 fe3d 5d24 94bd f427 9ebe 09e8 2fbe
000002d0: 3cd8 653d f2c6 bdbd 65fa 583d dc21 45be
000002e0: cf32 193e 67b5 143d 0037 c23d 5737 4b3e
000002f0: 0098 1a3e 26f9 78be 14f4 4bbd e961 8abe
00000300: 74f3 30bd 0904 8fbd 48ba b1be e11e 993d
00000310: 1345 023b d9c3 7cbe 5d64 7e3e e23c 8c3b
00000320: b32f 403e ca16 91be faa2 8a3e eb9d 193e
00000330: 083c 753c f5fe 823e f3ed b03c aacd 773e
00000340: 9e73 b23d 7b6f 053e c546 8dbe 90cf 893e
00000350: d0bd 8f3e a303 b1bd 65d2 bcbb 00d4 26bd
00000360: 20e6 643e dfb6 f939 825f 44be d721 993e
00000370: 02b6 433d d7ea cfbd 5d15 35be de24 4dbe
00000380: fce7 db3c 3084 533e 3978 a8be b4ae 513e
00000390: b1a1 0dbd 168d 60be 4b55 913e f6c1 863d
000003a0: cd55 7a3c 0d4c e23d d01c 22be 0777 0e3e
000003b0: f826 623e 3374 01be bd94 5c3d 9f1f 4d3d
000003c0: a12b 9c3e 2c01 5ebd 72ae 8a3e 57e9 21bb
000003d0: 2bf9 003e 1051 4dbe bb4e 723e 5acd 5c3e
000003e0: baee 40be b405 5c3e 276e 793e e246 123e
000003f0: 5754 7c3d bbcd 483d db9f 4bbe ede8 903e

model.transformer.encoder.layers.0.self_attn.out_proj.bias f4 [32]
0.023471866 -0.008334615 0.00675716 0.035794258 -0.031211086 -0.051866274 0.019443208 0.027027389
0.0058077183 0.01186482 0.029214095 -0.009343311 -0.026232325 -0.05199586 0.024825187 -0.056780025
0.027091809 -0.013002748 0.013011452 0.0010327715 0.0066021746 0.011169386 -0.001821238 -0.0049372218
0.07623897 -0.017941229 0.010006801 -0.008850116 0.012143287 -0.011995158 -0.008294924 -0.0029939844
00000000: 1248 c03c e98d 08bc 2b6b dd3b 009d 123d
00000010: 64ae ffbc bb71 54bd 5d47 9f3c 8b68 dd3c
00000020: ac4e be3b a964 423c 6652 ef3c b014 19bc
00000030: 2ce5 d6bc 9cf9 54bd 315e cb3c 2c92 68bd
00000040: a4ef dd3c 7a09 55bc fc2d 553c 105e 873a
00000050: 0e57 d83b cdff 363c 9bb6 eeba 6bc8 a1bb
00000060: 2d23 9c3d 7cf9 92bc 91f3 233c 1400 11bc
00000070: a3f4 463c 5787 44bc 6fe7 07bc b936 44bb

model.transformer.encoder.layers.0.linear1.weight f4 [128, 32]
0.086421944 0.12050672 0.15559852 -0.0034988099 0.10687466 -0.099023655 0.074137926 -0.021267133
-0.2381681 -0.1067065 -0.067661025 -0.25290042 -0.06259252 0.067838825 -0.11581605 -0.088606596
-0.094834045 -0.036866702 -0.08978924 -0.0085992385 0.13247353 -0.19710934 -0.06142298 0.007893002
-0.055066146 0.08950626 0.14883617 -0.091772884 0.10429132 0.20182116 -0.15023868 0.018225735
-0.008288627 0.115571775 -0.20473936 0.05748503 -0.13348344 0.106465295 -0.13354038 0.17782754
0.13027611 -0.024556324 0.05637068 0.09311259 -0.10110919 0.0019544412 -0.08177957 -0.16146298
-0.11500943 -0.08684851 -0.038266342 -0.050761316 0.003655578 -0.16195005 -0.12261318 -0.049894642
-0.08468788 -0.109369256 -0.13405983 0.17849232 -0.050425354 0.15114473 0.2071496 -0.15916833
0.14727747 0.032670826 -0.14091815 0.08514337 -0.1293116 0.14431357 0.0065606264 0.11343139
0.03718892 0.17518556 0.10370514 0.14835167 -0.15262526 -0.14685705 -0.007538758 0.05788041
-0.05316989 0.0049128323 0.15461317 -0.13196209 -0.048250467 -0.15494712 0.09097483 -0.015389403
0.050734457 0.18840742 0.06445905 0.11381223 -0.13839187 -0.07323367 -0.14826773 -0.033360265
-0.05930942 0.15091483 -0.18710244 0.12526934 0.035219677 0.10756709 -0.01961574 0.120427765
0.012680606 0.18498167 0.16390279 0.061935857 0.035841163 0.05118627 0.02103403 -0.090894565
-0.105414025 0.12707962 0.12983087 0.20089513 0.1723885 0.04194869 0.15742406 -0.06831124
0.200795 -0.055384833 0.18950266 0.066482656 0.123367354 0.055618998 0.085449524 -0.13002902
-0.11277326 0.2068367 0.27910215 0.08908783 -0.12043054 -0.20714611 -0.12552623 -0.16316381
-0.14544386 -0.06360687 -0.018123006 -0.15466037 -0.16715203 -0.009391536 -0.10867019 0.097159185
0.039400145 -0.06876561 0.1261668 -0.04702466 -0.2453344 -0.07228592 0.033182353 0.21233335
-0.21803617 -0.07672669 0.08745778 -0.042328097 0.12703776 -0.1308004 -0.050323788 -0.040382937
0.00618685 0.14982827 -0.24071832 0.13199033 -0.18419902 -0.055023313 -0.05761825 0.03288716
0.037303522 -0.016331475 0.17570509 -0.005773137 0.083214566 0.09281361 -0.08712086 -0.19587882
0.13822946 -0.036766853 -0.11118136 0.043126598 -0.08512823 -0.12587586 -0.09639981 0.0007864914
0.07436697 0.18958741 -0.13800311 0.22716929 -0.16404419 -0.05348163 -0.063768126 0.02356996
0.10264417 -0.019137284 -0.1539746 -0.06625513 0.15983279 0.116807744 -0.12307572 -0.18303567
-0.10968651 -0.1293388 -0.18245591 0.17637683 0.14958234 0.09147856 -0.21268742 -0.20106728
0.07067356 0.07104041 0.008323068 0.1712239 -0.15076587 -0.005437436 0.11320249 -0.16569059
0.037119325 -0.035418566 -0.10428499 0.05909197 0.11863313 -0.12688586 -0.1389133 -0.16270265
0.22808506 -0.22770454 -0.1868423 -0.1462785 0.011512597 0.17751892 0.05440569 0.2564112
-0.114402875 -0.12009054 0.06410882 0.055775173 -0.15231094 -0.1346627 0.20070885 -0.20002118
-0.065664254 0.14376284 0.019680794 -0.08127172 0.034906898 0.06191236 0.21405928 -0.19912323
-0.16941202 0.2145764 -0.041490562 0.06916831 0.035843298 0.081965126 -0.051706113 -0.18644449
00000000: fdfd b03d 3acc f63d 3855 1f3e 4a4c 65bb
00000010: 1ae1 da3d eacc cabd a0d5 973d 6938 aebc
00000020: 57e2 73be f088 dabd dd91 8abd 2a7c 81be
00000030: 8230 80bd 15ef 8a3d f730 edbd 6077 b5bd
00000040: 5a38 c2bd 8a01 17bd 6ce3 b7bd d2e3 0cbc
00000050: 24a7 073e 08d7 49be aa96 7bbd a651 013c
00000060: 0a8d 61bd 0f4f b73d 8268 183e 6cf3 bbbd
00000070: b096 d53d 35aa 4e3e 2bd8 19be 234e 953c
00000080: 05cd 07bc e5b0 ec3d 32a7 51be 6c75 6b3d
00000090: e2af 08be 7a0a da3d cfbe 08be 6c18 363e
000000a0: 1a67 053e 582a c9bc f1e4 663d d0b1 be3d
000000b0: 5612 cfbd 1516 003b 0c7c a7bd 8d56 25be
000000c0: 108a ebbd a2dd b1bd 2bbd 1cbd 19eb 4fbd
000000d0: 6c92 6f3b 3cd6 25be 9e1c fbbd 535e 4cbd
000000e0: d770 adbd fdfc dfbd fb46 09be b1c6 363e
000000f0: d18a 4ebd afc5 1a3e 061f 543e 06fd 22be
00000100: e8cf 163e d8d1 053d d94c 10be a65f ae3d
00000110: 436a 04be f0c6 133e 86fa d63b b74e e83d
00000120: 6953 183d d863 333e 5c63 d43d 80e9 173e
00000130: cc49 1cbe b261 16be b007 f7bb 0214 6d3d
00000140: acc8 59bd d3fb a03b ea52 1e3e 1221 07be
00000150: 48a2 45bd 75aa 1ebe 0351 ba3d d623 7cbc
00000160: efce 4f3d e0ed 403e 1b03 843d 6316 e93d
00000170: 99b6 0dbe 89fb 95bd 7fd3 17be c6a4 08bd
00000180: 6fee 72bd 6b89 1a3e c897 3fbe 9b46 003e
00000190: 8242 103d 224c dc3d 30b1 a0bc d5a2 f63d
000001a0: 51c2 4f3c d66b 3d3e 22d6 273e 74b0 7d3d
000001b0: 2fce 123d b2a8 513d 8f4f ac3c ee26 babd
000001c0: 4fe3 d7bd 2921 023e 62f2 043e 74b7 4d3e
000001d0: 9c86 303e 64d2 2b3d c633 213e c3e6 8bbd
000001e0: 349d 4d3e 35db 62bd fc0c 423e 0f28 883d
000001f0: 06a8 fc3d bfd0 633d 2900 af3d 5426 05be
00000200: abf5 e6bd 00cd 533e 7ae6 8e3e ae73 b63d
00000210: 49a4 f6bd 1c1e 54be f389 00be 6a14 27be
00000220: 3cef 14be 5244 82bd b376 94bc 4a5f 1ebe
00000230: e729 2bbe f5de 19bc 7a8e debd 65fb c63d
00000240: 0c62 213d fcd4 8cbd df31 013e ee9c 40bd
00000250: f138 7bbe a40a 94bd 38ea 073d ea6d 593e
00000260: e044 5fbe e222 9dbd 111d b33d 3a60 2dbd
00000270: 3016 023e 8af0 05be 5120 4ebd 9468 25bd
00000280: 0fbb ca3b 956c 193e dd7e 76be 7928 073e
00000290: ab9e 3cbe 2060 61bd 1d01 6cbd b0b4 063d
000002a0: 94cb 183d 96c9 85bc 09ec 333e 952c bdbb
000002b0: 666c aa3d 1015 be3d 6c6c b2bd 7594 48be
000002c0: 068c 0d3e d798 16bd 0eb3 e3bd 84a5 303d
000002d0: b657 aebd 9ae5 00be 436d c5bd 8b2c 4e3a
000002e0: b64d 983d 3423 423e b050 0dbe 119f 683e
000002f0: 33fb 27be 8e0f 5bbd dd98 82bd ca15 c13c
00000300: 1b37 d23d cbc5 9cbc 84ab 1dbe c5b0 87bd
00000310: 35ab 233e e638 ef3d 200f fcbd b46d 3bbe
00000320: 52a3 e0bd 6471 04be b9d5 3abe 219c 343e
00000330: 1d2c 193e 1c59 bb3d bbca 59be 95e4 4dbe
00000340: 4dbd 903d a27d 913d 7a5d 083c 5155 2f3e
00000350: 5e62 1abe 852c b2bb b5d6 e73d cbaa 29be
00000360: 6f0a 183d 0f13 11bd 5e93 d5bd 6c0a 723d
00000370: edf5 f23d 5eee 01be 4a3f 0ebe 869b 26be
00000380: 218f 693e 612b 69be 9753 3fbe 08ca 15be
00000390: 559f 3c3c 85c7 353e 80d8 5e3d 5448 833e
000003a0: 0e4c eabd 07f2 f5bd 7c4b 833d 8274 643d
000003b0: 66f7 1bbe 05e5 09be 9f86 4d3e 5ad2 4cbe
000003c0: fb7a 86bd 9136 133e 9e39 a13c ca71 a6bd
000003d0: 89fa 0e3d d197 7d3d 5b32 5b3e f6e6 4bbe
000003e0: 587a 2dbe eab9 5b3e 02f2 29bd 1da8 8d3d
000003f0: 6cd0 123d 55dd a73d cac9 53bd 4eeb 3ebe

model.transformer.encoder.layers.0.linear1.bias f4 [128]
-0.08533596 -0.19190128 -0.14762309 0.14758192 0.03203359 0.11222402 0.16287175 -0.0166861
0.0014528261 -0.14319317 0.08625933 0.12326682 0.012914133 -0.054413475 0.06626417 -0.15154259
-0.05620391 0.050582215 -0.13899042 -0.088752195 -0.058573786 -0.184714 0.12220709 -0.08680999
0.06662926 0.10861041 0.08704152 0.12265626 0.09790481 0.11646206 -0.10620709 -0.023778569
-0.18525803 0.039524328 0.09188715 0.07536678 0.19103454 -0.17450584 -0.12058741 0.09230063
0.023582406 0.11059798 -0.041347913 -0.14630814 0.0055769957 0.026926685 -0.01119926 -0.0357234
0.003551363 0.007595991 0.16527385 0.0963034 0.22123183 -0.022779403 0.092275344 0.056634676
-0.22914179 -0.1622027 -0.08254658 -0.034775287 0.04470384 -0.021322262 -0.113605976 0.2271349
-0.059389133 0.021841966 -0.23435475 0.1276047 0.101545006 0.008653953 0.19629943 0.09783085
-0.06362363 -0.09649599 0.021748686 0.04176563 0.016958702 -0.14267623 0.09917478 -0.20498809
-0.009387016 0.18492864 -0.017834928 0.14422184 0.08819511 -0.034441 0.09344097 -0.1892132
-0.054840557 -0.097850464 -0.23133896 0.08754777 0.0016972097 -0.10833439 0.020786287 -0.13282637
-0.007872128 -0.13798524 -0.0836962 0.044184286 0.07423768 0.019309307 0.12209993 -0.08938105
-0.10453445 -0.0354064 0.022498028 0.12344221 0.062327404 -0.07092682 -0.08516186 -0.078009054
-0.11431794 -0.16054322 -0.07278236 0.11428778 -0.109244004 -0.13111861 0.18515086 -0.14921623
-0.15196358 -0.16189548 0.010722315 -0.025342984 -0.14238168 0.09805266 0.13491367 0.18398261
00000000: 9fc4 aebd c581 44be 822a 17be b71f 173e
00000010: a735 033d b5d5 e53d dac7 263e 4ab1 88bc
00000020: c16c be3a 3ba1 12be bba8 b03d 5173 fc3d
00000030: cd95 533c aae0 5ebd 82b5 873d fb2d 1bbe
00000040: 1236 66bd 4c2f 4f3d 8153 0ebe b6c3 b5bd
00000050: 11eb 6fbd ab25 3dbe b647 fa3d 70c9 b1bd
00000060: ec74 883d 226f de3d d342 b23d 3533 fb3d
00000070: 5182 c83d a983 ee3d 1a83 d9bd 46cb c2bc
00000080: 48b4 3dbe 43e4 213d 552f bc3d e659 9a3d
00000090: 8f9e 433e a9b1 32be 88f6 f6bd 1d08 bd3d
000000a0: e42f c13c 3281 e23d 6e5c 29bd cdd1 15be
000000b0: 3bbf b63b 5a95 dc3c 1a7d 37bc b352 12bd
000000c0: fcbd 683b cae7 f83b 8c3d 293e b83a c53d
000000d0: 998a 623e df9b babc dbfa bc3d c3f9 673d
000000e0: 25a4 6abe 7718 26be 2e0e a9bd 8870 0ebd
000000f0: 601b 373d 06ac aebc 40aa e8bd 0d96 683e
00000100: 0542 73bd eced b23c b1fa 6fbe ceaa 023e
00000110: d4f6 cf3d 4fc9 0d3c b802 493e 8a5b c83d
00000120: 1b4d 82bd b19f c5bd 4d2a b23c 7012 2b3d
00000130: faec 8a3c b819 12be 261c cb3d 66e8 51be
00000140: 00cc 19bc ef5d 3d3e 8e1a 92bc e4ae 133e
00000150: a39f b43d 0212 0dbd fb5d bf3d 1bc1 41be
00000160: 7ea0 60bd d365 c8bd 1fe4 6cbe 3f4c b33d
00000170: e874 de3a 6cde ddbd 0148 aa3c a303 08be
00000180: 19fa 00bc 014c 0dbe ea68 abbd 95fa 343d
00000190: ed09 983d 8d2e 9e3c 870f fa3d 690d b7bd
000001a0: 2816 d6bd 4d06 11bd c94d b83c 45cf fc3d
000001b0: 054b 7f3d 1542 91bd 5769 aebd 36c3 9fbd
000001c0: 861f eabd 7165 24be eb0e 95bd b60f ea3d
000001d0: 52bb dfbd f543 06be 3098 3d3e 24cc 18be
000001e0: 579c 1bbe eec7 25be a6ac 2f3c 179c cfbc
000001f0: 81cc 11be d5cf c83d cf26 0a3e f065 3c3e

model.transformer.encoder.layers.0.linear2.weight f4 [32, 128]
0.062725335 -0.06604555 0.15163343 -0.05415327 0.04344195 0.08244521 -0.1678267 -0.28889793
-0.0049875923 -0.044364892 0.17259353 0.016820794 0.05384263 0.10791233 -0.13950962 0.024191488
0.049924612 0.17374076 0.027032383 0.06701404 0.14962615 0.050846662 -0.1232339 0.034218546
-0.022128869 0.14341885 0.22920516 0.095426776 -0.0012006384 -0.16348559 0.100414984 0.15751334
-0.16110003 -0.1928374 0.041172482 0.09803269 -0.13312286 -0.22848693 0.068063945 0.15651222
0.05010024 0.045497134 -0.19904502 0.17318125 0.024258496 -0.1584734 0.1515419 -0.16982059
-0.15319796 0.0812738 0.13553287 0.11393671 -0.101238444 0.113737814 0.18003175 -0.022307998
0.106312014 0.010460411 -0.09415781 0.087662935 0.023864947 0.010327089 0.14965644 -0.14280987
0.05124442 -0.09456477 0.011376316 -0.042307194 -0.044188686 -0.124562785 0.17976835 -0.023299886
0.19981971 0.1751376 -0.06754588 0.058144405 0.08547139 -0.011669087 -0.05244384 -0.034744654
-0.024393892 0.19363485 -0.0035699338 0.094411336 0.04569233 0.17970404 0.010565872 -0.13459611
-0.0971036 -0.09453022 -0.13057807 -0.072453365 0.06482599 0.053400774 0.16181938 -0.23844123
-0.03620822 0.027323449 0.06478301 -0.14262497 0.058170136 0.0021595121 0.03715815 0.030018322
0.082824916 0.12209072 -0.123752125 -0.006020503 0.09606463 -0.035113383 -0.076547325 0.012653776
0.12715903 -0.1598012 0.14354931 0.13704368 -0.1059757 0.23653351 -0.042889304 0.19634405
-0.12268173 0.15810175 -0.06402166 -0.09528545 0.21083386 0.019853482 0.18324928 -0.0747748
0.026944997 0.15038426 -0.0076358034 0.0031545076 -0.06981806 -0.15900525 0.12824585 -0.084082395
0.043110922 0.08807295 -0.13133556 -0.107439555 -0.20250759 -0.018162286 -0.09682274 -0.15474436
0.022109456 -0.06176818 -0.055551775 -0.18813866 0.1058153 0.0032402857 -0.14047085 0.19060035
0.004423034 0.2195039 0.24757966 0.08728665 -0.22931437 0.049202252 -0.057169218 0.10766366
-0.012896961 -0.034885105 -0.03048876 -0.0021417288 0.14478634 0.026465429 0.19553414 0.03358669
-0.15843768 0.08290897 -0.0070642163 0.172821 0.035392307 0.1561037 -0.038373955 -0.11027533
0.16531092 -0.2327459 0.14136994 -0.026386824 -0.007473588 -0.12901753 -0.06471 -0.105953254
0.19713295 -0.10947448 -0.08234851 0.16308579 -0.0046586823 -0.119003184 -0.1782443 0.1058979
-0.008685815 0.03501396 0.051896177 0.10428488 0.027800428 -0.1835758 0.22943476 0.13984214
0.11077654 -0.21035549 0.021312503 -0.014445256 -0.003608737 -0.05627816 -0.121507555 -0.07389475
-0.0058306805 -0.16955376 -0.19895165 0.07587819 0.046774264 0.0023291316 -0.05763086 -0.08982263
0.1689161 -0.11373356 -0.12846345 -0.13366915 0.0050723073 -0.07181782 -0.119604066 -0.04567745
-0.041272175 -0.04866981 -0.124642424 -0.00024317068 0.051383615 -0.07705253 -0.10782021 0.018487183
-0.17338468 0.07459464 -0.14033532 -0.04778825 -0.16603373 0.08916059 0.016935926 -0.16383094
-0.02882349 -0.077428505 0.08776802 -0.13068132 0.15699883 -0.111853614 0.24029398 -0.06196098
0.068586044 -0.013880082 0.18523864 0.001191705 0.00291996 0.10074843 0.18075584 0.007160709
00000000: 2476 803d e442 87bd cb45 1b3e d2cf 5dbd
00000010: 30f0 313d 09d9 a83d c3da 2bbe 6eea 93be
00000020: f56e a3bb f6b7 35bd 5cbc 303e c3cb 893c
00000030: 178a 5c3d 2401 dd3d 9cdb 0ebe 3a2d c63c
00000040: c07d 4c3d 19e9 313e 0473 dd3c a83e 893d
00000050: 9937 193e 9744 503d 0e62 fcbd bf28 0c3d
00000060: 9a47 b5bc 64dc 123e c2b4 6a3e 1d6f c33d
00000070: bd5e 9dba c468 27be 5fa6 cd3d 2d4b 213e
00000080: 68f7 24be 2b77 45be 7aa4 283d 5dc5 c83d
00000090: 5c51 08be 7af8 69be 1c65 8b3d bd44 203e
000000a0: e935 4d3d 345b 3a3d 75d2 4bbe 6d56 313e
000000b0: c1b9 c63c da46 22be cd2d 1b3e 73e5 2dbe
000000c0: eddf 1cbe e172 a63d 21c9 0a3e a657 e93d
000000d0: 1a56 cfbd 5fef e83d 3e5a 383e 43bf b6bc
000000e0: 1dba d93d 2562 2b3c cfd5 c0bd a088 b33d
000000f0: 6c80 c33c f332 293c 8a3f 193e c03c 12be
00000100: abe5 513d 2dab c1bd ba63 3a3c 4f4a 2dbd
00000110: 32ff 34bd c61a ffbd 3215 383e 67df bebc
00000120: 8a9d 4c3e 4557 333e 7f55 8abd d428 6e3d
00000130: a00b af3d b32f 3fbc 5acf 56bd 6950 0ebd
00000140: b3d5 c7bc 3748 463e 8df5 69bb bb5a c13d
00000150: e127 3b3d 5604 383e 7b1c 2d3c 90d3 09be
00000160: 41de c6bd 0f99 c1bd 42b6 05be 6e62 94bd
00000170: 7dc3 843d c5ba 5a3d fbb3 253e f029 74be
00000180: 124f 14bd 6dd5 df3c f4ac 843d 480c 12be
00000190: cf43 6e3d 9a86 0d3b 2533 183d fce8 f53c
000001a0: 1ca0 a93d b30a fa3d c171 fdbd a447 c5bb
000001b0: 88bd c43d 0dd3 0fbd d8c4 9cbd c951 4f3c
000001c0: fa35 023e eda2 23be 97fe 123e 2e55 0c3e
000001d0: ca09 d9bd d735 723e b2ac 2fbd 6a0e 493e
000001e0: 8f40 fbbd 6de5 213e ca1d 83bd 0525 c3bd
000001f0: d5e4 573e c5a3 a23c b3a5 3b3e 8823 99bd
00000200: c1bb dc3c 55fe 193e c335 fabb dbbb 4e3b
00000210: c5fc 8ebd 46d2 22be e152 033e 6433 acbd
00000220: 1495 303d 975f b43d d47c 06be 4509 dcbd
00000230: 265e 4fbe 13c9 94bc 004b c6bd 4e75 1ebe
00000240: e41e b53c a200 7dbd 428a 63bd 6ca7 40be
00000250: b1b5 d83d f95a 543b 97d7 0fbe bd2c 433e
00000260: 19ef 903b a1c5 603e 8685 7d3e 58c3 b23d
00000270: 63d1 6abe 4d88 493d 452a 6abd c47e dc3d
00000280: c64d 53bc afe3 0ebd 90c3 f9bc 3f5c 0cbb
00000290: df42 143e 07ce d83c 1a3a 483e 3292 093d
000002a0: 7d3d 22be 2ecc a93d f17a e7bb fdf7 303e
000002b0: 86f7 103d a6d9 1f3e 022e 1dbd 08d8 e1bd
000002c0: 4447 293e f154 6ebe 48c3 103e 2e29 d8bc
000002d0: 00e5 f4bb 2c1d 04be ad86 84bd 05fe d8bd
000002e0: 38dd 493e 2834 e0bd 56a6 a8bd f6ff 263e
000002f0: dca7 98bb f1b7 f3bd ac85 36be 00e1 d83d
00000300: f34e 0ebc cc6a 0f3d 1691 543d 5093 d53d
00000310: b9bd e33c 4bfb 3bbe f2f0 6a3e c732 0f3e
00000320: d0de e23d 6e67 57be 8f97 ae3c ccab 6cbc
00000330: 8f80 6cbb ee83 66bd f4d8 f8bd 2156 97bd
00000340: 4b0f bfbb 809f 2dbe fbb9 4bbe 0666 9b3d
00000350: 5f96 3f3d 58a4 183b 560e 6cbd edf4 b7bd
00000360: 58f8 2c3e 24ed e8bd ec8b 03be 91e0 08be
00000370: 9935 a63b 3915 93bd faf2 f4bd 4718 3bbd
00000380: 030d 29bd ff59 47bd 8744 ffbd a2fb 7eb9
00000390: a077 523d b8cd 9dbd d8d0 dcbd 6f72 973c
000003a0: c18b 31be 13c5 983d 10b4 0fbe 9dbd 43bd
000003b0: bf04 2abe d499 b63d 36bd 8a3c 4cc3 27be
000003c0: 3d1f ecbc d692 9ebd b8bf b33d 53d1 05be
000003d0: 4dc4 203e 8213 e5bd a00f 763e ccca 7dbd
000003e0: d776 8c3d 4969 63bc 33af 3d3e fc32 9c3a
000003f0: cd5c 3f3b 3155 ce3d 0f18 393e 61a4 ea3b

model.transformer.encoder.layers.0.linear2.bias f4 [32]
0.056528527 -0.044482812 -0.0691642 0.010291874 0.03071268 -0.05341258 -0.06281092 0.040024675
-0.030460525 -0.012580465 0.061278727 0.049591076 -0.08301083 0.02747012 -0.031780206 -0.12145506
-0.077593215 -0.019108843 -0.074632905 -0.070762806 0.009234855 0.0032205023 0.1032024 -0.026482852
-0.030744046 0.042956367 0.016405063 -0.063254 -0.022794751 0.04560254 0.074433364 0.074343756
00000000: 758a 673d 9c33 36bd f6a5 8dbd 409f 283c
00000010: 2999 fb3c 26c7 5abd 03a3 80bd eaf0 233d
00000020: 5a88 f9bc 4b1e 4ebc 67ff 7a3d 0320 4b3d
00000030: 9501 aabd 0409 e13c f62b 02bd 6ebd f8bd
00000040: 31e9 9ebd 268a 9cbc 23d9 98bd 17ec 90bd
00000050: ca4d 173c 100f 533b c85b d33d 91f2 d8bc
00000060: f0da fbbc 04f3 2f3d e963 863c 508b 81bd
00000070: 0fbc babc bbc9 3a3d 8570 983d 8a41 983d

model.transformer.encoder.layers.0.norm1.weight f4 [32]
0.85720026 0.9654229 1.0245237 1.0153335 0.97890705 0.9727552 1.029595 0.94029725
0.93834406 0.98051286 0.9958349 0.9814908 0.99083775 0.9646979 0.8944404 1.0004569
0.9833032 1.0876334 0.9831524 0.99577826 0.9974337 1.0086025 1.0449501 1.0175295
0.8674917 0.99889493 1.1375086 1.0684742 0.96923995 1.0015951 1.0685458 1.0257701
00000000: 7a71 5b3f f525 773f 9823 833f 73f6 813f
00000010: a799 7a3f 7c06 793f c5c9 833f 52b7 703f
00000020: 5137 703f e402 7b3f 09ef 7e3f fb42 7b3f
00000030: 8ba7 7d3f 71f6 763f 0cfa 643f f90e 803f
00000040: c2b9 7b3f 9237 8b3f e0af 7b3f 53eb 7e3f
00000050: d157 7f3f e319 813f edc0 853f 683e 823f
00000060: f013 5e3f 94b7 7f3f e299 913f c3c3 883f
00000070: 1c20 783f 4534 803f 1cc6 883f 6f4c 833f

model.transformer.encoder.layers.0.norm1.bias f4 [32]
0.035853844 0.0015189709 0.0064327335 0.034147125 -0.031096945 -0.04403229 0.016214868 0.023042127
0.019518824 0.025705518 0.033260748 -0.0074673817 -0.0088276975 -0.04756666 0.034498412 -0.06961064
0.021133535 0.0076716347 0.025650123 0.016177963 0.012448352 0.025089711 -0.004979071 -0.006110773
0.07275498 -0.0019117586 0.004809683 0.0039523533 0.020918151 -0.021207815 -0.02262051 -0.007859619
00000000: 7bdb 123d 3518 c73a aec9 d23b dbdd 0b3d
00000010: 05bf febc 345b 34bd 0bd5 843c d8c2 bc3c
00000020: f1e5 9f3c 6194 d23c 6c3c 083d f0b0 f4bb
00000030: 0ca2 10bc 42d5 42bd 354e 0d3d 0690 8ebd
00000040: 3c20 ad3c 5662 fb3b 3520 d23c a687 843c
00000050: 2cf4 4b3c f088 cd3c 7a27 a3bb e13c c8bb
00000060: 9000 953d f993 faba 8c9a 9d3b be82 813b
00000070: 8b5c ab3c 03bc adbc a64e b9bc a2c5 00bc

model.transformer.encoder.layers.0.norm2.weight f4 [32]
0.92171687 0.9277535 0.9832355 1.0170567 0.99514574 0.99124914 1.0019485 0.9652685
1.0006186 1.0106636 0.9894872 1.0032536 0.9868328 0.99188304 0.95094126 1.0009751
0.9935969 1.0112967 0.951017 0.95413584 1.0476692 0.9949845 1.0283537 1.0288806
0.97554916 0.96606714 1.0613643 0.9863775 0.99591583 1.0067177 1.0374396 1.0257894
00000000: a3f5 6b3f 4181 6d3f 52b5 7b3f ea2e 823f
00000010: dfc1 7e3f 81c2 7d3f d93f 803f d61b 773f
00000020: 4514 803f 6d5d 813f 084f 7d3f 9d6a 803f
00000030: 13a1 7c3f 0cec 7d3f e370 733f f41f 803f
00000040: 5e5c 7e3f 2c72 813f da75 733f 3f42 743f
00000050: 061a 863f 4eb7 7e3f 18a1 833f 5cb2 833f
00000060: 97bd 793f 2d50 773f c9da 873f 3c83 7c3f
00000070: 57f4 7e3f 20dc 803f d2ca 843f 114d 833f

model.transformer.encoder.layers.0.norm2.bias f4 [32]
0.009671611 0.01616917 0.013045287 -0.013061546 -0.023361579 -0.04846857 0.011248749 -0.0027974506
0.0017837394 -0.0074674366 0.0006454067 0.02059993 -0.0018041115 -0.011381924 -0.004484367 -0.030682236
0.0031662507 -0.0066485554 -0.010189292 -0.020126633 -0.023794929 -0.038917176 0.022057746 -0.0018332008
0.003225213 0.012222324 0.020277666 -0.02605659 0.0048148436 -0.011443294 0.015184312 0.027653985
00000000: ad75 1e3c 3575 843c e6bb 553c 1800 56bc
00000010: c860 bfbc fb86 46bd ac4c 383c 6f55 37bb
00000020: 5dcc e93a 66b1 f4bb 8330 293a 2fc1 a83c
00000030: f077 ecba 407b 3abc 99f1 92bb 5059 fbbc
00000040: df80 4f3b 20dc d9bb fdf0 26bc 9ce0 a4bc
00000050: 95ed c2bc 9e67 1fbd 72b2 b43c 0348 f0ba
00000060: 185e 533b 2440 483c 591d a63c a174 d5bc
00000070: d6c5 9d3b a77c 3bbc 9fc7 783c 9c8a e23c
