models/dgsr_pre_train/4_covar_koza/controller.pt (torch, 843277 bytes, 196 tensors)

state_manager.parent_embeddings.weight f4 [9, 16]
-0.43915394 -0.25890803 1.3293283 -0.50885606 -0.036014967 -2.1886594 0.2232001 -0.4728738
0.39296177 -0.23663369 0.22389853 0.62271786 -1.851371 -0.8927423 0.07417673 0.10730584
-0.9590128 -0.34270814 0.03226075 -0.21877098 -1.5119497 -0.6828489 -2.7170606 0.8495067
0.28984517 -0.1065087 1.4617058 0.34790206 -0.04676448 -0.75802946 -0.18247665 -1.7127066
1.7322129 -0.5502422 1.0696882 -0.78439826 -0.92070377 -0.6415005 0.7061688 0.75741774
-1.0121652 -0.9434762 -0.37851575 0.32088646 -0.52683437 -0.21948051 0.16656594 -0.9329005
0.7562807 2.076008 0.64232075 -0.68325734 1.2859198 -0.4833163 -0.450917 1.1297042
0.16289073 -1.403461 -0.26150972 -2.7144957 -1.1033268 1.2248398 0.5693626 0.32043183
0.14895928 -0.6182522 -0.52309346 0.1434587 1.1812536 1.3262925 -1.1775991 -1.1013057
-1.1129699 -1.4602718 -0.3710336 1.9701297 -1.2150718 1.6513116 -0.38228425 -0.34293258
-1.4640731 -1.0758696 0.7588699 0.64638585 1.4387655 -1.0334263 1.773358 1.5992671
1.1498157 -0.27686113 -0.55724823 -0.32279313 -0.7009315 2.4538898 -0.5896336 -1.1464936
1.1138979 -0.65812236 0.6551995 -0.64833856 -0.5178259 2.2069929 -0.58509123 0.35862917
0.4677445 0.2084426 0.6943173 1.3392018 0.5569059 -0.5081259 -0.16865602 0.14514253
0.056965668 1.9931988 1.1580654 -0.3747343 -2.074564 0.29632467 -2.406018 0.4303922
0.80330795 0.91710454 -0.5757722 1.1034247 1.4464705 -2.1356957 -0.69731283 1.0539217
0.4420382 -0.045213025 -0.31981784 -0.2683671 0.39177695 -0.30657226 -0.8724385 0.5140084
0.17065307 -0.8972524 -0.18222283 -0.02850225 -2.313363 0.31103307 0.84849596 0.4750244
00000000: c9d8 e0be 988f 84be 6e27 aa3f 6444 02bf
00000010: 6e84 13bd ff12 0cc0 918e 643e 841c f2be
00000020: 4932 c93e 1a50 72be a845 653e 706a 1f3f
00000030: baf9 ecbf c28a 64bf f8e9 973d 2ac3 db3d
00000040: dd81 75bf 7177 afbe d923 043d 8005 60be
00000050: 9187 c1bf 2fcf 2ebf 52e4 2dc0 4579 593f
00000060: 9666 943e 3c21 dabd 2d19 bb3f 3820 b23e
00000070: 1d8c 3fbd 380e 42bf 29db 3abe f839 dbbf
00000080: 27b9 dd3f acdc 0cbf 8beb 883f 53ce 48bf
00000090: 3eb3 6bbf 6039 24bf 7ac7 343f 21e6 413f
000000a0: a18e 81bf a887 71bf d1cc c1be 3b4b a43e
000000b0: 9ede 06bf 80bf 60be 4390 2a3e 91d2 6ebf
000000c0: 9d9b 413f 51dd 0440 226f 243f f4e9 2ebf
000000d0: 0599 a43f 3c75 f7be 98de e6be 269a 903f
000000e0: d4cc 263e 9ca4 b3bf 9ae4 85be 4cba 2dc0
000000f0: d039 8dbf 8dc7 9c3f bfc1 113f a40f a43e
00000100: c888 183e c745 1ebf 74e9 05bf d6e6 123e
00000110: 5133 973f f4c3 a93f 91bb 96bf 96f7 8cbf
00000120: cc75 8ebf 30ea babf 1ef8 bdbe 362d fc3f
00000130: 7987 9bbf 2e5e d33f c3ba c3be dc94 afbe
00000140: bf66 bbbf 18b6 89bf 4c45 423f 8b79 253f
00000150: 7829 b83f 5047 84bf 65fd e23f c9b4 cc3f
00000160: 292d 933f bec0 8dbe d2a7 0ebf 2445 a5be
00000170: 3f70 33bf 880c 1d40 3af2 16bf 4dc0 92bf
00000180: 3594 8e3f b57a 28bf 28bb 273f 84f9 25bf
00000190: 3d90 04bf 5f3f 0d40 8ac8 15bf 3e9e b73e
000001a0: 357c ef3e fa71 553e c7be 313f f76a ab3f
000001b0: 6391 0e3f 8a14 02bf 2ab4 2cbe 3ea0 143e
000001c0: d554 693d 2321 ff3f 7d3b 943f 2ddd bfbe
000001d0: a8c5 04c0 deb7 973e 33fc 19c0 5e5c dc3e
000001e0: 97a5 4d3f 5dc7 6a3f cf65 13bf 053d 8d3f
000001f0: f225 b93f 3daf 08c0 1883 32bf e8e6 863f
00000200: d552 e23e 4b31 39bd 2abf a3be 6a67 89be
00000210: fd96 c83e 0af7 9cbe 2158 5fbf 0e96 033f
00000220: aebf 2e3e 55b2 65bf 9f98 3abe 8d7d e9bc
00000230: 240e 14c0 ba3f 9f3e 0837 593f 6636 f33e

state_manager.sibling_embeddings.weight f4 [13, 16]
-0.439327 -0.15869303 -0.23723926 0.83220005 0.21456666 1.3468312 -1.2055962 0.05274685
0.45773914 0.006070008 -0.18148433 0.30852437 0.49992466 -0.80886376 1.576458 1.6885327
0.9958675 1.2961204 -0.19370198 0.2974445 0.03605753 -0.79970413 0.50124025 1.0055268
-2.0229764 -0.848119 -1.012475 0.44923145 0.34437966 -1.2551651 0.27294907 0.9890852
0.5409477 -0.46376646 0.90120363 -0.7648998 0.36548227 0.67993665 -0.37297723 2.249024
-2.3588088 -0.42894113 1.1517637 -0.25169784 0.30507058 -1.3807548 -0.17298163 0.096285865
-0.7535405 0.21652243 0.52912176 -1.2000374 -0.82902807 0.31316087 1.4613395 -1.1116887
0.2602176 -0.7238003 0.38989177 0.43608034 0.8375625 0.24852373 -1.6006794 -0.14805502
1.7344241 0.35458302 -0.096497245 0.03362554 0.09123647 -0.53015554 1.2652253 -1.8646274
-0.2988172 -0.8624127 1.0352226 0.52189916 0.8085123 -0.0048940782 -1.0202302 0.2854251
2.2832153 -0.090097465 0.5181147 -0.8562941 0.53996927 -0.6492089 0.09379165 0.10821461
-0.44967327 -0.09821399 1.0416206 -1.9858303 -0.41258186 1.6067069 0.25716475 -0.16562064
1.6356621 0.30996054 0.31409022 0.19883882 1.120119 0.45791525 -0.24879636 -0.51112825
0.51247036 -0.84108794 0.058765348 1.6266235 0.35460326 -0.33017257 -1.0337138 1.8242959
-1.180541 -0.22447062 -0.18745084 -0.47851893 0.6765593 0.97454983 -0.21661909 -0.28285646
-0.26891005 1.159354 -0.20245378 0.91848737 1.3658291 0.920841 3.4038877 1.604052
-0.6188602 0.0047402787 -2.3984883 0.31465465 1.0523716 -0.5976459 0.587189 -0.27984536
-0.77772224 0.7210985 -0.6915914 -0.75038975 -1.4687186 -0.20054159 0.3112329 0.45070308
-0.27369216 0.67517334 -0.3169694 -0.18356258 0.33038604 -0.6667734 -1.4138784 -0.848648
-2.1273472 -1.1883192 -2.565147 -0.022420615 -0.23773874 -0.3386725 -0.128542 -0.4362913
-0.085744016 -0.56662333 1.6902761 -0.5945402 1.7834269 -0.3839645 -0.4993721 -0.463575
1.3764032 1.0645566 1.0574319 0.36329207 -0.4778214 -0.6240224 -0.391162 -0.52896583
0.5668058 0.847047 0.48372722 0.6772249 0.66356486 -0.61936617 0.19901134 0.47693136
-0.022994062 -0.9016676 -0.34111547 1.6181452 0.13322495 -0.61421907 0.14333376 1.4790585
-0.57103115 -0.7195483 1.5013673 -0.97989 -0.87661785 0.9469824 1.2906439 1.9499489
0.4676602 0.67209566 -0.010879079 -0.13957231 -0.09205868 0.20012136 0.03614627 0.83766514
00000000: 78ef e0be 6d80 22be d9ee 72be 100b 553f
00000010: 5db7 5b3e f764 ac3f fa50 9abf 150d 583d
00000020: c95c ea3e ebe6 c63b 07d7 39be e8f6 9d3e
00000030: 20f6 ff3e b211 4fbf 60c9 c93f d721 d83f
00000040: 2cf1 7e3f 46e7 a53f d059 46be a54a 983e
00000050: 10b1 133d 69b9 4cbf 4851 003f 1ab5 803f
00000060: 7278 01c0 541e 59bf c898 81bf aa01 e63e
00000070: 8852 b03e 40a9 a0bf fbbf 8b3e b034 7d3f
00000080: 8c7b 0a3f cc72 edbe 48b5 663f 79d0 43bf
00000090: 7e20 bb3e 5410 2e3f dff6 bebe 02f0 0f40
000000a0: b9f6 16c0 2c9e dbbe fe6c 933f 8ade 80be
000000b0: 3632 9c3e 93bc b0bf 1922 31be 8631 c53d
000000c0: 08e8 40bf 0eb8 5d3e 8674 073f d39a 99bf
000000d0: 2f3b 54bf 9f56 a03e 2c0d bb3f d14b 8ebf
000000e0: 3e3b 853e fa4a 39bf e59f c73e ec45 df3e
000000f0: 7f6a 563f 017d 7e3e 10e3 ccbf bc9b 17be
00000100: 9c01 de3f e88b b53e 59a0 c5bd efba 093d
00000110: 30da ba3d 46b8 07bf e7f2 a13f 1cac eebf
00000120: 91fe 98be 14c7 5cbf 2d82 843f 2f9b 053f
00000130: a9fa 4e3f 815e a0bb e796 82bf 3d23 923e
00000140: 3320 1240 0585 b8bd 2aa3 043f 1736 5bbf
00000150: 6d3b 0a3f 8e32 26bf d615 c03d 9f9f dd3d
00000160: 933b e6be 6b24 c9bd d353 853f b02f febf
00000170: ee3d d3be 92a8 cd3f 19ab 833e 7598 29be
00000180: 605d d13f 26b3 9e3e 6fd0 a03e 679c 4b3e
00000190: 0f60 8f3f de73 ea3e 79c4 7ebe 4dd9 02bf
000001a0: 4231 033f 8a51 57bf efb3 703d 3335 d03f
000001b0: 8f8e b53e 610c a9be bc50 84bf 8782 e93f
000001c0: f81b 97bf a0db 65be 1df3 3fbe 6f00 f5be
000001d0: fe32 2d3f 197c 793f 65d1 5dbe 90d2 90be
000001e0: 94ae 89be b665 943f 0b50 4fbe fd21 6b3f
000001f0: 7dd3 ae3f 3cbc 6b3f 4cd9 5940 9351 cd3f
00000200: 9f6d 1ebf 5754 9b3b d580 19c0 6a1a a13e
00000210: 1db4 863f 52ff 18bf 0552 163f e447 8fbe
00000220: ce18 47bf e999 383f 220c 31bf 8b19 40bf
00000230: f9fe bbbf c65a 4dbe eb59 9f3e 8ec2 e63e
00000240: 6121 8cbe 29d8 2c3f d049 a2be d4f7 3bbe
00000250: 5c28 a93e a9b1 2abf f8f9 b4bf ff40 59bf
00000260: 7526 08c0 d81a 98bf 5e2b 24c0 70ab b7bc
00000270: c971 73be 7b66 adbe 84a0 03be 9361 dfbe
00000280: 8f9a afbd 3a0e 11bf f85a d83f c933 18bf
00000290: 5547 e43f ff96 c4be b3ad ffbe b459 edbe
000002a0: fb2d b03f 6443 883f ee59 873f 6b01 ba3e
000002b0: 02a5 f4be efbf 1fbf 6346 c8be 4e6a 07bf
000002c0: 2f1a 113f 12d8 583f 18ab f73e 9c5e 2d3f
000002d0: 63df 293f c88e 1ebf a1c9 4b3e 5930 f43e
000002e0: 0b5e bcbc b0d3 66bf b0a6 aebe 621f cf3f
000002f0: 1f6c 083e 763d 1dbf 16c6 123e ca51 bd3f
00000300: 192f 12bf 5134 38bf ce2c c03f 12da 7abf
00000310: 076a 60bf 706d 723f d233 a53f ed97 f93f
00000320: 2871 ef3e 760e 2c3f 2a3e 32bc 0bec 0ebe
00000330: 4389 bcbd 9dec 4c3e 1c0e 143d 3971 563f

model.decoder.weight f4 [14, 32]
1.0634586 0.94365954 0.98459035 -0.029551433 -0.67686224 0.3576187 0.95192903 1.0890713
-0.24113588 -0.25401348 1.0071129 -1.8703227 0.2321453 -0.105151534 0.62152475 0.14851099
2.415474 0.27297035 -0.5225648 0.050952304 0.72413045 -1.4230415 0.54099435 -0.7467816
0.90470773 -0.34161744 0.62672806 0.5636488 0.3554198 -0.0067818775 -0.23610105 -0.7062337
-1.2074907 0.2542138 1.3437347 -0.13504013 0.25853363 0.43010223 -0.47894803 0.33890665
0.30769083 0.41711074 1.1363918 0.84454304 1.2499614 -0.040038437 1.0670234 -0.66246414
-0.22413936 -1.1238458 0.33763364 -0.13792738 0.5905661 1.1315686 0.68822855 0.25051767
1.5226926 0.21789882 -0.77724606 1.4035974 -1.954484 0.44042137 0.5014282 -0.6837264
0.1362776 0.15243429 -0.92454344 -0.28595906 0.28090948 -2.2152004 -0.7205606 0.29275036
1.9269475 0.16123348 -0.61298984 1.068542 -1.2709358 0.9437074 0.8061647 -1.0593843
1.1476997 -0.7102099 -1.1303585 -0.53252214 -1.064632 -0.16500099 -0.051152907 -0.07230357
-0.15814076 0.16563347 -0.6886845 -0.17215216 -0.6510091 -0.16965556 1.4097891 -1.5660135
0.5139326 0.8144937 0.3488425 1.5310882 -1.4944296 -0.6722538 0.5099799 0.9279849
-0.27995074 -0.7614685 0.069773935 -0.8154472 -0.38857666 0.94001496 -0.23661512 -0.4961872
0.24630128 0.9793864 0.2721011 -1.124157 -0.31098637 0.32687345 1.4703416 -0.26585555
-1.2504282 0.33616245 -2.3812788 0.14329666 -0.19020015 0.104409106 0.76383525 -0.2562997
1.2184987 -1.6701723 -0.40818247 1.6051763 0.020194842 0.24472994 2.0605612 -1.2967412
-1.1825739 1.0683824 -2.5280845 -0.16556826 -0.32228574 -1.8379042 0.24997029 0.2921742
1.0780704 -0.13112755 0.30144483 1.4910344 -0.08418067 -0.88694406 -0.5933187 1.3213644
0.34949058 -0.21147163 0.4817915 1.0160944 -1.110441 -0.0764431 -0.85360396 0.020074628
1.8854141 -1.8348964 -1.1087955 0.1580813 -0.13221958 -1.2693917 0.427745 0.5670474
-0.118824884 0.69858205 0.6795957 -1.067442 1.1204271 -0.2716396 1.0603055 0.49253798
0.2852592 -0.8199135 -0.8904073 -2.2330382 -1.9468926 -0.22587818 0.2600326 1.1157485
-1.4745795 0.7466038 0.32782084 -1.0286665 0.73730624 0.45850953 0.35844603 1.4363016
3.1023777 0.24454618 1.5185919 -0.2676246 0.6298014 -0.26639026 -0.25587317 0.9659858
0.27153862 -0.18372233 -0.1315311 1.6851375 1.2749319 0.14863954 -0.8995369 0.26018816
0.8048977 -0.19923027 1.115724 -0.5741587 0.8809379 -0.19172683 0.84313035 -0.942204
0.20542239 0.83668596 -0.20142604 -0.42604464 0.06844346 1.4124852 -1.6383901 -0.096307814
0.40351075 -2.1675205 1.2793077 0.18091981 0.19987984 0.33212295 1.3279189 0.78516126
0.66157037 -0.11067723 0.18760017 0.731849 0.09864121 1.476488 0.34065014 -0.94582325
0.70869964 -0.7342431 0.26030037 1.0283026 2.074718 1.5587593 -0.89827037 1.1759118
-1.2053183 -0.035822347 0.42740366 -1.1961291 1.6740584 1.8764896 -0.40856454 0.9458436
00000000: 691f 883f ac93 713f 1d0e 7c3f d915 f2bc
00000010: d846 2dbf cc19 b73e 9fb1 733f b066 8b3f
00000020: 53ec 76be 0e0e 82be 13e9 803f bc66 efbf
00000030: 7fb7 6d3e b059 d7bd 3f1c 1f3f 4413 183e
00000040: 2097 1a40 c5c2 8b3e cfc6 05bf 5db3 503d
00000050: 9d60 393f 3926 b6bf 9b7e 0a3f 142d 3fbf
00000060: ed9a 673f 7be8 aebe 4071 203f 4a4b 103f
00000070: 96f9 b53e 833a debb 79c4 71be bbcb 34bf
00000080: 0e8f 9abf 5028 823e 80ff ab3f f647 0abe
00000090: 855e 843e 5c36 dc3e ad38 f5be 2c85 ad3e
000000a0: a789 9d3e 8a8f d53e 4975 913f f933 583f
000000b0: bcfe 9f3f 58ff 23bd 3994 883f 4097 29bf
000000c0: ca84 65be 2eda 8fbf 51de ac3e d63c 0dbe
000000d0: 572f 173f 3dd7 903f bf2f 303f da43 803e
000000e0: 97e7 c23f de20 5f3e 99f9 46bf 14a9 b33f
000000f0: 882c fabf e97e e13e 995d 003f b108 2fbf
00000100: 5b8c 0b3e bc17 1c3e e1ae 6cbf 3a69 92be
00000110: 5ed3 8f3e d8c5 0dc0 a976 38bf 60e3 953e
00000120: 37a6 f63f 641a 253e e7ec 1cbf fcc5 883f
00000130: 06ae a2bf cf96 713f cf60 4e3f e899 87bf
00000140: d3e7 923f 51d0 35bf 96af 90bf 5f53 08bf
00000150: dd45 88bf 05f6 28be b685 51bd e513 94bd
00000160: a7ef 21be d29b 293e a14d 30bf a848 30be
00000170: 88a8 26bf 30ba 2dbe f873 b43f 2173 c8bf
00000180: 1691 033f a982 503f 7c9b b23e b3fa c33f
00000190: 7849 bfbf d318 2cbf 0b8e 023f 6b90 6d3f
000001a0: b455 8fbe 9aef 42bf a3e5 8e3d 26c1 50bf
000001b0: 85f3 c6be d2a4 703f 3c4b 72be 400c febe
000001c0: 6736 7c3e 11b9 7a3f d650 8b3e 60e4 8fbf
000001d0: 9b39 9fbe f55b a73e 2734 bc3f 381e 88be
000001e0: 080e a0bf 7c1d ac3e df66 18c0 5cbc 123e
000001f0: d4c3 42be 71d4 d53d b58a 433f b739 83be
00000200: c4f7 9b3f 35c8 d5bf 4bfd d0be 6b76 cd3f
00000210: a76f a53c 7c9a 7a3e 3ce0 0340 9efb a5bf
00000220: 955e 97bf c1c0 883f 23cc 21c0 ba8a 29be
00000230: a302 a5be 7240 ebbf 36f8 7f3e db97 953e
00000240: 36fe 893f 4d46 06be fa56 9a3e 37da be3f
00000250: ea66 acbd c40e 63bf bce3 17bf 7822 a93f
00000260: 6ef0 b23e 058c 58be 60ad f63e 620f 823f
00000270: ee22 8ebf 338e 9cbd ca85 5abf 8c73 a43c
00000280: 4055 f13f e3dd eabf 03ed 8dbf 10e0 213e
00000290: 9264 07be 6d7b a2bf 6501 db3e 052a 113f
000002a0: 765a f3bd 46d6 323f fcf9 2d3f f1a1 88bf
000002b0: 286a 8f3f 5814 8bbe 17b8 873f f02d fc3e
000002c0: 7e0d 923e dae5 51bf bcf1 63bf 19ea 0ec0
000002d0: c733 f9bf 9c4c 67be fe22 853e d9d0 8e3f
000002e0: 05bf bcbf 6d21 3f3f 22d8 a73e 58ab 83bf
000002f0: 1ac0 3c3f c3c1 ea3e 3d86 b73e bbd8 b73f
00000300: 5b8d 4640 506a 7a3e 3861 c23f 1706 89be
00000310: aa3a 213f 4e64 88be cf01 83be d84a 773f
00000320: 1c07 8b3e b521 3cbe 17b0 06be 96b2 d73f
00000330: f830 a33f f734 183e 0d48 66bf 6237 853e
00000340: c70d 4e3f 0503 4cbe 0bd0 8e3f 11fc 12bf
00000350: 2585 613f 0a54 44be 64d7 573f 4834 71bf
00000360: 3f5a 523e 0d31 563f a142 4ebe 8622 dabe
00000370: 162c 8c3d 51cc b43f c4b6 d1bf 083d c5bd
00000380: f698 ce3e a8b8 0ac0 5bc0 a33f 0b43 393e
00000390: 4dad 4c3e 050c aa3e 3ff9 a93f 5400 493f
000003a0: ad5c 293f beaa e2bd 421a 403e 755a 3b3f
000003b0: 6704 ca3d 8ffd bc3f b269 ae3e 7921 72bf
000003c0: 576d 353f 5bf7 3bbf 1746 853e 6b9f 833f
000003d0: 2ec8 0440 6d85 c73f 0cf5 65bf 4784 963f
000003e0: df47 9abf 74ba 12bd a7d4 da3e c21a 99bf
000003f0: 8c47 d63f d030 f03f 5f2f d1be ce22 723f

model.transformer.encoder.layers.0.self_attn.in_proj_weight f4 [96, 32]
0.16110744 0.19166878 0.13542756 0.018315524 0.07734688 -0.1169316 -0.12557252 -0.06722683
-0.19417915 0.009360212 -0.18625967 0.13327724 0.06048217 -0.08753975 0.010939974 0.17576043
-0.058536377 0.0053944853 -0.13749743 -0.21526521 -0.10707608 -0.022019517 -0.099792495 0.0625696
0.012895456 0.15282989 -0.011281537 0.11118602 -0.16636632 -0.038024217 -0.21002705 -0.045180846
0.17522201 0.08940116 0.1757138 -0.25153583 -0.2954094 0.02890811 -0.12713301 0.18296593
0.11349506 0.19540228 0.20662083 -0.04737178 -0.24060002 -0.01798979 0.26812127 -0.034587838
-0.25215194 -0.05649996 0.31353 -0.06774242 -0.18496482 0.28210995 0.24019709 0.18494678
0.2130981 0.29482213 0.24638645 -0.017801167 0.006098729 0.09815946 -0.015324984 0.26441306
0.1747564 0.104277045 -0.077868186 -0.11824679 -0.13480116 0.069494806 -0.08534227 -0.1589932
-0.22033374 0.12586376 -0.15938929 0.14062302 0.04857799 0.09181291 0.05130621 -0.1278705
-0.0008506266 0.07077431 -0.036721446 0.12592605 0.20471273 -0.047834475 -0.2583752 -0.05391781
0.12350754 -0.08566108 0.066714406 -0.05259532 -0.129676 0.025000295 0.051237088 -0.17765713
0.2731138 -0.031317398 0.13661237 -0.18793707 -0.026070418 -0.06260444 -0.028528927 0.06810084
-0.17804255 -0.07546483 0.18504286 0.11835042 -0.18614663 -0.09349821 -0.16690055 -0.17235562
0.13085912 -0.11358214 -0.11172437 -0.106244646 -0.1530046 -0.005315977 -0.1665298 -0.032150846
0.07790822 0.09607518 -0.010964801 0.19404219 0.03734127 0.10637227 0.04240282 -0.056279577
0.24845767 -0.071864806 -0.21535653 0.15725312 -0.12441636 -0.22356628 -0.1237086 -0.091497846
-0.042567044 -0.2533449 0.06587129 -0.072467595 0.10431987 0.07342555 0.13829347 -0.08859316
0.1052064 0.018010661 -0.086649224 0.1026568 -0.1789805 0.22474736 -0.18144175 0.19115326
0.1496816 -0.03497015 0.23639657 -0.085048996 -0.20963894 -0.0010035363 -0.010316537 0.029051274
0.2800992 -0.16568886 0.022313423 0.121575095 0.15686157 -0.003408336 0.016763333 -0.20802832
-0.20873143 0.025070023 -0.093753524 -0.16794144 -0.0051709767 -0.1111719 0.14835803 -0.15996522
0.09394478 0.07334527 0.013752339 0.18938263 -0.093921065 0.13544026 -0.010364095 0.18304789
0.14262475 0.036427945 0.057955537 -0.22037281 -0.09119512 0.02414201 0.067032516 0.11077634
-0.15484297 -0.0113683725 0.17200334 0.13203363 0.020999404 0.12379119 0.0628544 0.008173668
-0.17671789 -0.03356738 -0.1463014 -0.124752216 0.15595962 0.13674934 0.12496029 0.009263443
0.0065683248 -0.10521624 -0.08913159 -0.13778684 0.07290919 -0.0014157057 0.09658253 -0.05211527
0.001459539 0.16711965 0.054849673 -0.08784445 0.104181185 -0.10718685 0.26175472 -0.018201169
-0.012342967 0.13832581 -0.08704977 -0.16334952 0.072727785 0.06377888 0.14130038 0.00402327
0.031025967 0.26794854 0.011430145 -0.12214905 0.090426624 0.17916633 -0.19732174 0.16431394
-0.10428077 -0.0034644296 -0.0565917 0.17982106 -0.112228245 -0.18833034 -0.037188992 -0.15720218
-0.08890774 -0.101039596 0.024746971 0.028539693 0.06251359 0.08446376 -0.13013758 -0.18560308
00000000: 59f9 243e d244 443e 86ad 0a3e 700a 963c
00000010: 0b68 9e3d d679 efbd 1596 00be 38ae 89bd
00000020: e6d6 46be 935b 193c dbba 3ebe d479 083e
00000030: 27bc 773d 0a48 b3bd 943d 333c 8bfa 333e
00000040: d7c3 6fbd 39c4 b03b 20cc 0cbe 7c6e 5cbe
00000050: b44a dbbd 4662 b4bc 0260 ccbd 7e24 803d
00000060: 7647 533c 707f 1c3e 32d6 38bc 7fb5 e33d
00000070: ef5b 2abe 48bf 1bbd 5511 57be 8d0f 39bd
00000080: 666d 333e f517 b73d 52ee 333e 4ec9 80be
00000090: e73f 97be b3d0 ec3c 282f 02be 6c5b 3b3e
000000a0: 1970 e83d 8917 483e 6994 533e e908 42bd
000000b0: da5f 76be 535f 93bc 3147 893e faab 0dbd
000000c0: 0f1a 81be 816c 67bd 0187 a03e 8abc 8abd
000000d0: 6b67 3dbe b770 903e 3af6 753e b062 3d3e
000000e0: 6336 5a3e edf2 963e bb4c 7c3e c1d3 91bc
000000f0: d9d7 c73b d407 c93d a415 7bbc 2661 873e
00000100: 57f3 323e 348f d53d 5b79 9fbd 5f2b f2bd
00000110: 5109 0abe 4b53 8e3d eec7 aebd 1dcf 22be
00000120: 2b9f 61be 6ee2 003e f236 23be 7bff 0f3e
00000130: b7f9 463d 6808 bc3d 7626 523d 7cf0 02be
00000140: 96fc 5eba 1ff2 903d 3a69 16bd c2f2 003e
00000150: 37a0 513e 15ee 43bd c149 84be ecd8 5cbd
00000160: 85f1 fc3d 146f afbd 90a1 883d 316e 57bd
00000170: c9c9 04be 6bcd cc3c fbdd 513d c0eb 35be
00000180: 92d5 8b3e ac46 00bd 1de4 0b3e 9372 40be
00000190: a191 d5bc c236 80bd 7fb5 e9bc 7478 8b3d
000001a0: c950 36be 4e8d 9abd e07b 3d3e b461 f23d
000001b0: 399d 3ebe fd7b bfbd fae7 2abe fe7d 30be
000001c0: efff 053e c19d e8bd bfcf e4bd cb96 d9bd
000001d0: 3dad 1cbe a631 aebb ca86 2abe 9bb0 03bd
000001e0: 588e 9f3d 10c3 c43d b5a5 33bc ffb2 463e
000001f0: 29f3 183d b4d9 d93d 94ae 2d3d 6a85 66bd
00000200: b06b 7e3e db2d 93bd 6c86 5cbe f606 213e
00000210: 01ce febd 8fee 64be ef5a fdbd 3963 bbbd
00000220: c85a 2ebd 6cb6 81be 87e7 863d e469 94bd
00000230: a8a5 d53d 2260 963d ce9c 0d3e 5570 b5bd
00000240: 7476 d73d 188b 933c 2675 b1bd ba3d d23d
00000250: aa46 37be 2c24 663e decb 39be aebd 433e
00000260: 2246 193e dc3c 0fbd f111 723e 2b2e aebd
00000270: 97ab 56be 1789 83ba b106 29bc f0fc ed3c
00000280: 2a69 8f3e 57aa 29be a4ca b63c 5dfc f83d
00000290: 52a0 203e 645e 5fbb 4253 893c 6005 55be
000002a0: b1bd 55be a65f cd3c d901 c0bd d7f8 2bbe
000002b0: 4c71 a9bb 18ae e3bd 2beb 173e eccd 23be
000002c0: 1f66 c03d 0b36 963d 7e51 613c 85ed 413e
000002d0: b059 c0bd dab0 0a3e 2ace 29bc e870 3b3e
000002e0: 390c 123e 7835 153d c962 6d3d 69a9 61be
000002f0: 82c4 babd 77c5 c53c 5848 893d b5de e23d
00000300: 288f 1ebe 6942 3abc a521 303e d333 073e
00000310: f106 ac3c 3c86 fd3d cfb9 803d d9ea 053c
00000320: 89f5 34be f37d 09bd 09d0 15be 177e ffbd
00000330: e1b3 1f3e 0508 0c3e 2eeb ff3d b2c5 173c
00000340: 1a3b d73b 9d7b d7bd a08a b6bd fe17 0dbe
00000350: 6a51 953d 338f b9ba 10cd c53d d276 55bd
00000360: 014e bf3a 6a21 2b3e 0daa 603d cae7 b3bd
00000370: f25c d53d c784 dbbd b704 863e 9e1a 95bc
00000380: 283a 4abc 48a5 0d3e 2647 b2bd 1945 27be
00000390: 4ef2 943d 809e 823d 0cb1 103e a3d5 833b
000003a0: 2b2a fe3c 8d30 893e 8145 3b3c 4829 fabd
000003b0: 9831 b93d 6177 373e b60e 4abe ea41 283e
000003c0: 2891 d5bd 7c0b 63bb b3cc 67bd 0323 383e
000003d0: ecd7 e5bd abd9 40be 7c53 18bd 9cf9 20be
000003e0: 4315 b6bd d9ed cebd 29ba ca3c 13cc e93c
000003f0: 2007 803d 56fb ac3d c942 05be bc0e 3ebe

model.transformer.encoder.layers.0.self_attn.in_proj_bias f4 [96]
-0.0054724826 0.13275245 -0.05184692 0.034484856 0.014534319 -0.01231673 -0.041658312 -0.019021
0.022884479 -0.09713445 0.045503434 -0.0018606986 0.030810883 -0.02296228 0.03224651 -0.07803814
0.023020048 0.062754 -0.0746819 -0.033129435 0.048999593 -0.017244156 -0.010764231 -0.048002023
-0.021266598 -0.0730105 0.062459078 0.071230665 -0.021439025 -0.19293627 0.059098825 0.057442978
-0.010811605 -0.03636994 0.025638258 0.015223302 0.006247185 0.0066104215 0.019052817 0.011594469
-0.019471984 -0.017168073 -0.00075671973 0.009729943 -0.013005519 0.020953365 -0.008135273 0.018547691
-0.006300503 -0.027305666 0.01144358 -0.002798322 -0.027696842 0.0020401326 -0.009689043 0.0054839714
-0.01925213 0.02232535 -0.016543504 -0.031814355 -0.013197974 0.016599784 -0.01610402 -0.023981664
-0.029706942 -0.026639208 -0.03057916 0.060465507 -0.041012425 -0.012035928 0.012481412 0.004252788
-0.061361045 -0.0021406054 -0.00018284896 0.028816484 0.008688817 0.034822498 0.019906515 -0.014846883
-0.016254656 -0.06514236 0.0036551647 0.00030232104 0.01558488 0.019356448 -0.029508349 -0.017727584
0.013593462 -0.08513778 -0.015661243 0.048843767 0.014977578 0.023708323 0.0048138346 -0.00014121723
00000000: 8352 b3bb 42f0 073e 705d 54bd fe3f 0d3d
00000010: 5a21 6e3c 1ccc 49bc e8a1 2abd eed1 9bbc
00000020: 3b78 bb3c 6dee c6bd cf61 3a3d afe2 f3ba
00000030: 1b67 fc3c 641b bcbc eb14 043d 76d2 9fbd
00000040: 8a94 bc3c 2b85 803d d3f2 98bd bbb2 07bd
00000050: ccb3 483d 9e43 8dbc 755c 30bc c59d 44bd
00000060: 4a37 aebc 8786 95bd 17d5 7f3d 62e1 913d
00000070: e5a0 afbc 1691 45be 9c11 723d 5449 6b3d
00000080: 2823 31bc a5f8 14bd 5307 d23c 286b 793c
00000090: 30b5 cc3b 3c9c d83b a714 9c3c baf6 3d3c
000000a0: b683 9fbc 0fa4 8cbc 9a5e 46ba 576a 1f3c
000000b0: 1a15 55bc 64a6 ab3c cf49 05bc 54f1 973c
000000c0: 7374 cebb 22b0 dfbc da7d 3b3c 0d64 37bb
000000d0: 7de4 e2bc bfb3 053b cbbe 1ebc e3b2 b33b
000000e0: a5b6 9dbc a7e3 b63c 3e86 87bc c54f 02bd
000000f0: 513c 58bc 45fc 873c 94ec 83bc 3275 c4bc
00000100: f95b f3bc 783a dabc 2681 fabc aeaa 773d
00000110: a5fc 27bd 5732 45bc d67e 4c3c f95a 8b3b
00000120: b855 7bbd 6649 0cbb 25bb 3fb9 8c10 ec3c
00000130: 8a5b 0e3c 09a2 0e3d fd12 a33c 5740 73bc
00000140: 7c28 85bc 5c69 85bd 7d8b 6f3b d880 9e39
00000150: b957 7f3c 6a91 9e3c 7ebb f1bc 7039 91bc
00000160: 1db7 5e3c b75c aebd 024c 80bc 6710 483d
00000170: 8464 753c f537 c23c 5fbd 9d3b b613 14b9

model.transformer.encoder.layers.0.self_attn.out_proj.weight f4 [32, 32]
-0.3709535 0.14867374 0.09460269 0.04522411 -0.040575165 -0.13203456 0.087272435 -0.18358499
0.006170489 0.19638382 0.026643367 0.28239086 0.27875856 0.15807745 0.145338 -0.10417565
-0.25506932 0.020359859 0.23898102 -0.22855128 0.063473016 0.25912055 0.25074786 -0.3528214
-0.07752515 -0.2462123 0.26540977 0.17768538 0.34000632 -0.18552479 -0.094585754 0.07292428
-0.29598588 0.26972318 -0.14392406 0.10819767 0.088499375 -0.18241505 0.057280604 0.29515618
0.08399268 -0.17340258 -0.26564515 0.09771906 0.01681444 0.051863685 0.10342675 0.23718971
0.11660268 0.16904917 -0.3358515 0.22400963 -0.21891369 -0.0644634 0.25217897 -0.18922704
-0.19638294 0.21015324 -0.030313171 0.09961554 -0.25318643 0.25352314 -0.14174584 -0.26313254
-0.067772284 -0.03640276 -0.06590761 0.2641027 -0.23661616 -0.2378485 0.19250184 0.20149483
0.008756532 0.20491353 0.123078994 -0.24773724 -0.31919378 0.011101891 0.042133827 0.06146379
-0.044700522 -0.112347126 0.013476595 0.27765653 -0.08925951 0.28537074 -0.2738235 0.29056665
-0.06205177 -0.03073614 0.03499519 -0.10402945 -0.25780243 -0.17468564 0.19425079 -0.26162192
0.1307885 -0.2867055 0.073700845 0.041398775 -0.33298257 0.020692402 -0.20351896 -0.005401081
0.029723167 0.27254736 0.078964286 0.13128571 -0.15691873 -0.11222013 -0.08182609 -0.020271817
0.034120996 -0.1682489 0.0034169534 -0.17343788 -0.29408988 -0.27907017 0.29090565 -0.10310899
-0.030865911 0.002109759 -0.053405 0.055536572 -0.0936831 0.08843939 0.15650429 -0.18580063
-0.45049417 -0.033935238 -0.3381344 0.25905156 -0.13046043 0.041662484 -0.11703094 0.0904332
0.01986528 -0.2326636 -0.12901127 0.1883061 0.3441157 0.10983945 0.09071868 0.08622762
-0.25735295 0.014964672 0.39215982 0.09382911 0.29144228 0.0037773808 -0.096379936 -0.2349115
0.30456606 0.122902684 -0.24998735 -0.11422096 0.32973853 0.059620738 0.18653665 0.04372781
-0.09341974 0.29427367 -0.24243586 0.18794702 -0.006493904 0.15798317 -0.0034928457 0.03457079
0.24110316 0.13304338 -0.27452528 -0.06993279 -0.23615716 0.02477222 -0.20114154 -0.22656812
0.18410377 0.14745921 0.33901387 0.24525106 -0.044687446 -0.039221477 -0.24984394 0.1602215
-0.123807505 0.2182877 0.11104481 0.26221776 0.06543308 -0.27768597 -0.08325434 0.19731078
0.028419783 0.13872114 -0.15147585 0.3250315 -0.11825995 0.17209923 -0.2675519 0.07372147
-0.06652609 -0.21072835 -0.047206912 -0.13768198 0.0011465386 -0.25529897 -0.048477247 0.035622716
0.33773166 -0.00013279979 -0.026429672 0.3084136 -0.14050922 -0.08292858 -0.121522136 -0.20010164
0.24713396 0.1137911 0.3050889 0.035408042 -0.034849666 -0.22133851 0.010859328 0.2991879
-0.32835773 -0.13086276 -0.3193497 0.008208551 -0.06643437 0.2020514 0.03437784 -0.1407331
-0.077132136 -0.32309473 0.13660283 0.08019501 -0.004215775 -0.12921637 -0.16873991 0.03970337
0.06729632 -0.24566205 -0.04326994 0.090431444 0.064505965 -0.1346849 0.08714887 -0.06413907
-0.25590447 -0.1674057 0.33124128 0.051939555 0.42117983 0.12212422 -0.23188004 -0.07863593
00000000: 9eed bdbe ee3d 183e 0ebf c13d eb3c 393d
00000010: 2532 26bd 1134 07be e4bb b23d b4fd 3bbe
00000020: d031 ca3b d718 493e 3143 da3c 8995 903e
00000030: 71b9 8e3e 0edf 213e 7cd3 143e 0b5a d5bd
00000040: 7298 82be b8c9 a63c 71b7 743e 5909 6abe
00000050: 24fe 813d 73ab 843e 0662 803e 02a5 b4be
00000060: 81c5 9ebd 141f 7cbe cae3 873e 28f3 353e
00000070: 4f15 ae3e 36fa 3dbe 2db6 c1bd 5359 953d
00000080: 768b 97be 2819 8a3e d460 13be bd96 dd3d
00000090: 293f b53d 03cb 3abe 119f 6a3d b61e 973e
000000a0: 5b04 ac3d 7290 31be a402 88be ee20 c83d
000000b0: 70be 893c 046f 543d 67d1 d33d dce1 723e
000000c0: 63cd ee3d 3a1b 2d3e baf4 abbe c862 653e
000000d0: e92a 60be 6305 84bd 9a1d 813e bcc4 41be
000000e0: 9c18 49be 6932 573e 5453 f8bc 3b03 cc3d
000000f0: a7a1 81be c9cd 813e d225 11be 4fb9 86be
00000100: 32cc 8abd 0f1b 15bd 92fa 86bd 7838 873e
00000110: 824b 72be 8f8e 73be 341f 453e a954 4e3e
00000120: 8f77 0f3c dad4 513e d710 fc3d d5ae 7dbe
00000130: 5e6d a3be b5e4 353c 8594 2c3d 74c1 7b3d
00000140: e517 37bd 4016 e6bd f0cc 5c3c ff28 8e3e
00000150: b1cd b6bd 1d1c 923e 9832 8cbe 27c5 943e
00000160: ff29 7ebd 5cca fbbc 1e57 0f3d 640d d5bd
00000170: aefe 83be cbe0 32be aee9 463e 4ff3 85be
00000180: 6ced 053e 10cb 92be 78f0 963d c391 293d
00000190: b17c aabe 1d83 a93c 4667 50be 8dfb b0bb
000001a0: 007e f33c 548b 8b3e 07b8 a13d c36f 063e
000001b0: 4eaf 20be abd3 e5bd 7094 a7bd 1511 a6bc
000001c0: 75c2 0b3d 7149 2cbe f7ee 5f3b b399 31be
000001d0: f392 96be 49e2 8ebe 96f1 943e ce2a d3bd
000001e0: 82da fcbc e243 0a3b 34bf 5abd 517a 633d
000001f0: eddc bfbd b61f b53d a942 203e 8542 3ebe
00000200: 2ca7 e6be adff 0abd f41f adbe 68a2 843e
00000210: 6b97 05be 48a6 2a3d ebad efbd 0b35 b93d
00000220: 83bc a23c 5e3f 6ebe 881b 04be 50d3 403e
00000230: ef2f b03e 81f3 e03d b7ca b93d 1b98 b03d
00000240: c4c3 83be 622e 753c 2cc9 c83e 7a29 c03d
00000250: ec37 953e ef8d 773b d862 c5bd a48c 70be
00000260: 15f0 9b3e 67b4 fb3d affc 7fbe aeec e9bd
00000270: 7dd3 a83e e034 743d 7703 3f3e ef1b 333d
00000280: d952 bfbd 0aab 963e 1b41 78be 2f75 403e
00000290: d1ca d4bb 57c6 213e 3ae8 64bb 1a9a 0d3d
000002a0: bfe3 763e 863c 083e 948e 8cbe ec38 8fbd
000002b0: 2fd3 71be 1cef ca3c 0cf8 4dbe 7901 68be
000002c0: b385 3c3e 8cff 163e 3a93 ad3e 1823 7b3e
000002d0: 2f0a 37bd b3a6 20bd 17d7 7fbe 1b11 243e
000002e0: ca8e fdbd d086 5f3e 766b e33d 6841 863e
000002f0: c701 863d db2c 8ebe 4081 aabd d60b 4a3e
00000300: 9bd0 e83c ea0c 0e3e 7c1c 1bbe 876a a63e
00000310: 4632 f2bd c83a 303e 90fc 88be 48fb 963d
00000320: d53e 88bd 2cc9 57be 095c 41bd 81fc 0cbe
00000330: 7447 963a 8cb6 82be 1490 46bd 20e9 113d
00000340: 2aeb ac3e 2c40 0bb9 0a83 d8bc 63e8 9d3e
00000350: a6e1 0fbe 76d6 a9bd 99e0 f8bd 72e7 4cbe
00000360: af10 7d3e 4f0b e93d 9d34 9c3e 0608 113d
00000370: 86be 0ebd 90a6 62be 53eb 313c 282f 993e
00000380: 811e a8be e300 06be ce81 a3be 297d 063c
00000390: be0e 88bd 90e6 4e3e c7cf 0c3d 561c 10be
000003a0: 74f7 9dbd ac6c a5be 9de1 0b3e 483d a43d
000003b0: 7c24 8abb 4c51 04be 28ca 2cbe 00a0 223d
000003c0: a7d2 893d d58e 7bbe d23b 31bd 1f34 b93d
000003d0: b41b 843d d7ea 09be 1b7b b23d 585b 83bd
000003e0: e905 83be 666c 2bbe 7598 a93e 92be 543d
000003f0: e2a4 d73e 431c fa3d f671 6dbe e00b a1bd

model.transformer.encoder.layers.0.self_attn.out_proj.bias f4 [32]
0.0109774675 0.0255368 0.0093919495 0.07530352 0.01460075 0.012088401 0.011401471 0.06524224
0.032414675 0.034721203 -0.028081954 -0.037814043 0.0038273314 0.01017326 0.0104862545 -0.02540968
0.01649711 -0.06055484 -0.032352284 0.0032690875 0.050463162 -0.08278228 0.027457843 -0.06499606
0.006206818 -0.02468987 0.031593114 -0.023676442 0.018523123 -0.01699974 -0.010125557 -0.041593023
00000000: d6da 333c 8d32 d13c b1e0 193c bb38 9a3d
00000010: fc37 6f3c 6e0e 463c 3ccd 3a3c b99d 853d
00000020: 40c5 043d d237 0e3d 200c e6bc e6e2 1abd
00000030: f7d3 7a3b bfad 263c 8ace 2b3c f627 d0bc
00000040: f224 873c 5a08 78bd d483 04bd 303e 563b
00000050: 76b2 4e3d c289 a9bd 45ef e03c a81c 85bd
00000060: 9062 cb3b 6942 cabc c867 013d 19f5 c1bc
00000070: cebd 973c 0a43 8bbc aae5 25bc 725d 2abd

model.transformer.encoder.layers.0.linear1.weight f4 [128, 32]
-0.21877079 -0.029685654 0.1394445 -0.03283222 0.057014097 0.12908451 0.12026807 0.04137394
0.09475365 0.05999682 -0.111162655 0.21077748 0.20385782 -0.054217115 0.14201888 -0.00029117212
-0.081161596 0.015013404 -0.08822629 -0.076323725 0.16692089 -0.14441256 -0.37488765 0.1583575
0.04784701 0.117912546 0.113236345 0.16421857 0.20049022 0.07331331 -0.008568511 -0.082576655
0.17750345 -0.13731343 0.19889063 0.09691039 -0.039153315 -0.17302567 0.08436995 -0.10313548
-0.13621752 -0.15992558 -0.13979408 0.09278018 0.040736843 0.038120504 0.074235655 -0.18879224
0.089448884 0.14551282 -0.003310729 0.06396215 0.19646467 -0.18337409 0.11194853 -0.0476043
-0.041990057 -7.915226e-05 0.14520517 -0.16413037 -0.008457098 -0.13023813 -0.03684428 0.16035892
0.044620555 -0.23129931 0.00993522 0.11292315 -0.13602073 -0.0028158461 -0.17599 0.24717958
-0.09079491 -0.128124 0.23175542 -0.036549635 -0.017959526 -0.17789194 0.08577257 -0.22053105
-0.09354935 -0.09939582 0.1995144 0.16792114 -0.14487256 -0.109199196 0.15025166 -0.0925168
0.058185667 0.019339304 0.12661919 -0.118445426 0.14583237 0.069438465 -0.14143087 0.13535848
-0.12818153 0.0002770996 -0.095565654 0.09226571 0.06797331 0.23014326 0.09419606 0.07656709
0.05215114 -0.1100569 -0.048733152 0.12010545 0.0959833 0.00799702 0.006418997 0.07852419
0.006022567 0.12085474 0.13522235 0.25389507 -0.14807792 -0.14399569 0.1027681 0.17110123
-0.19736747 0.10823106 0.03378958 0.06259383 -0.23424394 0.14238721 -0.08236598 0.019939695
0.018288711 -0.081568256 -0.072847374 -0.0834092 -0.1012971 0.14563616 -0.108946085 -0.087650985
0.020510083 0.19998309 -0.21443683 0.020126022 -0.13271256 0.16795681 -0.062159136 0.12815627
-0.004698344 0.15786655 -0.08344042 -5.5444016e-05 0.25884944 -0.1253948 -0.023846943 0.011355741
0.197491 -0.0034819313 -0.09902258 0.013976744 -0.10413863 -0.105227716 -0.06518652 0.11655083
-0.2130348 -0.09005664 0.11939679 -0.10192109 -0.18785898 -0.07518138 -0.05165592 0.043878123
0.0011265402 -0.04540333 -0.13440438 0.2623841 -0.09850671 0.035330452 -0.10986655 0.23573378
-0.04627966 0.049342055 0.08700531 4.7515066e-05 0.11138843 -0.11333048 -0.17685963 -0.0823775
0.3790432 0.2392151 -0.075053185 -0.17414121 0.1346237 -0.015574579 -0.09504685 0.055481516
-0.013724463 -0.0040826593 0.0069145826 -0.118105344 0.11381569 -0.19179757 0.22551192 -0.2007794
-0.077981845 0.12937178 -0.10471925 0.061994128 -0.008911241 -0.12275288 -0.06252658 0.0477053
-0.088410206 0.08938841 -0.12961818 0.07936823 0.113131925 -0.03732441 0.13251519 -0.08095317
0.1294502 0.19724357 0.0018301496 -0.018223211 0.17882696 -0.23662232 0.029256085 -0.06050442
0.21084483 0.041765995 -0.1338284 -0.045826435 -0.12621301 -0.18825293 0.08596178 -0.13566114
-0.021324085 0.02130388 -0.18203059 -0.21862115 -0.017414456 0.053458378 0.14804332 0.10491051
-0.1355825 -0.15906687 0.0037541229 0.095107384 -0.15541245 0.1350718 0.15154338 -0.1070492
-0.09543783 0.14071704 0.115081675 0.0014658113 -0.22793059 0.15857188 -0.17189325 0.04113077
00000000: 7305 60be 542f f3bc 8aca 0e3e 147b 06bd
00000010: 9d87 693d bb2e 043e 1b4f f63d b877 293d
00000020: 340e c23d 3abf 753d 3fa9 e3bd 0dd6 573e
00000030: 1bc0 503e c412 5ebd 666d 113e 76a8 98b9
00000040: 0d38 a6bd c8fa 753c fcaf b4bd 9d4f 9cbd
00000050: 4fed 2a3e e3e0 13be 46f1 bfbe 7828 223e
00000060: 3afb 433d 227c f13d 75e8 e73d ea28 283e
00000070: 4f4d 4d3e 4a25 963d f162 0cbc f31d a9bd
00000080: 77c3 353e e49b 0cbe fca9 4b3e f478 c63d
00000090: 3a5f 20bd a42d 31be 27ca ac3d b238 d3bd
000000a0: 9b7c 0bbe 88c3 23be 2e26 0fbe 8903 be3d
000000b0: addb 263d 3f24 1c3d dd08 983d c152 41be
000000c0: fa30 b73d 5001 153e d1f8 58bb 96fe 823d
000000d0: 092e 493e 6bc6 3bbe 4545 e53d bafc 42bd
000000e0: c4fd 2bbd 8cfe a5b8 aab0 143e cb11 28be
000000f0: a48f 0abc 255d 05be 07ea 16bd 2135 243e
00000100: 0bc4 363d bad9 6cbe 55c7 223c 4144 e73d
00000110: 0549 0bbe 0f8a 38bb b936 34be a51c 7d3e
00000120: aff2 b9bd f032 03be 4b51 6d3e 12b5 15bd
00000130: db1f 93bc 4e29 36be 87a9 af3d e4d2 61be
00000140: cd96 bfbd 0990 cbbd 814d 4c3e 85f3 2b3e
00000150: 7959 14be d4a3 dfbd 92db 193e 7379 bdbd
00000160: 1854 6e3d 766d 9e3c 76a8 013e 8493 f2bd
00000170: 1555 153e c135 8e3d 41d3 10be 6a9b 0a3e
00000180: 0542 03be ae47 9139 edb7 c3bd cef5 bc3d
00000190: 9735 8b3d adaa 6b3e dde9 c03d 35cf 9c3d
000001a0: 6f9c 553d 8365 e1bd 6a9c 47bd d9f9 f53d
000001b0: e492 c43d ef05 033c 7356 d23b 4ad1 a03d
000001c0: f458 c53b b182 f73d ba77 0a3e 89fe 813e
000001d0: bda1 17be 9b73 13be 1578 d23d 2935 2f3e
000001e0: b31a 4abe 3fa8 dd3d f166 0a3d 3231 803d
000001f0: a5dd 6fbe f4cd 113e 7faf a8bd 9258 a33c
00000200: 35d2 953c 420d a7bd 0131 95bd 71d2 aabd
00000210: db74 cfbd a521 153e 201f dfbd 5c82 b3bd
00000220: c304 a83c 5ec8 4c3e 5495 5bbe 54df a43c
00000230: cde5 07be dffc 2b3e 949a 7ebd 663b 033e
00000240: 91f4 99bb c5a7 213e d0e2 aabd 8f8c 68b8
00000250: ea87 843e 7f67 00be aa5a c3bc 6e0d 3a3c
00000260: 153b 4a3e 1d31 64bb 5acc cabd b7fe 643c
00000270: a246 d5bd a181 d7bd 8380 85bd 34b2 ee3d
00000280: cb25 5abe 9e6f b8bd 4e86 f43d 01bc d0bd
00000290: 1b5e 40be b2f8 99bd 2895 53bd 8cb9 333d
000002a0: 6ba8 933a d8f8 39bd 4da1 09be 3557 863e
000002b0: e3bd c9bd aab6 103d b701 e1bd 3264 713e
000002c0: be8f 3dbd e51a 4a3d d72f b23d ea4a 4738
000002d0: 9e1f e43d d019 e8bd b11a 35be 89b5 a8bd
000002e0: f311 c23e cef4 743e 7cb5 99bd 1352 32be
000002f0: ccda 093e 852c 7fbc eca7 c2bd 9640 633d
00000300: 92dc 60bc d4c7 85bb b993 e23b 37e1 f1bd
00000310: 3318 e93d 9566 44be 99ec 663e 1d99 4dbe
00000320: f2b4 9fbd 097a 043e 0c77 d6bd 8eed 7d3d
00000330: 7400 12bc dd65 fbbd f00d 80bd a266 433d
00000340: 6910 b5bd 4511 b73d a1ba 04be d08b a23d
00000350: b6b1 e73d 7be1 18bd 10b2 073e c7ca a5bd
00000360: 988e 043e 38fa 493e a1e1 ef3a d848 95bc
00000370: 6a1e 373e 1f4d 72be 75aa ef3c 7cd3 77bd
00000380: b5e7 573e d212 2b3d 500a 09be 80b4 3bbd
00000390: fc3d 01be 60c5 40be bb0c b03d c1ea 0abe
000003a0: d9af aebc 7985 ae3c 3a66 3abe 39de 5fbe
000003b0: c3a8 8ebc 2cf7 5a3d ab98 173e 52db d63d
000003c0: 24d6 0abe 6de2 22be bb07 763b a9c7 c23d
000003d0: 7124 1fbe 4350 0a3e 302e 1b3e 9c3c dbbd
000003e0: e974 c3bd 2118 103e f1af eb3d 7720 c03a
000003f0: a366 69be ab60 223e c904 30be bd78 283d

model.transformer.encoder.layers.0.linear1.bias f4 [128]
-0.01235177 -0.15575092 0.095626555 -0.07567384 0.09320379 -0.08019242 -0.11786477 0.07407091
-0.040007986 -0.033825632 -0.12772658 -0.090274245 -0.06929055 0.01548566 0.04472736 -0.0036894877
-0.016718477 0.0030551774 0.013186452 0.0728341 -0.14424564 0.08778094 0.1218893 0.03981658
-0.071381554 0.07204304 -0.039004125 0.17580435 0.11087746 0.08468657 -0.0011958493 -0.09683987
-0.05405275 0.08030323 -0.027090805 -0.19410701 -0.023079619 0.1836639 0.073012374 -0.104343444
-0.011971804 -0.18343505 -0.12310349 -0.024489583 -0.02516713 0.07409593 -0.21467127 -0.18937056
-0.09766373 0.08387304 0.032378912 0.03552791 0.012582399 0.077343486 -0.20134993 0.035931602
-0.17252246 0.20251799 -0.042159777 0.039475683 0.11619318 -0.09530505 0.02559576 -0.19550505
0.07259376 0.078833714 -0.21942556 0.07290424 -0.015667979 -0.15104155 0.01504758 0.1054364
0.15006775 0.092644215 0.14460996 -0.080649406 -0.062974304 0.015139702 -0.02023604 -0.14265732
-0.12119864 0.17119287 0.1550155 -0.103119336 0.08005284 -0.15801673 0.07506246 0.06853012
0.08704825 -0.018166106 -0.10344693 0.009201117 -0.006064552 -0.10474549 0.037205223 0.06954621
-0.054052524 0.09087378 0.07688293 -0.19502473 -0.10633377 -0.038378358 -0.19738573 0.18265334
-0.029268209 -0.17549245 -0.07537086 -0.043348905 0.10036432 -0.022538116 0.020604331 -0.03218919
-0.08736171 -0.09167425 -0.036122058 -0.12716924 -0.041504864 0.035587598 0.15149789 -0.16227704
-0.058364417 -0.118780546 -0.1812292 0.1551289 0.09732198 -0.0044790925 -0.07970876 -0.013671379
00000000: 145f 4abc 2b7d 1fbe dbd7 c33d e3fa 9abd
00000010: a1e1 be3d ec3b a4bd 1663 f1bd 7db2 973d
00000020: 6adf 23bd bf8c 0abd c2ca 02be b4e1 b8bd
00000030: 34e8 8dbd 91b7 7d3c 0934 373d 55cb 71bb
00000040: 30f5 88bc 5f39 483b fd0b 583c 0b2a 953d
00000050: 21b5 13be 7ec6 b33d 19a1 f93d b616 233d
00000060: 7e30 92bd 4d8b 933d cac2 1fbd 0e06 343e
00000070: b913 e33d 2770 ad3d 0bbe 9cba fb53 c6bd
00000080: 6b66 5dbd 0576 a43d 89ed ddbc fdc3 46be
00000090: 7811 bdbc 6412 3c3e 8387 953d 04b2 d5bd
000000a0: 6325 44bc 66d6 3bbe af1d fcbd 619e c8bc
000000b0: 4c2b cebc 9bbf 973d c9d2 5bbe 5bea 41be
000000c0: ec03 c8bd a1c5 ab3d c09f 043d b785 113d
000000d0: 6826 4e3c 4366 9e3d ad2e 4ebe 042d 133d
000000e0: baa9 30be e060 4f3e bbaf 2cbd 41b1 213d
000000f0: b1f6 ed3d 4b2f c3bd 33ae d13c 7a32 48be
00000100: 0aac 943d 9273 a13d 18b1 60be d14e 953d
00000110: 225a 80bc a3aa 1abe 208a 763c 0aef d73d
00000120: 5cab 193e 40bc bd3d a214 143e 842b a5bd
00000130: acf8 80bd 830c 783c 0dc6 a5bc c314 12be
00000140: fe36 f8bd 2f4d 2f3e 62bc 1e3e 3b30 d3bd
00000150: bef2 a33d 23cf 21be 59ba 993d 8559 8c3d
00000160: 5a46 b23d 16d1 94bc fcdb d3bd 48c0 163c
00000170: 26b9 c6bb ce84 d6bd 8164 183d 3e6e 8e3d
00000180: 2e66 5dbd 081c ba3d cc74 9d3d 90b4 47be
00000190: 85c5 d9bd a032 1dbd 7c1f 4abe 7a09 3b3e
000001a0: e2c3 efbc 4bb4 33be 0a5c 9abd 9f8e 31bd
000001b0: cf8b cd3d dba1 b8bc 6aca a83c d0d8 03bd
000001c0: b2ea b2bd b6bf bbbd b9f4 13bd a738 02be
000001d0: 0101 2abd 4dc4 113d 4322 1b3e f42b 26be
000001e0: 870f 6fbd 3743 f3bd 2694 39be 1cda 1e3e
000001f0: bf50 c73d 5ac5 92bb 593e a3bd ebfd 5fbc

model.transformer.encoder.layers.0.linear2.weight f4 [32, 128]
0.24283051 -0.15507069 -0.0018913615 -0.073741704 0.061932478 0.1226838 0.1874377 0.055885963
0.19621354 0.11379416 -0.009839913 0.17179196 0.008861616 0.16833735 -0.08985332 -0.1079304
-0.065616734 0.10631274 -0.10429193 0.15175837 0.13646324 -0.028900953 0.1116225 -0.06070917
-0.08216478 -0.10819345 0.11150434 0.1445618 -0.07432772 -0.15796156 0.070202105 0.26908788
-0.22593185 0.1202044 -0.06104165 -0.059889853 0.05279665 0.039966494 0.21788311 -0.09815568
0.20122768 -0.05630806 -0.14117424 -0.21623124 -0.09826099 0.10886529 -0.10245148 -0.030224713
0.12692778 -0.0106742745 -0.1395946 0.21360217 -0.02208403 0.10483544 0.049886327 -0.12093016
-0.06041943 0.05078016 -0.13920805 -0.057060037 0.1433445 0.23920631 0.17831358 -0.044355154
-0.13625096 0.09392765 -0.13394465 0.042899806 -0.002875912 -0.11266575 0.2198597 0.031204272
0.13579695 0.057959247 0.15191413 0.029785292 0.16916591 0.13447022 -0.05851168 0.11034181
0.043756235 0.07968768 0.038430758 -0.0568891 0.05666677 0.08198966 -0.08539157 -0.07879287
0.00799479 -0.120077886 0.16486837 -0.060595866 0.1315077 -0.15267068 0.22739488 0.013057203
0.15715408 0.003415541 -0.018773338 -0.07500466 -0.06311929 0.08943951 0.21379548 0.16279444
-0.09812402 0.0017453174 -0.10850464 -0.0985449 -0.13467109 0.06355572 0.1573185 0.025172371
0.20084494 0.15980963 -0.17782924 0.034963317 -0.06451524 -0.024035338 0.13956435 0.11664974
-0.00221071 0.015123659 -0.13189141 0.12907468 -0.061190147 -0.015433374 -0.0267902 0.14637561
0.04752284 -0.025985261 -0.104294665 -0.10857941 0.06854411 0.050368503 -0.09507128 -0.164713
0.12855245 0.048943583 -0.067025796 0.0052786353 0.03579597 0.17363274 0.106093496 -0.11386757
-0.012401453 -0.04999776 0.03839898 0.10453968 0.062208407 0.08992965 -0.12124921 0.1333973
-0.00021944073 -0.032453172 0.1802254 0.033373654 0.026449684 -0.097759716 0.030528711 0.0768879
0.04123605 -0.07871725 -0.06877782 -0.14258812 -0.00012069379 0.17543069 -0.1343134 0.16446713
0.07333107 0.0020360975 -0.08363156 0.04222627 -0.050474815 -0.15550502 -0.11862228 0.13913028
-0.026283711 0.03553593 0.14420535 0.004606097 0.09034834 0.13810739 0.20793837 -0.11156248
-0.18447919 -0.068929285 0.1953102 -0.041808307 -0.14291923 -0.20885484 0.060650945 0.14463016
0.19472578 0.121543735 -0.029533815 -0.039073125 -0.078481585 0.1894886 -0.013814287 0.006689616
0.06879326 0.17824475 0.021931617 0.1651023 -0.026431214 -0.06005971 0.16699393 0.12708317
0.09748574 -0.15924616 0.04004227 -0.065975666 -0.18121736 -0.017914368 0.02979327 -0.15921271
0.16848753 0.029699763 -0.034637652 -0.01291385 0.10737185 -0.08422418 -0.060237803 -0.014626539
0.08403856 0.031547032 0.12837476 -0.18510725 0.101656705 -0.060402334 -0.13780893 -0.15927307
0.06957383 -0.15052012 0.06498473 0.09315115 0.06621687 -0.17153223 -0.08694795 0.15311489
0.15860125 -0.050410733 0.1860434 -0.09480889 0.008305592 -0.0034502903 0.181276 0.15691946
0.21940081 0.06733884 -0.1055667 0.04903582 -0.14593352 -0.06722534 0.08540664 0.15896012
00000000: 90a8 783e daca 1ebe 90e7 f7ba e405 97bd
00000010: e9ac 7d3d a541 fb3d abef 3f3e aee8 643d
00000020: 34ec 483e ea0c e93d 9637 21bc 3bea 2f3e
00000030: 5030 113c a060 2c3e 0405 b8bd 9d0a ddbd
00000040: 1162 86bd 7eba d93d 0297 d5bd 8c66 1b3e
00000050: 05bd 0b3e b1c1 ecbc 569a e43d 2eaa 78bd
00000060: 0246 a8bd 8794 ddbd 635c e43d 0208 143e
00000070: 2239 98bd adc0 21be 1fc6 8f3d e3c5 893e
00000080: ae5a 67be b92d f63d cf06 7abd 104f 75bd
00000090: 4d41 583d e8b3 233d c01c 5f3e d805 c9bd
000000a0: a10e 4e3e 48a3 66bd fb8f 10be b96b 5dbe
000000b0: 0f3d c9bd c4f4 de3d 15d2 d1bd d199 f7bc
000000c0: 5bf9 013e 27e3 2ebc e3f1 0ebe 87ba 5a3e
000000d0: 91e9 b4bc f7b3 d63d 9b55 4c3d 3baa f7bd
000000e0: 5d7a 77bd dbfe 4f3d 8e8c 0ebe c9b7 69bd
000000f0: e7c8 123e 80f2 743e d697 363e c0ad 35bd
00000100: 5f85 0bbe 245d c03d c928 09be b5b7 2f3d
00000110: cc79 3cbb 4dbd e6bd e722 613e 1aa0 ff3c
00000120: 5b0e 0b3e ad66 6d3d 618f 1b3e 4900 f43c
00000130: d439 2d3e 90b2 093e f2a9 6fbd e3fa e13d
00000140: bd39 333d 4b33 a33d 9269 1d3d 8b04 69bd
00000150: 6a1b 683d 32ea a73d c7e1 aebd 285e a1bd
00000160: 94fc 023c 65eb f5bd 41d3 283e 5f33 78bd
00000170: f4a9 063e b455 1cbe 34da 683e e1ed 553c
00000180: 00ed 203e 45d7 5f3b 8bca 99bc 0b9c 99bd
00000190: b044 81bd 102c b73d 34ed 5a3e 96b3 263e
000001a0: 3ff5 c8bd 22c3 e43a ae37 debd e9d1 c9bd
000001b0: 38e7 09be 8029 823d 1a18 213e 4a36 ce3c
000001c0: 4caa 4d3e 23a5 233e de18 36be b235 0f3d
000001d0: 9120 84bd c2e5 c4bc f5e9 0e3e 0fe6 ee3d
000001e0: 8fe1 10bb 39c9 773c 8b0e 07be 272c 043e
000001f0: 85a2 7abd 43dc 7cbc 1f77 dbbc 7de3 153e
00000200: 4fa7 423d 0bdf d4bc 7198 d5bd e25e debd
00000210: db60 8c3d 344f 4e3d bbb4 c2bd 86aa 28be
00000220: 41a3 033e 1179 483d d244 89bd 67f8 ac3b
00000230: cc9e 123d c8cc 313e 8c47 d93d 6733 e9bd
00000240: 772f 4bbc 74ca 4cbd 4048 1d3d e618 d63d
00000250: 3ece 7e3d 092d b83d 8151 f8bd 4d99 083e
00000260: ac19 66b9 9eed 04bd 028d 383e d0b2 083d
00000270: 02ad d83c 3f36 c8bd 5917 fa3c 6777 9d3d
00000280: 22e7 283d 8236 a1bd 63db 8cbd 9f02 12be
00000290: fc1c fdb8 1aa4 333e 7489 09be 126a 283e
000002a0: 9a2e 963d 0c70 053b 0647 abbd 74f5 2c3d
000002b0: aebe 4ebd b53c 1fbe 3df0 f2bd 2b78 0e3e
000002c0: f050 d7bc 208e 113d 91aa 133e beee 963b
000002d0: 8d08 b93d 066c 0d3e cced 543e df7a e4bd
000002e0: 1de8 3cbe cc2a 8dbd 66ff 473e 303f 2bbd
000002f0: 6b59 12be 0bde 55be 206d 783d ee19 143e
00000300: 3266 473e eceb f83d e6f0 f1bc 240b 20bd
00000310: f4ba a0bd 4d09 423e 5255 62bc 9134 db3b
00000320: 7be3 8c3d cb85 363e efa9 b33c 9410 293e
00000330: 4686 d8bc 2c01 76bd 7500 2b3e 1722 023e
00000340: 9ba6 c73d 6d11 23be 5d03 243d 401e 87bd
00000350: 0b91 39be 27c1 92bc 0411 f43c a808 23be
00000360: ff87 2c3e eb4c f33c 36e0 0dbd 9d94 53bc
00000370: c6e5 db3d ba7d acbd eabb 76bd 27a4 6fbc
00000380: 691c ac3d 7637 013d ac74 033e c18c 3dbe
00000390: 6431 d03d 7068 77bd c91d 0dbe 7b18 23be
000003a0: b97c 8e3d f221 1abe b716 853d 08c6 be3d
000003b0: b69c 873d 25a6 2fbe c411 b2bd 26ca 1c3e
000003c0: 5e68 223e 7c7b 4ebd 2982 3e3e 2a2b c2bd
000003d0: 2e14 083c 441e 62bb 6aa0 393e 7faf 203e
000003e0: 9baa 603e f2e8 893d 5b33 d8bd c9d9 483d
000003f0: 996f 15be 70ad 89bd ade9 ae3d 71c6 223e

model.transformer.encoder.layers.0.linear2.bias f4 [32]
0.09836641 0.042510934 -0.028584287 -0.056222107 -0.075083524 -0.025155043 -0.08399 0.006770464
0.10221521 0.04398036 0.08889777 0.04465036 0.0016796767 -0.035437427 -0.08304921 -0.0639693
0.06321351 -0.13818632 -0.007863921 0.07300316 0.09030644 -0.088141024 0.12553418 -0.023637056
0.022466237 0.030003037 -0.067994095 -0.05937497 -0.033515505 -0.070611775 0.03402007 -0.028681904
00000000: 5474 c93d f21f 2e3d 9829 eabc 2749 66bd
00000010: 64c5 99bd f311 cebc f302 acbd c5da dd3b
00000020: 3556 d13d c024 343d 0910 b63d 4ce3 363d
00000030: 9928 dc3a d626 11bd b415 aabd 5602 83bd
00000040: 1676 813d b780 0dbe add7 00bc ae82 953d
00000050: 95f2 b83d 4883 b4bd 088c 003e 80a2 c1bc
00000060: 1d0b b83c eec8 f53c 7d40 8bbd 2b33 73bd
00000070: 8e47 09bd e89c 90bd a158 0b3d 50f6 eabc

model.transformer.encoder.layers.0.norm1.weight f4 [32]
1.0136952 0.9271029 0.9997941 0.96135587 1.0826254 0.96882313 1.0297585 1.0867904
1.0624558 0.9371368 0.9366023 1.0842255 0.9843454 1.0240769 0.9610071 0.9672626
0.9486076 1.0230622 0.98598975 0.96721023 0.9580916 0.93182456 1.1238207 0.97320056
1.093011 1.0727073 0.9872288 1.0222272 1.009906 0.9564819 0.99567145 0.9666925
00000000: c4c0 813f 9e56 6d3f 82f2 7f3f 6b1b 763f
00000010: 7893 8a3f cb04 783f 20cf 833f f31b 8b3f
00000020: 8dfe 873f 33e8 6f3f 2bc5 6f3f e7c7 8a3f
00000030: 0ffe 7b3f f414 833f 9004 763f 869e 773f
00000040: f3d7 723f b4f3 823f d369 7c3f 179b 773f
00000050: 7e45 753f 0e8c 6e3f 5bd9 8f3f ac23 793f
00000060: c9e7 8b3f 794e 893f 07bb 7c3f 57d8 823f
00000070: 9a44 813f ffdb 743f 53e4 7e3f 2979 773f

model.transformer.encoder.layers.0.norm1.bias f4 [32]
0.015550755 0.023472792 0.005560108 0.0684681 0.023876827 0.017332293 0.016987912 0.07197207
0.039606612 0.04045929 -0.024917241 -0.041737217 -0.0039106794 0.013799483 0.013025314 -0.03045654
0.012891605 -0.061805986 -0.022915497 -0.0038494603 0.046326015 -0.07791815 0.036760464 -0.05996105
0.0018812909 -0.028232554 0.035365313 -0.016598644 0.01259373 -0.012372136 -0.011132098 -0.036998726
00000000: 98c8 7e3c 034a c03c 9131 b63b 0139 8c3d
00000010: 5699 c33c 74fc 8d3c 3c2a 8b3c 1866 933d
00000020: 8b3a 223d a4b8 253d 3e1f ccbc a5f4 2abd
00000030: 2825 80bb 3a17 623c 2068 553c fe7f f9bc
00000040: 4f37 533c 4628 7dbd 48b9 bbbc 3a47 7cbb
00000050: 59c0 3d3d 8d93 9fbd 2492 163d b899 75bd
00000060: a695 f63a f547 e7bc 38db 103d e1f9 87bc
00000070: ef55 4e3c 80b4 4abc 6763 36bc fa8b 17bd

model.transformer.encoder.layers.0.norm2.weight f4 [32]
1.0230248 0.93869543 0.96333843 0.90959567 1.0433923 0.97813994 1.0432025 0.98897594
1.0835412 1.0105103 0.96120656 1.0676726 0.9597013 1.007784 0.96547085 0.97829103
0.9571275 1.0362321 0.97076285 0.98663944 0.9984699 1.0018544 1.0582459 1.001421
1.0678492 1.0699202 0.9933965 1.0178343 0.9382059 0.9970919 1.0550107 0.9521814
00000000: 7af2 823f 584e 703f 599d 763f 43db 683f
00000010: e18d 853f 6167 7a3f a987 853f 872d 7d3f
00000020: 7ab1 8a3f 6758 813f a211 763f 7fa9 883f
00000030: fcae 753f 11ff 803f 1929 773f 4871 7a3f
00000040: 4f06 753f 41a3 843f ea83 783f 6794 7c3f
00000050: b99b 7f3f c43c 803f 9a74 873f 902e 803f
00000060: 48af 883f 25f3 883f 3c4f 7e3f 6548 823f
00000070: 432e 703f 6a41 7f3f 970a 873f 29c2 733f

model.transformer.encoder.layers.0.norm2.bias f4 [32]
0.017619308 0.020537537 0.0073926365 0.007469356 0.026880553 -0.0012359452 -0.009079791 0.02347502
0.02949037 0.040035713 0.026077878 -0.023453103 0.0035142635 0.0072394293 0.0058695036 -0.004977088
-0.0043727043 -0.06428892 -0.039537534 0.012989632 0.05974589 -0.0062696924 0.048929077 -0.058015246
0.0121872015 -0.02802247 0.0035880764 -0.007487923 0.027808389 0.020913236 -0.021606784 -0.03447746
00000000: 5e56 903c 563e a83c ee3d f23b 80c1 f43b
00000010: 9b34 dc3c 70ff a1ba 67c3 14bc af4e c03c
00000020: ca95 f13c 7dfc 233d 46a1 d53c b920 c0bc
00000030: 8f4f 663b bc38 ed3b f754 c03b d716 a3bb
00000040: e748 8fbb e9a9 83bd 1cf2 21bd 77d2 543c
00000050: 1bb8 743d fe71 cdbb db69 483d 65a1 6dbd
00000060: d4ac 473c 618f e5bc ef25 6b3b 405d f5bb
00000070: 6bce e33c 3c52 ab3c b600 b1bc 3d38 0dbd
