models/dgsr_pre_train/2_covar_koza/controller.pt (torch, 829133 bytes, 196 tensors)

state_manager.parent_embeddings.weight f4 [9, 16]
0	0xbf8f7c30	-1.1209774
1	0xbf92d39d	-1.1470829
2	0xbe82fc4e	-0.25583118
3	0xbedaaa1f	-0.42707917
4	0x3f5a5154	0.85280347
5	0x3f2f8caa	0.6857401
6	0xbe9e6196	-0.30933827
7	0xc006fa4a	-2.1090264
8	0x3eaa2437	0.33230755
9	0xbfa2d4f6	-1.272124
10	0x3eb0fdb1	0.3456855
11	0x3e9f8671	0.31157258
12	0x3e01a99d	0.12662359
13	0x3f9f55f2	1.2448103
14	0x3f8f01f8	1.1172476
15	0xbe84c0c7	-0.25928327
16	0xbfad8623	-1.355656
17	0xbfd8888c	-1.6916671
18	0x3f11f6df	0.5701732
19	0x3f4ec9b1	0.80776507
20	0x3f186655	0.59531146
21	0xbfc5e071	-1.5459119
22	0xbeab33b2	-0.33437878
23	0x3fee7baf	1.8631495
24	0x3f42749e	0.75959194
25	0xbf19ca18	-0.60073996
26	0xbe391551	-0.18074538
27	0x3e3ea60a	0.18618026
28	0x3fb32a93	1.3997368
29	0x3fcb780c	1.589601
30	0x3f718a6c	0.9435184
31	0xbf5bfe27	-0.8593468
32	0xbf1ff922	-0.6248952
33	0x3ce0b8d0	0.027431875
34	0xbef903c7	-0.48635694
35	0x3e747328	0.23872054
36	0x3ede97af	0.434751
37	0x3ded0307	0.11572843
38	0x3f23e1f4	0.6401665
39	0x3ee39360	0.44448376
40	0xbdc1f3b6	-0.09470312
41	0x3f47dd31	0.78071886
42	0xbe9a0eaf	-0.30089328
43	0x3d6a85cb	0.0572565
44	0x3f04e330	0.5190916
45	0x40137275	2.303861
46	0xbfbadf7b	-1.4599451
47	0xbfcb8225	-1.5899092
48	0xbf2f5b50	-0.68498707
49	0x3f5e3161	0.86794096
50	0x3f88a0e1	1.0674096
51	0x3e36b4ae	0.17842361
52	0xbe6db0e7	-0.23212014
53	0xbeccff43	-0.400385
54	0x3f0e8d10	0.55683994
55	0xbec53d66	-0.38523406
56	0xbeebf8b7	-0.46088192
57	0x3f3ebc1b	0.74505776
58	0x3fc19436	1.5123355
59	0x405b1111	3.4229167
60	0xbfc40f2e	-1.5317132
61	0xbf9cae63	-1.2240719
62	0x3fe9164f	1.8209933
63	0xbf0e51d4	-0.5559361
64	0xbf10be83	-0.565407
65	0x3f6b8ba4	0.9200995
66	0x3f8f45e7	1.1193208
67	0x3fa2d9f1	1.272276
68	0xbfbbab00	-1.466156
69	0x4024b356	2.5734458
70	0xbefb62f3	-0.4909893
71	0x3eafa28a	0.34303695
72	0xbfcfd248	-1.6236048
73	0xbf0eb6c5	-0.55747634
74	0xbef9d25d	-0.48793307
75	0xbf03a8eb	-0.51429623
76	0xbf8a8fe8	-1.0825167
77	0x3f8fd1ce	1.1235902
78	0xbe09aa77	-0.13443933
79	0x3f4fbff4	0.8115227
80	0xbdb140f5	-0.08654968
81	0x3f304e9c	0.6886995
82	0xbf565214	-0.8371899
83	0xbb9eaf21	-0.0048426543
84	0x3f58075c	0.8438623
85	0xbed3d7d6	-0.41375607
86	0x3f850b78	1.0394125
87	0x3ebcd71e	0.3688287
88	0xbe749bad	-0.2388751
89	0x4013deab	2.3104656
90	0xbff0ebc8	-1.8821955
91	0xbd8d6659	-0.06904287
92	0xbf848276	-1.0352314
93	0xbf728857	-0.9473929
94	0x3d2093da	0.039203502
95	0x3f3857a2	0.7200872
96	0x3fd15c48	1.6356287
97	0xbfaee082	-1.3662264
98	0x3eb57f34	0.3544861
99	0x3f0688f8	0.5255275
100	0xc0274422	-2.6135335
101	0xbfd9fc87	-1.703019
102	0xbe745693	-0.2386115
103	0x3e900852	0.28131348
104	0x3e75ea1c	0.24015087
105	0x3d8dda28	0.06926376
106	0x3ea9057f	0.33012006
107	0x3ee3a73e	0.44463533
108	0x3ee64114	0.44971526
109	0xbf5d0e1a	-0.8634964
110	0x3f496752	0.7867328
111	0xbf6b3b64	-0.918875
112	0xbe6731fd	-0.22577663
113	0xc01bf0d1	-2.4365733
114	0xbd8024dd	-0.06257031
115	0xbc6043b9	-0.013688021
116	0x3f79d091	0.9758387
117	0x3eac9b9c	0.3371247
118	0xbf6bd56e	-0.9212254
119	0xbd327469	-0.04356805
120	0xbf1e799e	-0.61904323
121	0xbef322e9	-0.47487572
122	0x3ff52618	1.915225
123	0xbec9796e	-0.39350456
124	0x3e05c7ff	0.13064574
125	0x3f962f95	1.1733271
126	0x3f6ca872	0.9244453
127	0x3fb27b44	1.3943868
128	0xbf64b2f6	-0.8933557
129	0xbed8dbd2	-0.4235521
130	0xbf4b871b	-0.7950303
131	0x3f0f52c5	0.5598567
132	0x3f1d8a3c	0.61539054
133	0x3ee9272d	0.455377
134	0x3ff9aa18	1.9505033
135	0xbf874309	-1.0567333
136	0xbd9383b9	-0.072028585
137	0x3ddedd3c	0.10882041
138	0xbf1a05e5	-0.60165244
139	0xbfa0bcf9	-1.255767
140	0xbdc19f71	-0.09454239
141	0xbf836d54	-1.0267739
142	0xbe9b1b91	-0.3029447
143	0x3e848658	0.25883746

state_manager.sibling_embeddings.weight f4 [11, 16]
0	0xbe7ed718	-0.24886739
1	0x3dfdfe86	0.12402062
2	0x3e74f8b4	0.23922998
3	0x3f946ceb	1.1595739
4	0x3e979d3f	0.29612157
5	0x3ec2ae1c	0.3802346
6	0xbe51fc9a	-0.20506516
7	0xbe045d14	-0.12926131
8	0x3e494f74	0.19659215
9	0xbf445cf8	-0.7670436
10	0xbff2472d	-1.8927971
11	0x3e061a28	0.13095915
12	0xbf349f0b	-0.7055518
13	0x3e9bccf2	0.30429798
14	0x3e239c4d	0.15977593
15	0x3ec9cdee	0.39414924
16	0x3f76872d	0.9630001
17	0xbf809c28	-1.0047655
18	0x3e975147	0.29554197
19	0xbdeff563	-0.11716726
20	0x3f7cf825	0.9881614
21	0xbf02ccca	-0.51093733
22	0x3f43c13e	0.7646674
23	0x3f1c873c	0.6114385
24	0x3e9dd33c	0.30825222
25	0x3e65caa4	0.22440583
26	0xbddbaa4c	-0.10725841
27	0x3ebcb908	0.36859918
28	0xbea21ac1	-0.31661037
29	0xbf8bb21f	-1.0913733
30	0x3e81ae60	0.2532835
31	0xbfb23995	-1.3923823
32	0xbd66d257	-0.05635294
33	0xbeb7819c	-0.35841072
34	0xbfc93069	-1.5717899
35	0xbeb3640a	-0.3503726
36	0x3f8abbba	1.083854
37	0x3dfa0087	0.12207132
38	0x3fc8065b	1.562694
39	0x3f455d7f	0.7709579
40	0xbf8911e6	-1.0708587
41	0xbf34efd5	-0.70678455
42	0x3fbd9de2	1.4813807
43	0x3e8ea81a	0.27862626
44	0x3f2c26d5	0.6724675
45	0xbf81adb0	-1.013113
46	0xbf980102	-1.1875308
47	0xbf97bd43	-1.1854633
48	0xbf0d90d2	-0.55299103
49	0x3f08f872	0.535041
50	0x3ecb42db	0.39699444
51	0x3ecc62b1	0.39919046
52	0x3e303c15	0.1721042
53	0x3f5e4b2e	0.86833465
54	0xbe97e7ab	-0.29668936
55	0x3f8169aa	1.0110371
56	0xbd9e8ed6	-0.077420875
57	0xbf8b568f	-1.088579
58	0x3eca5e88	0.39525247
59	0x3f1b3ee4	0.6064284
60	0x3f2cca16	0.6749586
61	0xbf9b577d	-1.2136074
62	0x3f1adba1	0.6049138
63	0xbf09ccf7	-0.53828377
64	0x3f96fb4e	1.1795442
65	0x3dbcb540	0.09214258
66	0x3f7597a8	0.95934534
67	0x3f556af1	0.83366305
68	0xbf9fd7f0	-1.2487774
69	0x3f7afecf	0.9804506
70	0xbefa7d3b	-0.48923668
71	0xbfa52821	-1.2902871
72	0x3f71aaf0	0.94401455
73	0x3fa4fccf	1.2889651
74	0xbf29a5c2	-0.6626855
75	0x3f0fcfaf	0.56176275
76	0x3e984dd6	0.29746884
77	0xbd303892	-0.0430227
78	0xbf86c5f1	-1.0529157
79	0xbddeea4b	-0.108845316
80	0xbeab299f	-0.33430192
81	0x3fc6b880	1.5525055
82	0x3e39de94	0.18151313
83	0x3ebf222b	0.37330756
84	0xbe185993	-0.1487792
85	0x3f1f16d1	0.6214419
86	0xbe913305	-0.28359237
87	0xbfabee5d	-1.3432118
88	0xbe0e12a7	-0.13874303
89	0xbf05ed39	-0.523151
90	0xbf018ed6	-0.50608575
91	0x3f5eb9ff	0.8700256
92	0xbf619eb8	-0.8813281
93	0x3f53ff41	0.8281136
94	0x3f946bab	1.1595358
95	0xbfe0adec	-1.7553077
96	0xbfbd5331	-1.4791013
97	0xbfdefbeb	-1.7420629
98	0x3db1892e	0.08668743
99	0xbf8b3223	-1.0874676
100	0x3fb8fe60	1.4452629
101	0xbdd60b2d	-0.1045135
102	0x3f1343e8	0.5752549
103	0xbe308d3e	-0.1724138
104	0xbd680479	-0.05664489
105	0x3f857d81	1.0428926
106	0x3f69c71f	0.9131946
107	0xbef22447	-0.47293302
108	0xbf5f12bd	-0.8713797
109	0x3e0c08ab	0.13675182
110	0x3ff26fde	1.8940389
111	0x3ecaa140	0.3957615
112	0xbd7e6fe2	-0.06211842
113	0xbf49644b	-0.7866866
114	0xbef691be	-0.48158067
115	0xbec31d4a	-0.38108283
116	0x3f13e623	0.57773036
117	0xbf90b52a	-1.1305287
118	0xbe07c664	-0.13259274
119	0xbe3bbca5	-0.18333681
120	0xbdb7e913	-0.08980002
121	0x3fb4095b	1.4065355
122	0x3f17fc1f	0.5936908
123	0xbef5ed00	-0.4803238
124	0xbeb616e5	-0.35564342
125	0xbfaa082f	-1.3283747
126	0x3fd7a3fb	1.6846918
127	0x400443d5	2.0666401
128	0xbe6cd2ea	-0.23127332
129	0x3f35ddb7	0.71041435
130	0x3f1418fc	0.57850623
131	0x3e849b46	0.25899714
132	0xc0038565	-2.0550168
133	0x3f080be1	0.53143126
134	0xbf077f7c	-0.529289
135	0xbf5e2147	-0.8676953
136	0xbd070f14	-0.032973364
137	0x3f96ba93	1.1775688
138	0x3ece03de	0.40237325
139	0xbe46f2eb	-0.19428603
140	0xbf942b84	-1.157578
141	0xbea605ac	-0.32426202
142	0x3f6fce97	0.93674606
143	0xbf920963	-1.1409115
144	0x3f0ffdad	0.56246454
145	0x3f47a230	0.77981853
146	0xbe3150a0	-0.17315912
147	0xbf3da103	-0.7407381
148	0xbd9d9b18	-0.076955974
149	0xbf7d0690	-0.9883814
150	0x3d7d7406	0.061878227
151	0xbefe5cc9	-0.49680164
152	0xbf4e93a0	-0.8069401
153	0x3f5457b5	0.8294633
154	0xbf1f8ab3	-0.62321013
155	0x3fa785d9	1.3087722
156	0x3fb9fcc8	1.4530268
157	0xbf205e1a	-0.6264359
158	0x3f7db604	0.9910586
159	0xbeda2b46	-0.4261114
160	0xbf1cd313	-0.61259574
161	0xbe588360	-0.21143866
162	0xbefd9242	-0.49525648
163	0x3f48d7b2	0.78454125
164	0x3ded3da0	0.1158402
165	0xbf89d203	-1.0767215
166	0xbdf5baaa	-0.11998494
167	0xbf837521	-1.027012
168	0xbf986e4d	-1.1908661
169	0x3ef7d9b2	0.48408276
170	0xbf9c5599	-1.2213622
171	0xbfaec887	-1.3654946
172	0x3fc4fef2	1.5390303
173	0xbd3d03b9	-0.04614613
174	0xbed7da3f	-0.42158696
175	0xbe8069ce	-0.25080723

model.decoder.weight f4 [12, 32]
0	0xbe0b15a2	-0.13582471
1	0xbd4bc5d6	-0.049749218
2	0x3ec7545d	0.38931552
3	0x3f9149ff	1.1350707
4	0x3ff90c78	1.945693
5	0x3f824171	1.0176221
6	0x3f801f33	1.0009521
7	0xbedf9e15	-0.43675295
8	0xbf9f3aa8	-1.2439775
9	0x3fa3097a	1.2737267
10	0x3e7de091	0.24792697
11	0x3f07ee76	0.5309824
12	0x3b0b54fc	0.0021260371
13	0xc00e6170	-2.224697
14	0x3fbb2592	1.462084
15	0xbf9d3617	-1.2282132
16	0x3f26e3a0	0.6519108
17	0x407b291c	3.924384
18	0xbde767f1	-0.11299122
19	0x3e982611	0.29716542
20	0x3ebde527	0.37088892
21	0xbf0f4d54	-0.5597737
22	0xbf804630	-1.002142
23	0x3fad4074	1.3535295
24	0x3ff977da	1.9489701
25	0xbfa66629	-1.2999927
26	0xc01654cd	-2.3489258
27	0xc00409c3	-2.0630958
28	0x3f666e28	0.90011835
29	0xbf342d88	-0.70381975
30	0x3ffbdb2b	1.967626
31	0xbf8ba690	-1.0910206
32	0x3f0db10b	0.5534827
33	0x3fc5e0a5	1.5459181
34	0x3f899a58	1.0750227
35	0x3fa1cb1b	1.2640108
36	0x3dfbb7ee	0.12290941
37	0x3fcea8e0	1.6145287
38	0x3ef4a4d8	0.47782016
39	0x3fa75d01	1.3075258
40	0x3f5bd215	0.85867435
41	0x3d973db6	0.07384817
42	0x3f457843	0.7713663
43	0xbf74a518	-0.95564413
44	0xbf603340	-0.875782
45	0xbe9cd9df	-0.30634972
46	0xbeab78b9	-0.33490542
47	0x3eece6e9	0.4626992
48	0x3eff9428	0.49917722
49	0x3f6319c2	0.8871118
50	0x3ecab9f1	0.39594987
51	0x3fb95b78	1.4481039
52	0x3eeee7d8	0.46661258
53	0xbf0787bd	-0.52941495
54	0xbd6efbfe	-0.058345787
55	0x3f2b2785	0.66857177
56	0xbea20674	-0.31645548
57	0xbf141f8e	-0.5786065
58	0xbf004f9a	-0.5012146
59	0xbfa4083a	-1.281501
60	0xbe3f963b	-0.18709652
61	0x3f0add7a	0.54244196
62	0xbe45d8c1	-0.19320966
63	0xbe733273	-0.23749714
64	0x3e96f698	0.2948501
65	0x3f4e6283	0.80619067
66	0x3fa1108a	1.2583172
67	0x3f6d763f	0.92758554
68	0x3f098ab3	0.53727263
69	0xbfc5893b	-1.5432504
70	0x3ea19c12	0.31564385
71	0x3f39f7bb	0.7264363
72	0x3fb7b04c	1.4350677
73	0x4083a7d7	4.1142383
74	0x3f8ed00e	1.1157243
75	0xbfca33b6	-1.5797031
76	0xbf3813dd	-0.7190531
77	0x3f10a1a3	0.5649664
78	0x3fa00260	1.2500725
79	0xbf204530	-0.6260557
80	0xbf448d55	-0.76778156
81	0x3e672e53	0.22576265
82	0x3e21fead	0.15819807
83	0xc00e1022	-2.2197347
84	0x3fb08af3	1.3792404
85	0xbeff889e	-0.49908918
86	0x3fd678cf	1.6755618
87	0xbf83623c	-1.0264354
88	0x3fd76bc4	1.6829762
89	0xbf9aaf4f	-1.208475
90	0x3f4768b0	0.77894115
91	0x3f9a1b65	1.203961
92	0xbf35e4ed	-0.7105244
93	0xbd6a7d34	-0.05724831
94	0x400d9d77	2.212736
95	0x3fe2e593	1.772631
96	0xbc31e3d3	-0.01085754
97	0x3f7e4560	0.9932461
98	0xbf89a0f7	-1.0752248
99	0x3fe39ae6	1.7781646
100	0xbe88c77e	-0.267147
101	0xbe943c93	-0.28952464
102	0x3f3dc3c7	0.7412686
103	0xbf22a531	-0.6353331
104	0xbf731e2c	-0.94967914
105	0x3e8f7e8b	0.28026232
106	0x3f27628f	0.65384763
107	0x3fea7ac9	1.8318721
108	0x3f9895a3	1.1920666
109	0xbf16a46c	-0.5884464
110	0x3f7a58b9	0.9779163
111	0xbfc2a2e8	-1.5205965
112	0x40104569	2.2542365
113	0x3f9d1b56	1.2273967
114	0xbefdedea	-0.49595577
115	0x3ee378fa	0.44428235
116	0x3fadcbba	1.3577797
117	0x3ee40d95	0.44541612
118	0xbf03a66a	-0.514258
119	0xbe3e9668	-0.18612063
120	0x3e93b23e	0.28846925
121	0x3dd09790	0.10185158
122	0x3ead8bb4	0.33895648
123	0xbf3e0632	-0.74228203
124	0x3e7159cf	0.23569416
125	0xbe872c74	-0.26401103
126	0x3fcc0f7d	1.5942227
127	0xbe84de7b	-0.2595099
128	0xbf97d534	-1.186194
129	0xbccd260e	-0.02504256
130	0x3fe5390c	1.7908034
131	0xbf889c70	-1.0672741
132	0x4059c638	3.4027233
133	0xbf183fb6	-0.59472215
134	0xbeecf7ee	-0.46282905
135	0x3fdd55ac	1.729177
136	0xbe636955	-0.2220815
137	0xbe9b003b	-0.30273613
138	0x3fa68347	1.3008813
139	0x3faa801a	1.3320343
140	0x3e31e67a	0.17373076
141	0x3fc90c0b	1.57068
142	0xbebe0171	-0.37110475
143	0x3fb389d6	1.4026439
144	0x3eae5f40	0.34057045
145	0xbfd021dd	-1.6260334
146	0xbf1386d5	-0.5762761
147	0x3f1c8510	0.6114054
148	0x3edda1fc	0.43287647
149	0xbdb9a0ee	-0.09063898
150	0x3eaa7180	0.3328972
151	0xbe368db4	-0.17827493
152	0xbfb77c2b	-1.4334768
153	0x3f158510	0.5840616
154	0xbf913968	-1.1345644
155	0x3d383b36	0.044978343
156	0x3e6c3ed5	0.23070844
157	0xbf699fd0	-0.9125948
158	0x3fc72ed2	1.5561163
159	0xc049dd58	-3.1541348
160	0xbf0f038c	-0.5586479
161	0xbed97a13	-0.42475948
162	0xbeb1b05f	-0.34704873
163	0xbfc5809b	-1.5429872
164	0xbb05537c	-0.002034395
165	0x3f9bac68	1.2161989
166	0x3fca7859	1.5817977
167	0xbfcfd23e	-1.6236036
168	0xbd9583c3	-0.07300522
169	0x3f228cf7	0.63496345
170	0x3e84c506	0.25931567
171	0xbf34ca0d	-0.70620805
172	0xbf8d5438	-1.1041327
173	0x3fd534dc	1.6656756
174	0xbf64310b	-0.89137334
175	0x3f11dec0	0.56980515
176	0x3ebfa226	0.37428397
177	0x3dc90020	0.09814477
178	0xbfa6834e	-1.3008821
179	0xbf3385d1	-0.7012606
180	0xbe2aad07	-0.16667567
181	0xbf7341f8	-0.95022535
182	0xbf84b393	-1.0367302
183	0x3f256a9c	0.646158
184	0xbe3615e3	-0.17781787
185	0x3f356850	0.70862293
186	0xc00143b7	-2.019758
187	0xc01a59bc	-2.411727
188	0x3e61f6cd	0.22066803
189	0xbfd874b9	-1.6910621
190	0x3fa96bc0	1.3236008
191	0xbfd5054d	-1.6642243
192	0xbf0cca59	-0.5499626
193	0xbf228098	-0.6347747
194	0xbf202ef0	-0.6257162
195	0x3f79c571	0.97566897
196	0x3e60d8e1	0.21957733
197	0x3c9a1681	0.018809559
198	0x3fd9b953	1.7009681
199	0xbf3cdc77	-0.737739
200	0xbf47d055	-0.78052264
201	0x3f1cfc6c	0.61322665
202	0xbfa262ed	-1.268644
203	0x3f90287f	1.1262358
204	0x3f3d542c	0.7395656
205	0x3fa1c670	1.2638683
206	0xbeece00a	-0.46264678
207	0x3f4f0ab5	0.8087571
208	0xbf4dd010	-0.80395603
209	0x3eaf1430	0.3419509
210	0xbfccb084	-1.5991368
211	0xc01d198c	-2.4546843
212	0x3cd75442	0.026285294
213	0xbeaf9694	-0.3429457
214	0xbebe0ff4	-0.37121546
215	0xbd4d3d43	-0.05010725
216	0x3f5a9b25	0.8539298
217	0x3f2f10a0	0.6838474
218	0x4059dd12	3.404118
219	0xbfd67c96	-1.6756771
220	0x3efd88f2	0.49518543
221	0xbe82f30c	-0.25576055
222	0x3eb02867	0.34405825
223	0x3f946abe	1.1595075
224	0x3fa5acc2	1.2943347
225	0x3f5f2565	0.87166435
226	0xbef434c0	-0.47696495
227	0xbf93d298	-1.1548643
228	0xbf2e0c52	-0.6798755
229	0xc014569b	-2.317786
230	0x3d99813a	0.07495351
231	0xbe633869	-0.22189488
232	0xbdb31f5a	-0.08746214
233	0x40024359	2.0353606
234	0xbebce2a3	-0.3689166
235	0x3e99a93a	0.30011922
236	0x3f0b6b01	0.5446015
237	0x3ffece02	1.9906619
238	0xbe742055	-0.23840459
239	0xbd704b56	-0.058665596
240	0x3e16d9bb	0.14731495
241	0x3abda71e	0.001446936
242	0x3f4c8fd3	0.7990696
243	0x3edaf41b	0.42764363
244	0xbeafc49c	-0.3432969
245	0x3fa90788	1.3205423
246	0xbf7234b9	-0.946117
247	0x3f6063b7	0.8765215
248	0xbdba84ce	-0.09107362
249	0xbf2a5bf1	-0.6654654
250	0xbec5a6ad	-0.38603726
251	0xbfd1185e	-1.6335561
252	0x3ef7fe5c	0.48436248
253	0x401662bf	2.349777
254	0x3e6f154c	0.23347968
255	0xbf03bc6e	-0.51459396

model.transformer.encoder.layers.0.self_attn.in_proj_weight f4 [96, 32]
0	0x3c8c0231	0.017090889
1	0x3dbb7c74	0.09154597
2	0xbc8b0bc9	-0.016973393
3	0x3e4a74b8	0.19771087
4	0x3e39b573	0.18135624
5	0xbdd781e5	-0.10522822
6	0xbe4f7ac6	-0.20261678
7	0xbdadaf65	-0.084807195
8	0x3e415af0	0.18882346
9	0xbc5bca94	-0.013414998
10	0x3dad5528	0.08463508
11	0xbe44fae0	-0.19236326
12	0x3e35d801	0.1775818
13	0x3e291334	0.16511232
14	0xba7904f8	-0.00094993366
15	0xbe3cde56	-0.1844419
16	0x3daac82a	0.083389595
17	0xbe55814c	-0.20850104
18	0xbdf494a2	-0.11942412
19	0xbdc774d7	-0.09739082
20	0x3d1605b6	0.03662654
21	0x3e3498bf	0.17636393
22	0xbd6314f4	-0.055439904
23	0x3d9cde32	0.07659568
24	0x3c082606	0.008309847
25	0x3e2e0cba	0.16997042
26	0xbdb29d45	-0.08721403
27	0x3e36797d	0.17819782
28	0xbd0fe634	-0.03513165
29	0x3d145429	0.036213074
30	0x3d37abc8	0.044841558
31	0x3e3392ca	0.17536464
32	0xbd89af22	-0.06722857
33	0xbd406ce7	-0.046978857
34	0x3d116a6f	0.035501894
35	0xbe01f230	-0.12690043
36	0xbe5d02bb	-0.21583073
37	0xbe07f11d	-0.13275571
38	0x3c4222ac	0.011849087
39	0x3da84351	0.082159646
40	0xbe21bb24	-0.15794045
41	0xbda16a66	-0.07881622
42	0x3b1b6323	0.0023710213
43	0x3e584e1a	0.21123543
44	0x3c865d0b	0.016401788
45	0x3dff1c20	0.12456536
46	0x3dc2ac6c	0.09505543
47	0x3ddcfe37	0.10790675
48	0x3d4b2eef	0.049605306
49	0xbd7b9836	-0.061424457
50	0x3d902184	0.070376426
51	0xbb3a7197	-0.0028449052
52	0xbd8a2e4b	-0.06747111
53	0x3d07dca7	0.033169415
54	0xbc6b7f1d	-0.014373568
55	0x3c4f7926	0.012663161
56	0x3de446e7	0.11146336
57	0x3e4aba63	0.19797663
58	0x3e51cbaa	0.20487848
59	0xbe47bb9c	-0.19505161
60	0xbe296682	-0.1654301
61	0x3dbccbd0	0.09218562
62	0xbd10817e	-0.035279743
63	0x3e10d9a7	0.14145528
64	0x3e3a0f49	0.18169893
65	0xbbc5c851	-0.0060358425
66	0xbe5a491a	-0.21316949
67	0x3df14849	0.117813654
68	0x3ddc382a	0.107529
69	0xbbd4fa42	-0.0064995596
70	0xbd4852b4	-0.048906997
71	0x3dad9963	0.08476522
72	0x3d9b4615	0.075817265
73	0x3d514e5c	0.05110012
74	0x3db05906	0.0861073
75	0x3dd0101b	0.10159322
76	0x3e14c5da	0.145286
77	0xbdeaec3a	-0.11470838
78	0x3c5bec8f	0.013423099
79	0xbc4be397	-0.012444398
80	0x3e43f996	0.19138178
81	0xbd0fc307	-0.035098102
82	0x3e032bc3	0.12809663
83	0xbe35298e	-0.17691633
84	0x3e5b274d	0.21401711
85	0xbe2babce	-0.16764757
86	0x3c12fce1	0.008971424
87	0x3e49eeab	0.19719951
88	0xbc2609f5	-0.01013421
89	0xbe09b371	-0.13447358
90	0xbe16b3d0	-0.1471703
91	0xbcd433b1	-0.025903555
92	0xbe3cf693	-0.18453436
93	0xbe0e6f9d	-0.13909765
94	0x3daff0e9	0.08590872
95	0xbe087f9d	-0.1332993
96	0x3b684068	0.003543878
97	0xbd9eae92	-0.077481404
98	0xbe3cfe88	-0.18456471
99	0xb9b2d0d4	-0.00034106395
100	0x3d55de06	0.05221369
101	0x3e25ac7e	0.16179082
102	0x3e2a6f89	0.1664411
103	0x3ddfd5a0	0.109294176
104	0xbe53ac88	-0.20671284
105	0xbdab61e4	-0.083682805
106	0xbdb08bde	-0.086204275
107	0xbda913d8	-0.08255738
108	0x3e45c41a	0.19313088
109	0xbd84f03a	-0.06491132
110	0x3d4106a2	0.047125466
111	0x3e3e3e8b	0.18578546
112	0x3dc8010a	0.09765823
113	0x3df3e7a0	0.11909413
114	0x3da95c34	0.082695395
115	0xbc17e442	-0.0092707295
116	0x3e410573	0.18849735
117	0x3e461ab3	0.19346122
118	0x3e42d340	0.19025898
119	0xbdbb5cf0	-0.09148586
120	0x3daa6275	0.083195604
121	0x3e3db73d	0.18526931
122	0x3e3820e1	0.17981292
123	0xbe57492e	-0.2102401
124	0xbc678e6d	-0.014133078
125	0x3e2a64e5	0.1664005
126	0x3d7031e1	0.05864132
127	0x3d684e31	0.056715194
128	0xbe248d1f	-0.16069458
129	0x3d7e38ad	0.06206577
130	0xbd8faea7	-0.07015734
131	0x3e35d2e3	0.17756228
132	0xbcc5610c	-0.024094127
133	0x3df3042c	0.1186603
134	0xbd8ebd4b	-0.069696985
135	0xbe085727	-0.13314496
136	0x3d8d3940	0.06895685
137	0xbe27071c	-0.16311306
138	0x3c84103e	0.016121026
139	0xbd4b2a2b	-0.04960076
140	0x3dedf6e4	0.11619356
141	0xbdc4d7b8	-0.096114576
142	0xbe42c519	-0.190205
143	0x3dea6cf8	0.114465654
144	0xbe1ef216	-0.15522036
145	0x3e0ca272	0.13733843
146	0xbe2bea85	-0.16788681
147	0x3e137e50	0.14403653
148	0x3e0db7fe	0.13839719
149	0x3e42e657	0.1903318
150	0xbdaaf5d5	-0.0834767
151	0xbdec7998	-0.1154663
152	0x3e40e77b	0.18838303
153	0xbe2a3a45	-0.1662379
154	0x3d1c634d	0.038180638
155	0x3d75c631	0.060003463
156	0xbd59bfa8	-0.053161293
157	0x3e06db6b	0.13169639
158	0xbd7cabeb	-0.06168739
159	0x3e101628	0.14070952
160	0xbb1e4c15	-0.0024154235
161	0x3e11807f	0.14209174
162	0xbd5988b7	-0.053108897
163	0x3e3be342	0.1834841
164	0x3dc7ef5b	0.0976245
165	0xbe2043df	-0.15650891
166	0xbe2b9ba2	-0.16758588
167	0x3d903f81	0.070433624
168	0xbe429b3c	-0.1900453
169	0xbc9f5688	-0.019450441
170	0xbcee85d0	-0.029116541
171	0x3d5554b5	0.052082736
172	0x3e173519	0.14766349
173	0x3e0c9024	0.1372686
174	0xbe1f9f3b	-0.15588085
175	0xbe296e0c	-0.16545886
176	0xbe49d40e	-0.19709799
177	0x3c61a00d	0.013771069
178	0xbdaf9d90	-0.085749745
179	0xbdfe0d50	-0.12404883
180	0xbe4e42c5	-0.20142658
181	0x3e16c28d	0.14722653
182	0x3e27c0c6	0.16382131
183	0x3e435063	0.19073634
184	0x3e54514b	0.20734136
185	0x3e02dc4a	0.12779346
186	0xbe32614c	-0.17419928
187	0xbd7c782f	-0.061638054
188	0xbc548793	-0.012971777
189	0xbd8f3a13	-0.06993499
190	0xbe444cfa	-0.19169989
191	0xbce0613c	-0.027390115
192	0xbc601d46	-0.013678854
193	0x3c809202	0.015694622
194	0xbe3d4914	-0.18484908
195	0xbe5349a8	-0.20633566
196	0xbd871488	-0.06595713
197	0x3dc8232a	0.09772332
198	0x3cd4ebb2	0.025991295
199	0x3dfa999d	0.12236331
200	0xbe519432	-0.20466688
201	0xbe1bf08c	-0.1522848
202	0xbdbdc025	-0.09265164
203	0xbc2adbf2	-0.010428416
204	0x3de0dbed	0.109794475
205	0xbcd43175	-0.02590249
206	0xbdb524ec	-0.08844933
207	0xbe475d34	-0.19469148
208	0x3e257cfa	0.16160956
209	0xbd01f7a6	-0.031730317
210	0xbd197990	-0.037469447
211	0xbe0efec0	-0.13964367
212	0x3dc37f91	0.09545816
213	0x3e309df0	0.17247748
214	0x3d23df41	0.040007833
215	0x3c868080	0.016418695
216	0x3d27bf76	0.040954076
217	0xbdb78f13	-0.08962836
218	0xbe3ddd31	-0.18541409
219	0xbd997e09	-0.074947424
220	0x3de947cd	0.11390648
221	0x3e39d075	0.18145926
222	0xbbc6d30f	-0.0060676406
223	0xbdc6c47d	-0.09705446
224	0xbcec5c05	-0.028852472
225	0xbe312f66	-0.17303237
226	0x3e4e2d35	0.20134433
227	0xbd456419	-0.048191164
228	0x3e3ccec5	0.18438251
229	0x3e21f29f	0.15815209
230	0x3cffcdbf	0.031226037
231	0xbca6f0c8	-0.020378485
232	0xbc8a6078	-0.016891703
233	0x3cf71e1d	0.030165726
234	0xbd480605	-0.048833866
235	0xbe53e616	-0.2069324
236	0xbcbd4465	-0.023103902
237	0xbd250668	-0.040289313
238	0xbd295330	-0.0413391
239	0xbde461a8	-0.11151439
240	0xbe54ac65	-0.20768888
241	0xbdf8b1c4	-0.12143281
242	0x3de64389	0.1124335
243	0xbdcd47ac	-0.10023436
244	0x3d5fc93a	0.054635264
245	0x3d37ba6e	0.044855528
246	0x3d9a38b2	0.07530345
247	0xbe3d5dfa	-0.1849288
248	0x3e223d57	0.15843712
249	0x3d3c196e	0.04592269
250	0x3d622cfe	0.05521869
251	0x3d8b6cb9	0.068078466
252	0xbcba0a77	-0.022710068
253	0xbd0b9da1	-0.034085874
254	0xbdde72b6	-0.10861723
255	0x3d847456	0.06467502

model.transformer.encoder.layers.0.self_attn.in_proj_bias f4 [96]
0	0xbc057f09	-0.008147963
1	0xb9a2e1a1	-0.00031067154
2	0x3b8abfa2	0.00423427
3	0x3914f881	0.00014206955
4	0xbc064346	-0.00819475
5	0x3b5a5712	0.0033316058
6	0xbbf31dee	-0.0074193394
7	0x3b1858b7	0.0023246238
8	0x3c181eab	0.009284656
9	0xbbd00928	-0.0063487478
10	0xbbfbc0b2	-0.007682883
11	0xba77e93c	-0.0009457057
12	0x3ba518ea	0.0050383704
13	0x3bf4e069	0.007473041
14	0x3bb96723	0.005658047
15	0xbbe977c0	-0.007124871
16	0xbc4df34b	-0.012570213
17	0x3bb76b9a	0.005597544
18	0x3c51b678	0.012799852
19	0x38de76a1	0.00010607881
20	0x3badaee2	0.0053003887
21	0xbb8cf171	-0.004301243
22	0xbc9ac119	-0.018890904
23	0xbbe1d4ef	-0.0068918387
24	0xbc27941c	-0.010228183
25	0x3afdedb0	0.0019373205
26	0xbac5d8a7	-0.0015094475
27	0xbb4edd34	-0.0031564953
28	0xbba3acf9	-0.004994985
29	0x3af5207d	0.0018701699
30	0xbbd93c95	-0.0066295364
31	0xbac667b4	-0.0015137107
32	0xb61a669b	-2.3007512e-06
33	0x3a68cbec	0.00088804844
34	0xba43b469	-0.0007465543
35	0xba4e91d9	-0.00078800094
36	0xba66ba2d	-0.0008801546
37	0xba55f498	-0.00081617525
38	0xba6c591e	-0.0009015965
39	0xba434384	-0.000744872
40	0xba6f0cc4	-0.00091190287
41	0x3a557288	0.00081423717
42	0xba61c7ec	-0.00086128595
43	0xba6c348f	-0.00090105174
44	0x3a452321	0.0007520188
45	0x3a60cbb3	0.00085752754
46	0x3a4288de	0.00074209075
47	0x3a6c4e8a	0.0009014389
48	0x3a7003a7	0.00091558177
49	0x39dfb3a1	0.00042667708
50	0x3a43d1fe	0.0007469951
51	0xba690ffb	-0.0008890626
52	0xba5fb14e	-0.00085331954
53	0x3a1ce1d6	0.000598458
54	0xba66a832	-0.0008798867
55	0xba445be4	-0.00074904994
56	0x3a1cde89	0.0005984088
57	0x3a5b3983	0.0008362757
58	0xba2b32fc	-0.00065307296
59	0x39e17f81	0.00043010342
60	0xba3487f1	-0.0006886712
61	0xba67879e	-0.0008832159
62	0xba637a91	-0.00086776266
63	0xba4ec3cf	-0.0007887454
64	0xbb8db8b6	-0.004324998
65	0xb8ab7938	-8.176494e-05
66	0x3b1685c7	0.002296792
67	0xbb4ce34a	-0.0031263405
68	0x3b156551	0.0022795985
69	0xbc687d99	-0.014190101
70	0xbbeea868	-0.007283259
71	0xbc1881b3	-0.009308266
72	0xbadd4919	-0.0016882747
73	0x3bfd89e5	0.0077373856
74	0xbbc133e1	-0.005896077
75	0xbc3db1f2	-0.01157807
76	0xbb0608cb	-0.0020452018
77	0xbbf8e98e	-0.0075962013
78	0x3b82fc8a	0.00399739
79	0x3b8180f7	0.0039521414
80	0xbbc02ccc	-0.005864715
81	0x3b8018fb	0.003909228
82	0xbba84cf4	-0.0051361267
83	0x3bb808d8	0.0056162886
84	0x3b48b6b3	0.0030626475
85	0xbc060773	-0.008180487
86	0xbc3ae36b	-0.01140676
87	0xbb77a55d	-0.0037787773
88	0xbc2678b5	-0.010160615
89	0x3a3b3406	0.0007141236
90	0x3ae04863	0.0017111417
91	0x3af7dd2f	0.0018910522
92	0x3b247483	0.002509386
93	0x3ba45878	0.005015429
94	0x3bd92705	0.006626966
95	0x3a54d112	0.0008118312

model.transformer.encoder.layers.0.self_attn.out_proj.weight f4 [32, 32]
0	0x3de45227	0.11148482
1	0x3e76461e	0.24050185
2	0xbe0f260d	-0.13979359
3	0xbdee7c62	-0.11644818
4	0xbdd9b780	-0.10630703
5	0x3e811c81	0.2521706
6	0x3e60f073	0.21966724
7	0x3e43d09f	0.19122551
8	0x3d7b2614	0.06131561
9	0xbe6edeee	-0.23327228
10	0xbd31143a	-0.04323218
11	0xbdce90b6	-0.10086195
12	0x3e808a9c	0.2510575
13	0x3dc7880a	0.09742744
14	0xbe4e0df3	-0.20122509
15	0xbe396511	-0.1810496
16	0x3dc66f0b	0.096891485
17	0xbe5eca7a	-0.21756926
18	0x3e8c7682	0.27434164
19	0x3dc284a0	0.094979525
20	0xbe32ae96	-0.17449412
21	0x3e5d0c32	0.21586683
22	0x3e98226d	0.29713765
23	0xbe8b90eb	-0.27259
24	0x3d1b4174	0.037904218
25	0xbe504ae0	-0.20341063
26	0xbe8b84cd	-0.27249756
27	0x3cff1366	0.03113718
28	0x3e316e7e	0.17327306
29	0xbe2544cb	-0.16139524
30	0x3e434e04	0.1907273
31	0xbcdfb336	-0.027307134
32	0x3e15abfe	0.14616391
33	0xbdfa768d	-0.12229643
34	0xbe8c6e4b	-0.27427897
35	0xbe6e55ad	-0.2327487
36	0xbd919cdd	-0.071099974
37	0x3e8cc70e	0.27495617
38	0xbe799b78	-0.24375713
39	0x3e909cad	0.28244534
40	0x3cf11d74	0.02943299
41	0xbe887eb8	-0.2665918
42	0xbd6ec4e3	-0.058293235
43	0x3e0477e5	0.12936361
44	0x3e1bf87f	0.15231512
45	0xbe97a439	-0.2961748
46	0xbdfdf394	-0.123999745
47	0x3d26f341	0.04075933
48	0x3e13d626	0.1443716
49	0xbb52382d	-0.003207694
50	0xbe548624	-0.20754296
51	0xbd88ccc3	-0.0667968
52	0xbe0aebf8	-0.13566577
53	0xbdc11baf	-0.09429108
54	0xbd424804	-0.04743196
55	0xbe0d3304	-0.13788992
56	0xbe89a0f8	-0.26880622
57	0x3d041787	0.032249
58	0x3e977948	0.29584718
59	0xbe1dcb4f	-0.15409587
60	0x3e97f5f9	0.2967985
61	0x3e3324ca	0.17494503
62	0x3e58aa3b	0.21158688
63	0x3de163c3	0.11005356
64	0xbd9350aa	-0.0719312
65	0xbcf7b55d	-0.030237848
66	0x3cc534a0	0.024072945
67	0xbe639ccb	-0.2222778
68	0x3dddda2f	0.10832631
69	0x3e368fbb	0.17828266
70	0x3bf01360	0.0073265284
71	0xbe5be85f	-0.21475361
72	0xbe085bb8	-0.13316238
73	0xbe736273	-0.23768024
74	0x3e7cfeaa	0.24706522
75	0xbe52036c	-0.20509118
76	0x3e4bb6bc	0.19893926
77	0x3df49506	0.119424865
78	0x3bbb56c0	0.0057171285
79	0x3d994cf3	0.0748538
80	0x3dea979f	0.11454701
81	0x3e3cb635	0.18428881
82	0xbe95a64a	-0.2922843
83	0x3e953dcc	0.2914871
84	0x3e82c0b7	0.25537655
85	0xbdccd543	-0.10001614
86	0x3dc54832	0.09632911
87	0x3db9d4fd	0.090738274
88	0xbe44801b	-0.19189493
89	0x3e2c7586	0.16841707
90	0x3e872559	0.26395682
91	0xbddc4a49	-0.10756356
92	0xbdbc2de1	-0.09188438
93	0x3e898bca	0.26864463
94	0xbd290432	-0.041263767
95	0xbe66893f	-0.22513293
96	0xbe5333b1	-0.20625187
97	0x3e7975bc	0.24361318
98	0x3e812aaf	0.25227877
99	0xbd2ee674	-0.042700246
100	0xbd66b696	-0.05632647
101	0x3e06dfec	0.13171357
102	0xbe8106af	-0.25200412
103	0x3e95ee89	0.2928355
104	0xbe6778db	-0.22604696
105	0xbdd8a32c	-0.105779976
106	0xbc285c25	-0.010275875
107	0x3e12c18a	0.14331642
108	0xbe50e001	-0.2039795
109	0xbdb49065	-0.088166036
110	0x3c5560c1	0.013023556
111	0xbc479776	-0.012182107
112	0x3e242176	0.1602839
113	0x3e4301af	0.19043611
114	0x3e12f397	0.14350735
115	0xbe191e78	-0.14953029
116	0x3e96cf6d	0.29455128
117	0xbb952875	-0.004551942
118	0xbc9438a1	-0.018093409
119	0x3e7b9f4f	0.2457249
120	0x3e93daf3	0.28877982
121	0xbd923f25	-0.0714095
122	0xbe1c6248	-0.15271866
123	0xbd497151	-0.049180333
124	0x3d9b0ed8	0.075711906
125	0x3e7c84e1	0.24660064
126	0x3e4aacd2	0.19792488
127	0x3e3d9f70	0.18517852
128	0xbe420f06	-0.18951043
129	0x3e09ec0d	0.13468952
130	0xbdc35069	-0.095368214
131	0xbdec78b5	-0.115464605
132	0x3d94ffdf	0.07275366
133	0x3d58dd28	0.052945286
134	0x3e532008	0.20617688
135	0x3e6d5ce0	0.2317996
136	0x3d5bfa03	0.053705227
137	0xbe8dfbe1	-0.2773123
138	0xbda7fa5f	-0.08202051
139	0x3e486ebf	0.19573496
140	0xbe18e00b	-0.14929216
141	0xbc739ed6	-0.014869412
142	0x3e3f5600	0.1868515
143	0x3e9eb1c1	0.3099499
144	0xbd895ac4	-0.06706765
145	0x3d4047ce	0.04694348
146	0x3cd7ab9e	0.02632695
147	0x3e44b1c4	0.19208437
148	0x3e057181	0.1303158
149	0x3e5fcf73	0.2185648
150	0xbe2f540c	-0.17121905
151	0x3e71e932	0.23624113
152	0xbd50ba25	-0.05095877
153	0xbe45a23a	-0.19300166
154	0x3e793d18	0.24339712
155	0x3e3b5cb7	0.18297087
156	0xbda86613	-0.08222594
157	0x3dbbd6cc	0.09171829
158	0xbe70a6a7	-0.23501073
159	0x3e657438	0.22407615
160	0xbd14cae5	-0.036326308
161	0xbe830966	-0.25593108
162	0x3e4b2dd7	0.19841705
163	0xbe061180	-0.13092613
164	0x3d99a2a6	0.07501726
165	0xbe26ea32	-0.16300276
166	0x3bfff04d	0.0078106285
167	0x3e1fa1ca	0.15589061
168	0x3de45a78	0.11150068
169	0xbd3c08f0	-0.04590696
170	0x3e5b4e3c	0.21416563
171	0x3d6a2bf7	0.057170834
172	0x3be19098	0.006883692
173	0x3e11e3c4	0.14247042
174	0x3e28e2da	0.16492787
175	0x3e79eefc	0.24407572
176	0xbe954dd9	-0.29160956
177	0x3e42d34e	0.19025919
178	0xbcb6ac5c	-0.022298984
179	0xbde12fdf	-0.10995459
180	0xbdd6798b	-0.10472401
181	0x3cd73ef7	0.026275141
182	0xbc81a1a5	-0.015824148
183	0xbea1b85e	-0.31585974
184	0x3dca5c50	0.098808885
185	0xbd786a15	-0.060648043
186	0x3cbe7ba1	0.02325231
187	0x3d9bc1fe	0.076053604
188	0xbe95d958	-0.29267383
189	0x3e5f7cd7	0.21824966
190	0xbdca8afe	-0.09889792
191	0xbe3eae6b	-0.18621223
192	0xbd96babf	-0.07359838
193	0xbe23bd27	-0.15990125
194	0x3e7e1486	0.24812517
195	0xbd93902c	-0.07205233
196	0x3e518519	0.20460929
197	0x3e3ecf13	0.1863368
198	0xbe857886	-0.26068515
199	0x3db3a81b	0.08772298
200	0x3e38c561	0.18044044
201	0xbe39c31b	-0.18140833
202	0xbe7e673c	-0.24844068
203	0x3ca34919	0.019932317
204	0xbdfcd671	-0.12345589
205	0xbd8ef089	-0.06979472
206	0x3df3400c	0.1187745
207	0xbc3f8dfd	-0.0116915675
208	0xbe83eac7	-0.25765058
209	0x3d250904	0.0402918
210	0xbc469400	-0.012120247
211	0x3e83927b	0.25697693
212	0x3ce14bff	0.027502058
213	0xbc847e76	-0.016173583
214	0xbe0e2270	-0.13880324
215	0xbbb4c5d5	-0.0055167475
216	0xbcec8098	-0.028869912
217	0xbdbdc99f	-0.09266972
218	0xbe92f91f	-0.2870569
219	0x3d30e9d5	0.04319175
220	0xbd65cfcf	-0.056106385
221	0x3e86929d	0.26283732
222	0x3cf44adf	0.029820858
223	0x3e75c4e6	0.24000892
224	0x3e0ac788	0.13552678
225	0xbe1765f2	-0.14784983
226	0xbba5d50e	-0.0050607985
227	0x3db5b1ff	0.08871841
228	0x3e624921	0.22098209
229	0x3e59b705	0.21261223
230	0x3e8eb682	0.27873617
231	0xbe4a3f9d	-0.19750829
232	0x3e7372f8	0.23774326
233	0x3d1d4f3d	0.038405646
234	0x3e0af550	0.13570142
235	0x3e809b1e	0.25118345
236	0x3d99d5f5	0.07511512
237	0x3d28a9ce	0.041177563
238	0x3d42f207	0.047594097
239	0xbde34301	-0.11096764
240	0xbd640812	-0.05567176
241	0x3e34dd39	0.17662515
242	0xbe4eacb6	-0.20183071
243	0x3db5f1ac	0.08883986
244	0x3ccecce7	0.02524419
245	0xbe54bab2	-0.20774344
246	0xbbaef9c6	-0.005339834
247	0xbde58b51	-0.11208213
248	0x3e931e4c	0.28734052
249	0xbe864cca	-0.2623046
250	0x3e11d813	0.14242582
251	0xbda22bd0	-0.07918513
252	0xbdc6bace	-0.09703599
253	0xbe4ec90c	-0.20193881
254	0xbe5457aa	-0.20736566
255	0x3d8e201a	0.06939717

model.transformer.encoder.layers.0.self_attn.out_proj.bias f4 [32]
0	0xbc0f28db	-0.008737768
1	0x3bbce004	0.0057640094
2	0x3c15099d	0.00909653
3	0x39239c32	0.00015603079
4	0x3bf0252f	0.0073286514
5	0xbc4cae10	-0.012492672
6	0x3b4f8208	0.0031663198
7	0x3bc48ae8	0.005998004
8	0x3b18a390	0.002329085
9	0xbbebd155	-0.007196585
10	0xbbd9ab9c	-0.006642772
11	0xbc29d32c	-0.010365289
12	0x3bd021aa	0.0063516693
13	0x3ba495d3	0.0050227433
14	0x3c16dfc8	0.009208627
15	0xbc275c19	-0.010214829
16	0x3c3c7cc5	0.011504357
17	0xbb533393	-0.0032226786
18	0xbbc9c414	-0.0061574075
19	0xba90bd28	-0.0011042701
20	0x3bd67821	0.006545082
21	0xbb95d127	-0.004572052
22	0xbb8bd8c3	-0.0042677834
23	0xbc47f0fc	-0.012203451
24	0x3bedd35d	0.0072578625
25	0x3be15eae	0.006877742
26	0x3b6cfce3	0.0036161474
27	0x3c055b2d	0.008139414
28	0xbb8f7dda	-0.0043790163
29	0x363c6239	2.8071356e-06
30	0xbba0ff26	-0.0049132286
31	0xbb3c7e76	-0.00287619

model.transformer.encoder.layers.0.linear1.weight f4 [128, 32]
0	0xbd19e0e7	-0.037568
1	0xbdd98de8	-0.106227696
2	0xbe0aac6b	-0.13542335
3	0x3e38e50b	0.18056123
4	0x3e23f019	0.16009559
5	0x3e33f24c	0.17572898
6	0x3e33aa9a	0.17545548
7	0xbdd04702	-0.10169794
8	0xbe490343	-0.1963015
9	0x3e0556b0	0.1302135
10	0xbe10f399	-0.14155425
11	0xbd0979b3	-0.033563327
12	0xbc5ad7eb	-0.013357143
13	0xbda2b417	-0.07944506
14	0xbdb18ff4	-0.08670035
15	0xbd9e0533	-0.077158354
16	0x3e0f1c14	0.13975555
17	0x3e36fc73	0.17869739
18	0x3d9275d4	0.0715138
19	0xbe24dd49	-0.16100039
20	0xbdd35ca3	-0.103204034
21	0xbc2d2c0c	-0.010569584
22	0x3d9241a7	0.071414284
23	0xbe035043	-0.12823586
24	0x3e47facc	0.19529265
25	0xbdb04d20	-0.086084604
26	0xbdd52364	-0.10407141
27	0xbe2efa16	-0.17087588
28	0xbe254610	-0.16140008
29	0x3d3df096	0.04637202
30	0xbdc43079	-0.09579558
31	0xbdfdc379	-0.12390799
32	0x3d2f5807	0.04280856
33	0x3e347a86	0.17624864
34	0x3db4b044	0.088226825
35	0x3e1c48e0	0.15262175
36	0x3d000e91	0.03126389
37	0xbddef46b	-0.10886463
38	0x3d55d48c	0.052204654
39	0x3d97e2c2	0.074162975
40	0xbdfc6421	-0.123237856
41	0xbb6eb1e1	-0.0036421942
42	0x3e1f89f5	0.1557997
43	0xbdd213f1	-0.1025771
44	0x3e05e39b	0.13075106
45	0x3e010358	0.12598932
46	0xbda980b6	-0.08276503
47	0x3e071ac5	0.13193806
48	0x3e36320a	0.17792526
49	0x3d1a017a	0.037599064
50	0xbd65435d	-0.055972446
51	0xbde4b484	-0.11167243
52	0x3dc59b48	0.09648758
53	0xbe2a6b08	-0.16642392
54	0x3d2fccc4	0.04291989
55	0xbe0bf3c7	-0.13667212
56	0x3d8a694e	0.067583665
57	0x3dd58e78	0.104275644
58	0x3e1b3ca3	0.1515985
59	0x3e21f068	0.15814364
60	0xbe3945da	-0.18093053
61	0x3e355dea	0.17711607
62	0x3dcc66f2	0.09980573
63	0xbe0547bf	-0.1301565
64	0x3e398cf6	0.18120179
65	0xbe1b1675	-0.15145285
66	0x3e09a963	0.13443522
67	0x3db0ad77	0.08626836
68	0xbe0cb020	-0.13739061
69	0x3cf1a24b	0.029496333
70	0xbdd90975	-0.10597507
71	0xbe406d60	-0.18791723
72	0x3d945278	0.07242292
73	0xbdbf57d1	-0.093429215
74	0xbdb9cf60	-0.09072757
75	0x3dcc5ddd	0.099788405
76	0xbd5372c1	-0.05162311
77	0x3db7e32c	0.089788765
78	0xbd7211c6	-0.05909898
79	0xbdb51c0a	-0.08843239
80	0x3dd65f46	0.10467391
81	0x3df32acb	0.118733965
82	0xbe06ab09	-0.13151182
83	0x3cf85567	0.03031416
84	0x3db3e316	0.087835476
85	0xbd55f67e	-0.052237026
86	0xbdaa0c59	-0.083031364
87	0x3e2989a4	0.16556412
88	0x3e276257	0.16346107
89	0x3d12c3b0	0.035831153
90	0x3e151318	0.14558065
91	0xbdfea834	-0.12434426
92	0xbd236a19	-0.039896104
93	0x3e412d8f	0.18865035
94	0xbde1d807	-0.11027532
95	0xbd199d5a	-0.037503578
96	0xbdde4a22	-0.108539835
97	0xbdf69f92	-0.12042154
98	0x3da1b9df	0.0789678
99	0xbe40b6a8	-0.18819678
100	0x3e33c15f	0.17554234
101	0xbd0c1111	-0.034195963
102	0xbe3103e5	-0.17286642
103	0xbdef2adf	-0.11678099
104	0xbe0c2bf3	-0.1368864
105	0x3e289396	0.1646255
106	0x3e4ede11	0.20201899
107	0x3dc7781e	0.097397074
108	0xbcb8086f	-0.022464959
109	0xbb6a86b5	-0.0035785858
110	0xbdb4b996	-0.0882446
111	0x3e1603f7	0.1464995
112	0x3de4906b	0.11160358
113	0x3d7264e2	0.05917824
114	0x3de682ff	0.11255454
115	0x3e333150	0.1749928
116	0xbe0f3948	-0.13986695
117	0xbd37be64	-0.044859305
118	0xbdb0e88a	-0.08638103
119	0xbda467b2	-0.08027591
120	0x3ce56cdf	0.028006015
121	0x3e2f6106	0.17126855
122	0x3dfb4271	0.12268532
123	0xbd40d46c	-0.04707758
124	0xbe4bd519	-0.19905509
125	0x3d012e16	0.03153809
126	0x3e135ef8	0.14391696
127	0x3e078065	0.13232572
128	0xbe06dda9	-0.13170494
129	0x3e05b4a4	0.1305719
130	0xbe2170bc	-0.15765661
131	0x3b1e84af	0.0024187972
132	0xbe41b557	-0.18916832
133	0xbda09fa4	-0.07842949
134	0xbdc7b2a9	-0.097508736
135	0xbe245d05	-0.16051109
136	0xbdc8c861	-0.09803844
137	0x3de20c27	0.11037474
138	0xbdb3ee9f	-0.08785748
139	0x3cc575c8	0.024104014
140	0xbe408d5a	-0.18803921
141	0x3d173cd2	0.036923237
142	0x3dfc5bba	0.12322183
143	0x3d0595e9	0.03261367
144	0x3dd899aa	0.10576184
145	0xbce7e85b	-0.028309038
146	0x3d882ee2	0.06649567
147	0xbd5a40d9	-0.0532845
148	0x3e062ae7	0.13102303
149	0xbdb4c4da	-0.08826609
150	0x3d95a24c	0.07306346
151	0xbc4ce78b	-0.012506376
152	0x3d711bbb	0.058864336
153	0x3cb06293	0.021531379
154	0x3e372580	0.17885399
155	0x3db46078	0.088074625
156	0x3df40c05	0.11916355
157	0x3d4176d1	0.047232453
158	0x3d687a11	0.056757037
159	0xbdb744d6	-0.08948676
160	0x3ddfd76a	0.10929759
161	0x3d3d1df6	0.04617115
162	0xbd2cac81	-0.0421567
163	0x3bae2664	0.005314635
164	0x3c7f5d9c	0.015586283
165	0x3e2d393f	0.16916369
166	0x3dd5a743	0.10432293
167	0xbdd69e3c	-0.104793996
168	0x3e2f46f2	0.17116907
169	0xbc6b73d1	-0.0143708745
170	0x3e01204d	0.12609978
171	0xbdb5aa8b	-0.08870419
172	0xbd0304a5	-0.03198685
173	0xbcf89ae6	-0.030347299
174	0x3e10a3f2	0.1412504
175	0xbdc957ad	-0.09831176
176	0xbe1ce577	-0.15321909
177	0xbe2e9503	-0.17049031
178	0x3e36b4c5	0.17842396
179	0x3e1a705a	0.15081921
180	0xbca606a4	-0.020266838
181	0x3dc06f4a	0.09396227
182	0xbd0a8868	-0.033821493
183	0xbdbc4092	-0.09192003
184	0xbe2469a9	-0.16055931
185	0x3a906956	0.0011017721
186	0x3df2085b	0.11818
187	0x3c9341c0	0.017975688
188	0x3e2d8342	0.16944602
189	0xbe3d54ee	-0.1848943
190	0xbe2c7f3e	-0.16845414
191	0x3e327cb3	0.17430381
192	0x3ce804ba	0.028322566
193	0x3cd78cae	0.026312198
194	0xbe29eb8b	-0.16593759
195	0x3e3117f1	0.17294289
196	0x3e2ed988	0.17075169
197	0xbc8b8568	-0.017031386
198	0x3dcee0e2	0.10101487
199	0x3e06929c	0.13141865
200	0xbc4bab41	-0.012430967
201	0xbe18eea5	-0.14934786
202	0xbc1d58b6	-0.00960367
203	0x3e2355be	0.15950677
204	0xbd88b269	-0.06674654
205	0xbe01fbdd	-0.12693734
206	0xbe27c395	-0.16383202
207	0x3e30cb83	0.17265134
208	0x3e0cb8f0	0.13742423
209	0x3e1c5d15	0.15269883
210	0xbd251fd0	-0.040313542
211	0x3e0376b6	0.12838253
212	0xbe22911c	-0.15875667
213	0x3e15a003	0.14611821
214	0x3ce88c38	0.028387174
215	0xbdd0d0c8	-0.10196072
216	0xbe192466	-0.14955291
217	0xbdd363ea	-0.103217915
218	0xbe186a68	-0.14884341
219	0x3daaa511	0.08332265
220	0x3c672e8e	0.014110221
221	0x3e051f95	0.13000329
222	0xbe07649f	-0.13221978
223	0xbe14efa0	-0.14544535
224	0xbcb42c2f	-0.021993725
225	0x3e1e10a4	0.15436035
226	0xbd5ee1ad	-0.05441444
227	0x3e371d64	0.17882305
228	0x3e1c0782	0.15237239
229	0x3db44ea4	0.08804062
230	0x3e228100	0.15869522
231	0xbe27e458	-0.163957
232	0x3dfd2f2c	0.12362513
233	0xbe3bc4b3	-0.18336754
234	0xbe30dc68	-0.17271578
235	0x3d44ac10	0.048015654
236	0x3d028b5f	0.031871196
237	0xbdaa7949	-0.083239146
238	0x3e18014a	0.14844242
239	0x3dc0e4b6	0.09418623
240	0xbda49857	-0.08036869
241	0x3e3c5e48	0.1839534
242	0x3e24bdcf	0.16088031
243	0xbe396b27	-0.18107282
244	0xbd8dcc6f	-0.06923758
245	0xbdf51753	-0.11967339
246	0x3e0a6f9c	0.13519138
247	0x3d685a1f	0.05672657
248	0xbd20b42c	-0.039234325
249	0x3cc4a5f3	0.024004912
250	0xbe132c11	-0.14372279
251	0xbd9106ef	-0.070814006
252	0x3da7f315	0.08200661
253	0xbcb877a1	-0.022517981
254	0x3d14cbfa	0.03632734
255	0x3d7ad8bf	0.06124186

model.transformer.encoder.layers.0.linear1.bias f4 [128]
0	0x3cb7ecdb	0.022451809
1	0xbc6677ab	-0.014066617
2	0x3d842747	0.06452804
3	0xbe2dfbbb	-0.16990559
4	0xbdeb9def	-0.11504733
5	0xbe26b5b5	-0.16280253
6	0x3e3420dc	0.1759066
7	0xbe2b9169	-0.16754688
8	0x3da7bed8	0.081906974
9	0x3e0be52f	0.13661645
10	0xbd4dc89d	-0.050240148
11	0xbcc65c9c	-0.024214081
12	0x3e158710	0.14602304
13	0xbe1e96cb	-0.1548721
14	0xbe2ec49b	-0.17067187
15	0xbd01da62	-0.031702407
16	0xbc5f6b2a	-0.01363639
17	0xbd99c51c	-0.07508299
18	0x3be5d9db	0.007014496
19	0x3da80173	0.082034014
20	0x3dc38e44	0.095486194
21	0x3d7b91b1	0.06141824
22	0x3df5ff5b	0.12011596
23	0xbd9749e9	-0.07387144
24	0x3c3d4f9f	0.011554628
25	0x3d7a020f	0.06103712
26	0x3d83daad	0.064381935
27	0xbd5e6d7f	-0.054303642
28	0x3e1d225f	0.15345143
29	0xbe0ad7d6	-0.13558897
30	0xbdbc9198	-0.09207457
31	0xbe2cca75	-0.16874106
32	0x3c95685d	0.01823824
33	0xbe11cc82	-0.1423817
34	0x3e0a5a2c	0.1351096
35	0xbde7f4a0	-0.113259554
36	0x3d51b72a	0.05120007
37	0x3e18e44e	0.14930841
38	0x3e2beafb	0.16788857
39	0x3d7908c9	0.060799394
40	0x3d8cd84f	0.06877195
41	0x3d0a916c	0.03383009
42	0x3dde6317	0.10858744
43	0xbc95314f	-0.018211989
44	0xbe11a501	-0.142231
45	0x3e287757	0.16451775
46	0xbe02d209	-0.12775435
47	0x3e352185	0.17688568
48	0xbb417ab4	-0.00295226
49	0x3d988fb1	0.07449282
50	0x3a391b71	0.0007061279
51	0x3d904b46	0.07045607
52	0x3e07a1bf	0.13245295
53	0xbe31b4ce	-0.17354128
54	0x3db49939	0.088182874
55	0xbd486466	-0.048923872
56	0xbe339601	-0.1753769
57	0xbe0ae71c	-0.13564724
58	0x3c629ad3	0.013830858
59	0x3e0cacca	0.13737789
60	0xbe2dd8e7	-0.16977273
61	0x3d3800d0	0.04492265
62	0x3d9d394b	0.076769434
63	0xbe27f09a	-0.16400376
64	0x3d47b699	0.048758123
65	0xbda3d608	-0.079998076
66	0x3d15dcae	0.03658741
67	0xbd9c6887	-0.076371245
68	0x3e0ad7ef	0.13558935
69	0xbe27e35c	-0.16395324
70	0x3daa3202	0.083103195
71	0xbdb54cf2	-0.08852567
72	0x3d6d8a52	0.05799324
73	0x3cc7cade	0.024388727
74	0xbe206cd2	-0.15666512
75	0xbdc0dd7f	-0.09417247
76	0x3bb15efb	0.005412934
77	0xbbd3794f	-0.00645367
78	0xbdc67df5	-0.09691993
79	0x3dbf2d5d	0.09334824
80	0xbda03bb2	-0.07823886
81	0xbdd47ff3	-0.10375967
82	0x3dadd41f	0.084877245
83	0xbc7d9972	-0.015478479
84	0x3d5b302d	0.05351274
85	0x3dea7c96	0.11449544
86	0xbd9c26f9	-0.07624621
87	0x3d6f8f9b	0.058486562
88	0x3e0d5432	0.13801649
89	0x3cfe0970	0.03101036
90	0x3e137fb8	0.1440419
91	0x3d91be29	0.07116348
92	0x3e119b80	0.14219475
93	0x3e1985aa	0.14992395
94	0x3de05c1d	0.10955069
95	0x3d325531	0.043538276
96	0x3dbc83a9	0.092048
97	0x3dddd2fb	0.10831257
98	0x3ca149a5	0.019688437
99	0x3d262161	0.040559176
100	0xbd7e91b7	-0.062150683
101	0x3b1f0337	0.002426339
102	0x3dad6917	0.0846731
103	0xbc4fe01d	-0.01268771
104	0xbd84576a	-0.064619854
105	0x3d1404d1	0.036137406
106	0xbc54ce7c	-0.012988683
107	0x3bfb05b2	0.007660591
108	0xbcf0562b	-0.029337963
109	0xbbb80d20	-0.005616799
110	0xbd34b8e4	-0.044121638
111	0x3e0f1c3c	0.13975614
112	0xbdf24d23	-0.11831119
113	0xbe11267b	-0.14174835
114	0xbd3114e7	-0.043232825
115	0x3c45a871	0.012064085
116	0x3dd6b777	0.10484212
117	0x3d1114b4	0.035420135
118	0x3af606b6	0.001877031
119	0xbe2c31a5	-0.16815813
120	0xbd9f0d9e	-0.07766269
121	0x3d5649d5	0.052316505
122	0xbd2eb90d	-0.042656947
123	0xbded4ddf	-0.11587118
124	0x3d729e87	0.059233215
125	0x3e092cf0	0.13396049
126	0x3c67d7a6	0.014150536
127	0x3e1057f7	0.14096056

model.transformer.encoder.layers.0.linear2.weight f4 [32, 128]
0	0x3da92289	0.0825854
1	0x3d581233	0.05275173
2	0x3e138983	0.14407925
3	0x3dc302da	0.09522028
4	0x3d9a8d98	0.07546538
5	0x3e394a06	0.18094644
6	0x3d882d9e	0.06649326
7	0x3e00dc7c	0.12584108
8	0xbe23373d	-0.1593904
9	0x3d6dba6c	0.058039114
10	0xbb11314a	-0.0022154623
11	0x3c13f6b7	0.009030989
12	0xbe3f2d2c	-0.18669575
13	0xbdf30da6	-0.118678376
14	0x3da86ccb	0.082238756
15	0x3e071e4e	0.13195154
16	0xbd827a85	-0.06371025
17	0x3e0b32d6	0.13593611
18	0x3d9055df	0.070476286
19	0x3e1344e9	0.14381756
20	0xbe4b3e64	-0.19848019
21	0xbdba6c9e	-0.09102748
22	0x3cf51bca	0.029920477
23	0x3e07c878	0.13260067
24	0x3dd5c654	0.10438219
25	0xbe184d79	-0.14873303
26	0xbdfe7224	-0.12424114
27	0xbdd72715	-0.10505501
28	0xbd84b7ee	-0.06480394
29	0x3c4e3071	0.0125847915
30	0xbdf259dc	-0.118335456
31	0x3df5348a	0.11972912
32	0x3e0d9698	0.13826978
33	0x3d62abe2	0.0553397
34	0xbde08633	-0.109630965
35	0x3cb71fde	0.022354063
36	0x3da4537a	0.080237344
37	0xbb8cd48d	-0.004297799
38	0x3a1b69b6	0.0005928533
39	0xbe010703	-0.12600331
40	0x3aca3180	0.0015426129
41	0xbe421abc	-0.18955511
42	0xbdced1ce	-0.10098611
43	0xbdb7493a	-0.08949514
44	0x3da5291e	0.08064483
45	0xbe370046	-0.17871198
46	0x3d4f9a70	0.050684392
47	0x3e329548	0.17439759
48	0xbdc5a63f	-0.096508496
49	0x3d08ddaf	0.03341454
50	0xbdd1fa2c	-0.102527946
51	0x3c976331	0.018479915
52	0x3d54d643	0.05196215
53	0x3d75917a	0.05995319
54	0xbdcfbb79	-0.101431794
55	0x3c97e41a	0.018541384
56	0xbdd43e9f	-0.103635065
57	0x3e017a6d	0.12644358
58	0xbbc317f9	-0.0059537855
59	0xbd3cc693	-0.046087813
60	0xbd7f35c3	-0.06230713
61	0x3dd865a4	0.105662614
62	0xbd522f5d	-0.0513147
63	0xbb5ea146	-0.0033970638
64	0x3ce74198	0.02822952
65	0xbdf47d99	-0.11938018
66	0x3e1cadec	0.15300721
67	0xbe38ef9f	-0.18060158
68	0x3dcc2e4f	0.0996977
69	0xbe15e154	-0.14636737
70	0xbcd09f49	-0.025466578
71	0xbce3b9ee	-0.02779862
72	0x3c72e9fc	0.014826294
73	0xbddc0325	-0.10742787
74	0xbe11c916	-0.14236864
75	0xbd9d092c	-0.07667765
76	0x3e11fd28	0.14256728
77	0xbd7bb057	-0.061447468
78	0xbd855ecb	-0.06512221
79	0x3e252308	0.16126645
80	0x3de0e062	0.109802976
81	0x3e3cb653	0.18428926
82	0xbcf6a6b8	-0.030108795
83	0xbe00f495	-0.125933
84	0x3dfc3c6b	0.12316211
85	0xbd38001a	-0.04492197
86	0x3da7bb18	0.08189982
87	0x3e30164e	0.17196009
88	0xbd10fb49	-0.035395894
89	0xbde9c60b	-0.11414727
90	0x3d11ec3f	0.035625692
91	0x3dba189d	0.09086726
92	0xbe4b406c	-0.19848794
93	0x3d356969	0.04428998
94	0xbdf0aea1	-0.11752058
95	0xbe0c7404	-0.13716131
96	0x3e0eba16	0.13938174
97	0xbdacfb0d	-0.08446322
98	0x3cc261eb	0.023728332
99	0x3c3caa91	0.011515276
100	0xbe03e304	-0.12879568
101	0x3d722784	0.059119716
102	0x3e14d7ae	0.145354
103	0x3cf5d30f	0.030007867
104	0xbe3dad8d	-0.18523236
105	0xbdde799f	-0.10863041
106	0x3db79a61	0.08964992
107	0xbb49cd3f	-0.0030792502
108	0xbc265f5f	-0.010154574
109	0x3d5d0d71	0.053967897
110	0xbd46b53b	-0.04851268
111	0xbe1c7cf2	-0.15282038
112	0xbda8471f	-0.0821669
113	0xbe34a82d	-0.17642279
114	0xbc7c3160	-0.015392631
115	0xbd8dc583	-0.06922438
116	0x3dc5ca57	0.09657734
117	0xbd7f3fcb	-0.062316697
118	0x3d7bac03	0.06144334
119	0x3df5e035	0.12005655
120	0x3e178897	0.14798199
121	0x3dfa2139	0.12213368
122	0x3dc1130e	0.094274625
123	0x3d28df6f	0.041228708
124	0xbc27e6d9	-0.010247909
125	0xbe0c9557	-0.13728844
126	0xbe2dc0da	-0.16968098
127	0xbd9991f8	-0.074985445
128	0x3def8218	0.11694735
129	0x3e3336f3	0.1750143
130	0xbe12ceed	-0.14336748
131	0x3e2306b6	0.15920529
132	0x3c9d3b42	0.019193295
133	0xbd0f8b04	-0.035044685
134	0xbd42f460	-0.047596335
135	0x3e197dd0	0.149894
136	0x3d753d2b	0.059872787
137	0x3e1d9c85	0.15391739
138	0x3da11a01	0.07866288
139	0x3d85c2c7	0.065312915
140	0xbe07a06e	-0.13244793
141	0xbd913283	-0.070897125
142	0x3dbfea13	0.09370818
143	0x3e2b8a8a	0.16752067
144	0x3e192897	0.1495689
145	0xbdd5f477	-0.104470186
146	0xbd09f8ff	-0.033684727
147	0x3cc538cd	0.024074936
148	0xbe398ccb	-0.18120115
149	0x3d7df311	0.061999384
150	0xbc61e97a	-0.013788575
151	0xbcc282a6	-0.023743939
152	0xbdf05ac3	-0.117360614
153	0xbd9a0a94	-0.07521549
154	0xbc9c39ee	-0.019070592
155	0xbdd4014f	-0.10351812
156	0x3ce79da4	0.028273411
157	0x3e083d16	0.13304552
158	0x3e0e6215	0.13904603
159	0xbdb062c5	-0.08612589
160	0xbe131590	-0.14363694
161	0x3dd33eda	0.10314722
162	0x3d6fe81c	0.058570966
163	0xbe277387	-0.16352664
164	0xbdbb6c16	-0.09151475
165	0xbe2c7133	-0.16840057
166	0x3d2d0d90	0.042249262
167	0x3cd66bfb	0.026174536
168	0xbe233cfe	-0.15941235
169	0x3c9bb624	0.01900775
170	0xbe34ca5c	-0.17655319
171	0x3d9846a9	0.07435352
172	0xbb756ece	-0.0037450078
173	0x3a56d0e0	0.0008194577
174	0xbcad3e6a	-0.021147925
175	0x3d4d8c29	0.050182495
176	0xbe2f561f	-0.17122696
177	0xbd9bd634	-0.076092154
178	0x3d00325b	0.031298023
179	0x3d77ffd6	0.06054672
180	0x3bbd9d9b	0.0057866103
181	0xbdc4aad8	-0.09602898
182	0x3d273f55	0.040831883
183	0xbd9c9459	-0.076454826
184	0xbc5fd648	-0.0136619285
185	0xbd9af960	-0.07567096
186	0xbded1b85	-0.115775146
187	0x3c99f828	0.018795088
188	0x3db4c638	0.0882687
189	0x3dcde2fb	0.10053059
190	0xbe330674	-0.1748293
191	0xbd816d68	-0.06319696
192	0xbe1f4264	-0.1555267
193	0x3de9b46d	0.114113666
194	0x3ddcb5b5	0.10776845
195	0xbe09c3e5	-0.13453634
196	0xbe2908e6	-0.165073
197	0x39fd3c6f	0.00048300947
198	0x3e0d19ef	0.13779424
199	0x3c547509	0.0129673565
200	0xbd4b6b66	-0.04966297
201	0xbe10a8a1	-0.14126827
202	0x3d99f5f6	0.075176165
203	0xbe19fec7	-0.15038596
204	0xbe2a4cc0	-0.1663084
205	0x3dc1657e	0.09443186
206	0xbd88465b	-0.06654044
207	0x3dc8903c	0.097931355
208	0xbe2f1d53	-0.1710103
209	0x3df45be2	0.11931588
210	0x3de20ae5	0.11037234
211	0x3dd6edb6	0.104945585
212	0xbcbef0da	-0.023308206
213	0xbe0438ca	-0.12912288
214	0x3cb7cf8c	0.022437833
215	0xbd0f273f	-0.034949537
216	0xbd055671	-0.03255314
217	0xbd53cddb	-0.05170999
218	0xbd5083bb	-0.050906878
219	0xbd37e18b	-0.04489283
220	0x3e42e2cd	0.1903183
221	0x3dd510cf	0.104035966
222	0x3c34d2a1	0.011036546
223	0xbe38ba0c	-0.18039721
224	0xbd75b30d	-0.05998521
225	0x3d6901f7	0.05688664
226	0x3d0d49ba	0.03449414
227	0xb9cfa1e8	-0.00039602746
228	0x3e44fbfd	0.19236751
229	0x3de51577	0.11185735
230	0x3db1c0dc	0.08679363
231	0x3df431e4	0.119235784
232	0xbe05b42f	-0.13057016
233	0xbdb14381	-0.086554535
234	0xbdef1662	-0.11674191
235	0xbdd4060b	-0.10352715
236	0x3dab765e	0.08372186
237	0xbdaf80b7	-0.08569472
238	0xbd8c4c91	-0.068505414
239	0xbe18489f	-0.14871453
240	0xbe2b8d34	-0.16753083
241	0x3e067769	0.13131489
242	0xbe2dc294	-0.16968757
243	0xbdd41e68	-0.10357362
244	0xbe2b12b5	-0.16706355
245	0x3dd9951d	0.10624144
246	0x3d34b842	0.044121034
247	0xbe1670bc	-0.14691442
248	0x3dae5951	0.085131295
249	0x3d9ab03f	0.075531475
250	0x3e25a4de	0.16176173
251	0x3cb12f30	0.021628946
252	0x3d24e952	0.040261574
253	0x3925dd64	0.000158181
254	0x3e083b2b	0.13303821
255	0xbdd363ef	-0.10321795

model.transformer.encoder.layers.0.linear2.bias f4 [32]
0	0x3d0e0c58	0.03467974
1	0x3c553120	0.013012201
2	0x3d9c3f82	0.07629301
3	0xbd44f87a	-0.04808853
4	0xbca917c8	-0.020641223
5	0x3d07626e	0.033052854
6	0xbd7f394b	-0.0623105
7	0x3da1c6eb	0.07899269
8	0x3d833fb2	0.06408633
9	0x3c11f9b7	0.008909634
10	0xbd9de2f9	-0.07709307
11	0x3d67f4bc	0.05662988
12	0xbce12939	-0.027485477
13	0xbc30e2a4	-0.010796223
14	0x3da8492f	0.08217084
15	0xbcfbd193	-0.030739581
16	0x3dc48fc5	0.09597734
17	0xbc90cdb0	-0.017676204
18	0xbd6e03e1	-0.058109168
19	0xbcacf018	-0.02111058
20	0xbd9ba731	-0.076002486
21	0x3d409d03	0.047024738
22	0x3d17847f	0.036991592
23	0x3b54965d	0.0032438256
24	0xbd91b947	-0.07115417
25	0x3d120cf0	0.03565687
26	0x3d2c75ab	0.042104404
27	0x3db0e8fe	0.0863819
28	0xbd29b01a	-0.04142771
29	0x3d129e30	0.03579539
30	0x3d412898	0.047157854
31	0xbc30226d	-0.010750395

model.transformer.encoder.layers.0.norm1.weight f4 [32]
0	0x3f811513	1.0084556
1	0x3f7eb7c6	0.99499166
2	0x3f7de740	0.99180984
3	0x3f805c07	1.0028085
4	0x3f80fb00	1.0076599
5	0x3f7c9e19	0.9867874
6	0x3f80504a	1.0024502
7	0x3f803b7d	1.0018154
8	0x3f7fa39e	0.99859035
9	0x3f7da561	0.99080473
10	0x3f811541	1.0084611
11	0x3f8188fa	1.0119927
12	0x3f80d837	1.0065984
13	0x3f7fb312	0.99882615
14	0x3f7cec34	0.9879792
15	0x3f7e045f	0.9922542
16	0x3f7d05c6	0.98836935
17	0x3f7f05b5	0.99618083
18	0x3f80c907	1.0061349
19	0x3f7fa643	0.9986307
20	0x3f813c68	1.009656
21	0x3f804e68	1.0023928
22	0x3f7fe44d	0.99957734
23	0x3f81966c	1.012403
24	0x3f7ddb5f	0.9916286
25	0x3f80c430	1.0059872
26	0x3f7f0ef4	0.9963219
27	0x3f7e221f	0.99270815
28	0x3f7f36fb	0.9969327
29	0x3f7ff4ab	0.9998271
30	0x3f81795f	1.0115165
31	0x3f7f85d1	0.9981356
