models/dgsr_pre_train/1_covar_koza/controller.pt (torch, 820077 bytes, 196 tensors)

state_manager.parent_embeddings.weight f4 [9, 16]
00000000: c9ee 613f 10e0 2740 fdac aebd 82e6 94bf
00000010: d664 76bf 8f85 c53e f679 1e3e cfc2 a53f
00000020: c92c 113e c698 cebd b7ac e0be a333 7c3f
00000030: d2ed 1f3f 350c d0bf 63ec 633f 2848 3ebf
00000040: 2c43 74bf 4e32 2abf fbee bb3f 8069 74bf
00000050: 2d5a 19bf 1f67 89bf 396c b23e 02a9 e7be
00000060: 8813 ddbf b60b 08bd baf1 a9bf 06ce 5b3d
00000070: 6f2f 0b3e e509 a53f fe3a e63f 0712 0ebf
00000080: 0dd8 a6be 928c 55bf 6194 5a3e 5c51 333f
00000090: 640c 0840 e477 e6be 2893 d73f 0a5c 033f
000000a0: c148 093f e5ef 4a3c bbd1 d33f 63c1 85bf
000000b0: c1a3 fe3c 9f58 943f 55d7 55bd 8dc1 603f
000000c0: 2216 34bf 3739 d23e d765 1bbd a878 0f3f
000000d0: 57be 193f f286 d23e 42db 763e 8ad7 4b3f
000000e0: 9b19 4d3f 6d0d 54bf 5cba 523f 5f42 8d3f
000000f0: fece 023f 6fbb ca3e 64c4 10bf 76d7 d5bf
00000100: 29a4 653f e784 0a40 00e8 2240 83e4 663e
00000110: 1a83 5c3e f77a a5be 9241 733f c1d3 e93f
00000120: fb03 03bc e9c9 bebc 2f5c a73e 55c9 823f
00000130: 6f4b a4be 0a6e 8dbf c31f 70bc ee09 403f
00000140: 6411 903f f067 0cbf 7bc1 a13e e25c 5b40
00000150: 35e1 08bf ee97 4ebf f01a 0240 45fc acbf
00000160: 8d2b a7bd 0e68 9bbf aa9a e83f fde0 033f
00000170: 5a71 2ebf 9376 aa3e fe9f da3f f81c a6bf
00000180: 0849 ba3f e9a7 86bf a586 e43f fb40 5e3f
00000190: af1b 583f 380b 9cbe 8cdc 26be 4470 0e3f
000001a0: 4057 b5be e15c 353e 1cbe 3fbf c60d 0bbf
000001b0: 8c0f 50bf 87e3 383d a31a d53f 259c 323f
000001c0: aa8a 063d 1f9f b73e 5439 4dbf c4b6 533f
000001d0: 2384 b8be 8600 91bf 2b9d c53e adb0 04bf
000001e0: 1d8a 833f 949f c0bf 814f 733e cadd c2bf
000001f0: 8cce 35be 868f 953f cc59 8c3f 72e0 4f3f
00000200: a558 af3c 097f 853f 1a03 c93e d3f0 36bd
00000210: a0bb 303e 36b4 4c3e 818a e53d b420 a83f
00000220: fe4e e63e 2e44 5ebf 6e18 38be 74f8 863f
00000230: b082 bb3f d494 14be 2a38 9bbe 25f1 3a3f
0.8825498 2.6230507 -0.08529089 -1.1632845 -0.96247613 0.3857846 0.15476212 1.2950076
0.1417724 -0.10087733 -0.4388177 0.9851629 0.6247226 -1.6253725 0.8903257 -0.7432885
-0.95414996 -0.6648301 1.4682306 -0.9547348 -0.5990322 -1.0734595 0.34848192 -0.4524613
-1.7271585 -0.033214293 -1.3276894 0.053663276 0.13592313 1.2893645 1.7986753 -0.5549626
-0.3258671 -0.8341762 0.21345665 0.7004602 2.1257563 -0.45013344 1.6841784 0.51312315
0.5362664 0.012386297 1.654838 -1.0449642 0.031083943 1.1589545 -0.05220731 0.87795335
-0.7034627 0.41059276 -0.03793892 0.5604348 0.6005606 0.4111858 0.24107078 0.7962576
0.80117196 -0.82832986 0.8231561 1.103588 0.51097095 0.39596125 -0.5654967 -1.6706378
0.89703614 2.1643617 2.5454102 0.22548108 0.21534386 -0.32320377 0.9502193 1.8267747
-0.0079965545 -0.023289638 0.32687518 1.0217692 -0.320888 -1.1049206 -0.01465601 0.7501515
1.1255307 -0.54846096 0.31592926 3.427544 -0.5346864 -0.80700576 2.0328941 -1.3514487
-0.081626035 -1.214113 1.81722 0.5151518 -0.6814171 0.3329359 1.7080076 -1.297759
1.4553537 -1.0519992 1.785359 0.868179 0.8441724 -0.3047731 -0.1629507 0.55640054
-0.3541813 0.17711212 -0.7489946 -0.5431789 -0.8127372 0.045138862 1.6648754 0.6976951
0.032847084 0.35863587 -0.801656 0.82700753 -0.36038312 -1.1328285 0.38596472 -0.51832086
1.0276524 -1.5048699 0.23760797 -1.5223935 -0.17754573 1.1684425 1.0964904 0.8120185
0.021404574 1.0429393 0.3926018 -0.04466326 0.17259073 0.1999062 0.11208058 1.313498
0.4498214 -0.86822784 -0.17978069 1.0544572 1.4649258 -0.14509898 -0.30316287 0.7302421

state_manager.sibling_embeddings.weight f4 [10, 16]
00000000: f1f7 ac3e 30ba 29be b5be 923f 6e88 75bf
00000010: 6668 bc3e ed35 d3bf ea58 1240 713a b0bf
00000020: 4eff 6bbf 9f8f 77bf a5c4 8c3e 905d 9cbf
00000030: 3355 cdbf badc bfbe b118 a33f fb82 5b3f
00000040: 686a 08bf 99c0 42bf 4d2e 43bf 4b8f 2ebe
00000050: bdad c1bf 05a6 813f 002b a13f dc11 d33f
00000060: 3afc afbf 2377 503f afd6 89bf bb84 1a3d
00000070: 070f c9bf 5926 c63f 1917 583f 3069 a8be
00000080: c0f5 233f 77d1 e03c 882e d1bf 8368 133f
00000090: 35d7 3cbf e12b b03f 1d00 143e 7f8b 193e
000000a0: 7bd5 b43d e6f0 3bbe d3b4 9ebc 6e26 583f
000000b0: 3e20 37bf f162 b03f c6c8 a23e 5516 9bbf
000000c0: 803c 113f d320 3b3f 4872 713e 7389 69be
000000d0: f4c3 16bf 0eae b73e b852 a3bf 4f1a de3d
000000e0: a4a8 8e3e cdac aabe 9fc7 98be f96c acbd
000000f0: a08d 0bbf ea88 38bf 2c32 d6bf 8dbb 9fbd
00000100: 8e84 753f 6ac7 95bd 091b edbf 2727 133e
00000110: a912 adbe 0af2 23c0 c059 d43f c263 33be
00000120: 87d9 dd3f 5e38 b73e 5d66 49bf 017e cabf
00000130: 8342 163f 584e 0b3e 5083 37bf 2ecc 1d40
00000140: 080b 9a3f 7c06 63be 0426 a5bf 8cab 013f
00000150: 4b05 333f 507b 06c0 1815 e23e 1eda 49bf
00000160: 7e37 a5bf b216 873f 385b 82be 2fcc f53d
00000170: d520 643e 6d64 9c3f 31d5 ebbc d321 8fbe
00000180: c894 863f 1824 00bf de1a 2dc0 7f75 e9be
00000190: a346 273f 47a7 2d40 64e3 86bf 6a12 06bf
000001a0: 203d c9bf 3607 bbbf b367 96be 4a4a 1b3f
000001b0: cc3c f3be 8663 e5be d8d6 df3e 3a07 f8bf
000001c0: 4011 4dbf 38b3 bb3d 52f9 31bf b86d 2c3f
000001d0: 7c7f 113f 1a2a afbe e633 03c0 c1b4 1c3f
000001e0: d3a2 e43d 410b 753f 85be d2be 29c7 8dbe
000001f0: fb3f 90bf bec9 8c3f a4ad 8a3e ccab 39bf
00000200: b988 0fbf 278e 343e 3e02 393f d286 0ebf
00000210: eb22 cd3f 181a d3bf 8520 c6be 00d6 71bf
00000220: 3780 e43e 0225 813f fef7 ebbd 98b5 dd3e
00000230: 7965 5bbf 0454 38bf b1cb 123f 3d87 fdbf
00000240: f80f cbbf 99d9 bfbf 5735 243f 6ab8 36bf
00000250: 4e90 b73f eb33 c8be 9ff7 ca3f 6357 d73e
00000260: a884 af3f d412 753e 1065 573e e2c1 88bf
00000270: 98b2 843f f822 17bf 196c 89bf 3229 473e
0.33782914 -0.16574931 1.1464449 -0.959113 0.367984 -1.6500832 2.286677 -1.3767835
-0.9218644 -0.96703523 0.27493778 -1.2216053 -1.6041626 -0.37473089 1.274191 0.85746735
-0.53287363 -0.7607513 -0.76242524 -0.1704685 -1.5131146 1.012879 1.2591248 1.6489825
-1.3748848 0.8143179 -1.0768641 0.037724238 -1.5707711 1.5480453 0.84410244 -0.32892752
0.6404686 0.02744363 -1.6342325 0.5758135 -0.7376588 1.3763391 0.14453168 0.1499462
0.08829781 -0.18353614 -0.019373333 0.8443364 -0.7153357 1.3780195 0.31793803 -1.211619
0.5673294 0.7309696 0.23578751 -0.22806339 -0.5889275 0.3587498 -1.2759619 0.10844862
0.27863038 -0.33334962 -0.298398 -0.084192224 -0.5451298 -0.72083914 -1.6734061 -0.07799444
0.9590539 -0.07313426 -1.8523875 0.14370404 -0.338033 -2.561648 1.658989 -0.17518523
1.7332009 0.35785192 -0.7867182 -1.5819703 0.5869524 0.13604105 -0.7168474 2.4655871
1.2034616 -0.22170442 -1.2902226 0.50652385 0.6992995 -2.1012764 0.44156718 -0.78848445
-1.290756 1.0553801 -0.2546022 0.120018356 0.2227815 1.2218148 -0.028788181 -0.27955493
1.0514154 -0.50055075 -2.7047648 -0.45597455 0.6534216 2.7133348 -1.0538144 -0.5237185
-1.5721779 -1.4611576 -0.2937599 0.6066023 -0.47507322 -0.44802493 0.437186 -1.9377205
-0.80104446 0.09165043 -0.6952106 0.6735492 0.5683515 -0.34211808 -2.0500426 0.6121331
0.11163869 0.957203 -0.4116098 -0.2769101 -1.1269525 1.0999067 0.27085602 -0.72527766
-0.56068 0.17632352 0.72269046 -0.5567447 1.6026281 -1.6492338 -0.38696685 -0.94467163
0.4462907 1.0089419 -0.1152191 0.43302608 -0.8570171 -0.720032 0.5734206 -1.9806896
-1.5864248 -1.498828 0.6414389 -0.71375144 1.4340913 -0.3910211 1.5856818 0.42058858
1.3712358 0.23932964 0.21034646 -1.0684168 1.0367002 -0.59037733 -1.0736114 0.19449309

model.decoder.weight f4 [11, 32]
00000000: bd21 913d 5cc8 0a3e a21e c23e 7815 983e
00000010: 41fb 9f3f 3858 21c0 43b9 0f3f 3d68 06bf
00000020: b4a2 c83f da96 003f a774 ab3f 5e5f ee3f
00000030: 2260 5dbf 6aca ecbe 5a59 7fbf c42a c3be
00000040: f838 c13f 777e 293f 126d c1bf a8e5 80be
00000050: f971 a2bf 4c74 aa3e 9ebb f8be fadb f33e
00000060: d0cd 75bf 748c 4cbd f8d5 753e b881 6e3f
00000070: 12a3 b63e f8cc 923f 7fc2 a53e f5b5 04bf
00000080: c1f1 1840 a4ce 943f 4f95 acbe 06c9 9e3e
00000090: 46d4 903f 754d 513f 556d a1be 4588 d7bf
000000a0: d234 47bd 394b 3cbe f47b bc3f 2d86 2fbf
000000b0: 7799 dc3e 79a8 893f 0fe5 793f f7c6 a2be
000000c0: 62f4 6a3f 8649 eabe 897a c23e d6e1 91be
000000d0: e0ad 5bbe 2b52 163f 6e14 e8be d232 603f
000000e0: cbe7 ffbe 26a6 6a3f 1ea1 463e 1de0 f23f
000000f0: fe87 043e 5952 883e 7c55 a63e 7ca2 41be
00000100: a313 bfbe e852 c0be c70f 2cc0 2e54 16be
00000110: 9966 fcbe 7a6f dd3d 984e 8e3f 44e9 203f
00000120: 460c 28be f7e2 343e 2812 bc3f 0fee a7bf
00000130: c881 1540 051f 583f ddcd 633f 5774 56bf
00000140: 4062 9fbf 27c9 5e3f a853 e9bd acb0 943f
00000150: f6ab 223c fa74 8a3f 6045 c53e 058d 163e
00000160: 1640 2cbf 9f75 f33f ccbf 183e ce23 893f
00000170: 6d03 353f 37b8 683f 1002 aa3f 68a4 c13d
00000180: 0e35 143d a4a4 6c3f aaf8 cd3f 5b12 683e
00000190: e966 35bf bd35 d83f 4bbe 9e3f 441c b03f
000001a0: 5886 04bf 45b4 04bf 550d 4dbf f2b8 1940
000001b0: c664 e5be 2666 a73f 38c3 9bbf 3333 72bf
000001c0: ccee 00c0 76b1 b4bc d495 d73e 3f98 853e
000001d0: 27dc bdbe c101 643f ea9c a33f c769 37bf
000001e0: 9b28 b53f 1d6e 85bf 08fe 993f b47c 3cbf
000001f0: 7e5d e7bf ee7b f6bf 1b76 d5bf c9c3 223f
00000200: 3cbb e3bf 7d38 dfbd 9d16 733e e567 d3bf
00000210: 527c 453f f082 16bd a08b d1be 275a d43d
00000220: 59ef 813f 9216 06bf 1dff c2bd e9cb 8d3f
00000230: 4e43 afbf 033a 3cbf 4677 993b 31d7 73bf
00000240: 88d3 2ebf 36cb 303e 3150 a0be 64bc 2bbf
00000250: 113c 59be afb8 b7bf 61cd 943f f184 17c0
00000260: 6fae 00c0 d65f e13f 768d 193f 40c4 9dbf
00000270: f66b 0a3f 3b0c 9fbf fef7 753f a0fc 6bbe
00000280: 82aa 9abf a105 173e ff74 b0bd ca2b b03e
00000290: 4341 d9bd 11f4 95bf 40a8 42bf 864c 15be
000002a0: a9db 743e 97bc bc3f be8c a23e d344 ccbf
000002b0: 6389 e5be 5930 0b3f 92f5 3abe e172 f3bf
000002c0: 5676 a03f 8bfe c2be 32d2 4e3e 425e 1f3f
000002d0: 5124 d73f 7b0f 7ebf 8e4a 7b3e 4033 533e
000002e0: acab 0cbe fc1b 95bf 7406 30bf c5e6 b33d
000002f0: 80c2 a33f 14b8 353f 4021 ebbe 3057 16be
00000300: 5acf 9cbf cc44 633d 7586 5cbf 46f9 a83e
00000310: 13d0 df3d 5227 843f c295 e83f 0640 bdbf
00000320: 4d7c 76bf fde4 65be b005 f3bf a083 f6bd
00000330: 191c 513f 5371 e5bf f874 e73e 4d63 edbf
00000340: d4af 95bf 00d1 e03d 421d 0ec0 3c8f 92bf
00000350: 0fc9 c3be 397f 613f f246 a23f e7b0 943e
00000360: 4f38 66bd fa02 10bf 25df e6be f5c9 dbbc
00000370: a6ab 7b3f 01f7 9cbe 3d90 17bf c5ab 22bf
00000380: d469 233f 405e 7fbf 856a b9be 4f69 5ebf
00000390: adcd d6bf 0a6f 2e40 4db3 b23f 9b5e 2bbf
000003a0: 117f 233f da36 ad3e fda2 413e 7ce7 3fbf
000003b0: c934 2a3f b186 c1bf 1b06 6f3f 2996 9d3e
000003c0: 2a1f 103f 9e24 9fbe db75 573d 95e0 27c0
000003d0: 118e d3bf 5e9e 193f 1197 003e 6055 0640
000003e0: 7be1 e83e 96bf 2c3f df83 c3be dfdb b4bf
000003f0: 13a5 84bf eced d5be b75c 55bf 749f a5bf
0.07086513 0.13552994 0.37913996 0.2970388 1.2498552 -2.5210094 0.5614206 -0.52502805
1.5674653 0.5023018 1.3394974 1.8622854 -0.8647481 -0.4624818 -0.99745715 -0.38118565
1.509551 0.66208595 -1.5111411 -0.25175214 -1.2691032 0.33291852 -0.4858064 0.47628766
-0.9601717 -0.049938634 0.24007404 0.93166685 0.35671288 1.1468801 0.3237495 -0.51840144
2.3897555 1.1625562 -0.33707663 0.31012744 1.1314781 0.81758815 -0.31528726 -1.6838461
-0.048634358 -0.1838807 1.4725327 -0.6856411 0.43085834 1.0754539 0.9761514 -0.31792423
0.9177915 -0.4575922 0.37984112 -0.28492612 -0.21453047 0.5871913 -0.45328087 0.87577546
-0.49981532 0.9165977 0.19397399 1.8974644 0.12942502 0.26625326 0.32487094 -0.18909639
-0.3731967 -0.37563252 -2.688463 -0.1468055 -0.49297026 0.10812278 1.1117735 0.62855935
-0.16410932 0.17664705 1.4693041 -1.3119525 2.3360462 0.8442233 0.88986 -0.8377127
-1.2451859 0.87025684 -0.11392909 1.1616416 0.009928694 1.0816948 0.3852949 0.14702232
-0.6728529 1.902027 0.14916915 1.0714052 0.7070835 0.9090609 1.328188 0.09455186
0.03618341 0.9243872 1.6091511 0.22663252 -0.70860153 1.68914 1.2401823 1.3758626
-0.5176749 -0.5183757 -0.8009847 2.4019132 -0.44803447 1.3078048 -1.2168951 -0.94609374
-2.014575 -0.022057276 0.42106497 0.26092717 -0.37082025 0.89065176 1.2782261 -0.7164578
1.4153017 -1.0424229 1.2030649 -0.7362778 -1.8075407 -1.925657 -1.6676668 0.63579994
-1.7791514 -0.10899446 0.23739095 -1.6516081 0.7714282 -0.036745965 -0.40926838 0.10368758
1.0151168 -0.5237819 -0.09521315 1.1077853 -1.3692415 -0.7352602 0.004683408 -0.9525023
-0.6829152 0.17265019 -0.3131118 -0.67084336 -0.2121432 -1.4353236 1.1625177 -2.367489
-2.0106466 1.7607372 0.5998148 -1.2325516 0.54070985 -1.2425607 0.9608153 -0.23045588
-1.2083285 0.14748241 -0.08616065 0.34408408 -0.10608151 -1.1715108 -0.7603798 -0.14579973
0.23911919 1.4745053 0.31748003 -1.5958503 -0.4483138 0.5437065 -0.1825774 -1.9019433
1.2536113 -0.38084826 0.2019737 0.622532 1.6807958 -0.9924237 0.24540159 0.20625019
-0.13737363 -1.1649165 -0.68759847 0.0878425 1.2793732 0.70984006 -0.45923805 -0.14681697
-1.2250779 0.05548553 -0.86142665 0.3300268 0.10928359 1.03245 1.8170702 -1.4785163
-0.9628342 -0.22450633 -1.8986111 -0.12036824 0.816835 -1.7925209 0.45206428 -1.8545929
-1.1694283 0.109773636 -2.2205358 -1.1449962 -0.38239333 0.8808475 1.2677901 0.29041216
-0.056206044 -0.5625454 -0.4509212 -0.026829699 0.9830879 -0.306572 -0.59204465 -0.6354335
0.63833356 -0.9975319 -0.3621408 -0.8687944 -1.6781517 2.7255273 1.3960968 -0.6694123
0.6386576 0.3383091 0.18909831 -0.7496259 0.66486794 -1.511923 0.9336869 0.30778626
0.5629755 -0.31082624 0.05260263 -2.6230824 -1.652773 0.60007274 0.12557627 2.0989609
0.45484528 0.67479837 -0.38186547 -1.4129599 -1.0362877 -0.41783082 -0.83344597 -1.2939286

model.transformer.encoder.layers.0.self_attn.in_proj_weight f4 [96, 32]
00000000: 220e f03c 9f3b f03c ad14 493e e0b8 2d3e
00000010: 78d3 0dbe 3fa9 27be cc94 ebbd bd2f 0abe
00000020: 0054 563e 44aa 14ba e9d0 263e 98d1 4a3b
00000030: c5ae 3e3e c7e4 5bbe 488e 4fbe 7d93 56be
00000040: 5107 46be 3093 203e 52ff cf3c 43aa 603c
00000050: f40a fc3c 446e fd3d 9df5 9d3d 112d 49bd
00000060: b6b5 52bd cec0 e93d 1363 bdbd c7da 4e3d
00000070: e32f dc3d 3fb7 ba3b f513 403e 48bb 2fbd
00000080: c4e8 06be 41f8 b13d d9a5 f43b 46ce 5b3e
00000090: 0b80 fabd 162b 12be a3f1 c6bd 8322 c43b
000000a0: 82b1 5bbd 93d7 e23d c9ae 54bc 1fc7 443e
000000b0: b0a3 4dbe 4096 85bc 5264 e43c b83d 48be
000000c0: ebb4 bc3d 7bfa 43be b99a a2bd 35be 10be
000000d0: 1c3d 05be 4b04 6b3c cbc9 d63d 0891 1abe
000000e0: 6176 4b3d c5d4 073e 3847 b2bd 9d5b 333e
000000f0: b5f7 a3bc 012f 653d b01e 25be 0cb6 e13d
00000100: da65 3e3e adfa d53d 8c45 16be b732 51bd
00000110: bb53 19be a6d4 0a3e cd52 db3d 1b20 36bc
00000120: 9c96 ce3d 0617 19bc bdc7 593e c96d 3e3e
00000130: fba3 703d a10e 3f3c 0b80 08bd 29c1 263e
00000140: fc7c 1abd e6d0 4a3c 707b a03d 5627 5dbd
00000150: 4ad5 25bd ec6e 29be 2212 453e 2847 19be
00000160: 5008 133e 87d4 013e 7d62 4c3c 6da2 8e3d
00000170: 55ef 21be f97f 483e 9994 0ebe aa43 48be
00000180: bf35 9f3d e5c9 173e 44f8 2b3b 8ed0 a0bc
00000190: 2dc8 22bd 83cc ce3d 5244 4c3d 6d42 153d
000001a0: 6635 d63d cea7 02be 89d9 193e 3ed7 533e
000001b0: bbc0 c03d d476 82bd 679f 793d e961 a8bd
000001c0: ceb2 36be c2c5 a1bd c812 e03d 0842 9bbd
000001d0: c131 b5bd 29ce 023e 946a 313e fc4d a0bd
000001e0: ef80 093e dd92 d1bb 7799 5a3d 2d61 c23d
000001f0: f379 943d c7c2 c83d 9a62 03bd 7a20 1bbe
00000200: ae91 f03d 1505 bebc 9c32 4d3e 674a f73d
00000210: 9280 533d cb3d 02be c156 363d 3184 eebc
00000220: 6f26 dbbd 1a71 10be ca24 54be 07c4 d6bd
00000230: f045 b03d a1ca abbd 4e83 4bbd 2e45 0ebd
00000240: 18a8 033e 023b a2bd 2241 16be f1b2 11be
00000250: 4fcd c6bd 1234 05be 94c7 1ebe 580a 283e
00000260: ccc2 1fbe 5296 493e 39e7 733b 3fcc 1fbe
00000270: ba70 ebbd 117c 133e 825f 21be dd86 1f3e
00000280: d1a6 f73c 247f b43c 8b54 14be bdb1 32be
00000290: 4207 e3bd 8876 113e 3735 a1bd 531a b3bd
000002a0: 0c10 993d 312d 823d 1cf4 9cbd dae5 14bd
000002b0: e91b 2cbe c6c7 0a3e b87f 053e c481 81bc
000002c0: 50a9 8cbc 5073 093e 39a0 8c3d 657e 1c3e
000002d0: c7fb e93d baeb eebd 8329 053e 3dc4 253e
000002e0: 1237 31be 2ff4 703d 9ced df3d 8be8 a5bd
000002f0: 4213 e0bd 8305 9f3d 421a 073e 27d4 403e
00000300: e043 e1bd a3c1 063e 8ef5 e33d 20af 01be
00000310: 9ab6 35be ead2 f33c f4ca 043e 0b99 213d
00000320: f48c 1abd e116 2fbd ae23 003d a227 3f3e
00000330: 2379 303e 1b52 203e cda5 25bd 14b6 13be
00000340: b654 973c f726 0a3d c97a 6ebc 6669 653d
00000350: 8bed 1c3d 0fc6 d6bd 788e a83d 4909 c53d
00000360: 0ece 09be 46e2 eb3d b604 b6bd 428d a13d
00000370: 2661 2b3e c4ad 9c3d b08e f5bb 95ac 17be
00000380: 03f4 4abd 5a5f 1a3e ef45 32be 72ff c4bd
00000390: 9f92 02bc 4e90 f13d 0815 68be 4811 39be
000003a0: 7d26 03be 8474 ebbd 919f 2c3e a856 58be
000003b0: b5ac b8bd 9472 33be 9e22 403e c279 823d
000003c0: 113f d03d f057 32bc cfa2 9fbd afd9 0ebd
000003d0: a6bb e63b 08c1 5dbe 8a91 bfbd a5d7 063e
000003e0: ac82 713d c414 883d b70e f4bc c444 49be
000003f0: 9632 893d 518a c0bd 0160 30be 015f a03c
0.029303614 0.029325305 0.19636793 0.16965055 -0.138502 -0.16373156 -0.1150299 -0.13494773
0.20930481 -0.00056711235 0.1629063 0.0030947682 0.18621357 -0.2147399 -0.2026912 -0.209547
-0.19338728 0.15681148 0.0253903 0.013712469 0.030766942 0.12374547 0.07712863 -0.049115244
-0.051442824 0.11413728 -0.092474125 0.05050161 0.10751321 0.005698114 0.18757613 -0.042903215
-0.1317473 0.08689929 0.0074660596 0.21465406 -0.122314535 -0.14274248 -0.09714057 0.0059855594
-0.05363608 0.11076274 -0.012981125 0.19216584 -0.20081973 -0.016306996 0.027879868 -0.19554794
0.09214195 -0.1913852 -0.07939667 -0.14135058 -0.13011593 0.014344285 0.10487708 -0.15094388
0.04967344 0.13264759 -0.0870499 0.17515416 -0.020015577 0.05595303 -0.16124988 0.11021051
0.18593541 0.10448203 -0.14674968 -0.051073756 -0.14973347 0.13557681 0.10709152 -0.011116053
0.1008732 -0.009343868 0.212676 0.18596567 0.058750134 0.011661203 -0.033325236 0.16284622
-0.03771685 0.012378907 0.07836044 -0.05399259 -0.04048661 -0.1654622 0.19245198 -0.1496855
0.1435864 0.12678729 0.012474653 0.06964574 -0.15813954 0.19580068 -0.13923873 -0.19557062
0.07773923 0.1482311 0.0026240507 -0.019630697 -0.039741684 0.10097601 0.049869843 0.0364403
0.10459404 -0.12759325 0.1502439 0.20687577 0.094117604 -0.06370321 0.060943034 -0.082218
-0.17841646 -0.078990474 0.10941082 -0.07580954 -0.088473804 0.12773956 0.17325813 -0.07827374
0.1342809 -0.0063956813 0.05336901 0.09491191 0.072498225 0.09802776 -0.032076456 -0.15149108
0.11746536 -0.023195783 0.20038837 0.12074738 0.051636286 -0.12718885 0.04451633 -0.029115768
-0.1070069 -0.14105645 -0.20717159 -0.10486608 0.086070895 -0.08388258 -0.04968577 -0.034733944
0.12857091 -0.07921411 -0.14673284 -0.14228417 -0.09707128 -0.13008144 -0.1550582 0.16410196
-0.15601653 0.19686249 0.0037216677 -0.15605257 -0.1149611 0.14402796 -0.1575909 0.1557879
0.030230911 0.022033282 -0.14485376 -0.17450614 -0.11085369 0.14205372 -0.07871478 -0.08745255
0.07473764 0.06356276 -0.07663748 -0.036352016 -0.16807522 0.1355277 0.13037002 -0.015808947
-0.017170578 0.13422894 0.068664975 0.1528259 0.11424976 -0.11666055 0.13004117 0.1618814
-0.17306164 0.05882662 0.10933992 -0.08100995 -0.10941173 0.07764723 0.1319361 0.1883093
-0.10999274 0.13159804 0.1113082 -0.12664461 -0.17745438 0.029763658 0.12968045 0.039452594
-0.03773208 -0.04274643 0.031284027 0.18667462 0.1723371 0.15656321 -0.040441323 -0.14424926
0.01847301 0.033728566 -0.014555641 0.05600872 0.038312476 -0.104869954 0.08230299 0.09620912
-0.1345751 0.115177676 -0.08887617 0.07888271 0.16736278 0.07650331 -0.0074938163 -0.14811929
-0.049549114 0.15075436 -0.1740949 -0.09619035 -0.0079695275 0.11795102 -0.22664273 -0.18072999
-0.12807651 -0.11496833 0.16857745 -0.21126807 -0.09017316 -0.17524177 0.18763205 0.0637088
0.10168279 -0.010885224 -0.07794725 -0.034875568 0.0070414124 -0.21655667 -0.09353931 0.131682
0.05896251 0.06644586 -0.029792173 -0.19655138 0.066991016 -0.09401382 -0.17224123 0.019576551

model.transformer.encoder.layers.0.self_attn.in_proj_bias f4 [96]
00000000: 2f6a cfbb c0d5 363c 2b6e 1f3c 7896 fd3b
00000010: 6d57 61bb 2137 2d3c b062 613c f642 3bbc
00000020: a91a 76bc 19f9 2a3c 763d 05bb 8e1c 093c
00000030: 73d1 483c 52c0 d13b aa70 0abc f9e6 dfbc
00000040: 5c63 373c 1fda 693c 8e81 34bc 37ad 9ebc
00000050: 3524 8abc bf8c 92bb 9f37 7b3c 3225 bdba
00000060: 6f66 53bc 6b7a 7abc d4aa 5e3b eb75 28bc
00000070: ab1d 87bb ca30 0fbc ba20 6bbc 55d0 4e3c
00000080: b091 bbb8 520a 3639 0f98 fab8 8bf1 e4b5
00000090: b5ed 5438 afe0 65b9 f6c4 fdb8 13fe 86b9
000000a0: a33f 1d39 327e a3b8 cfce 3939 c8ea 1037
000000b0: a9bb cb39 8a7f 9438 4643 89b9 9194 5f38
000000c0: 14a8 f8b8 6a71 4538 868a 25b9 4801 c4b8
000000d0: b40a cfb7 ab39 c9b7 3612 0139 3d08 79b8
000000e0: 409a 17b9 fb94 b938 a19e 41b9 3856 5638
000000f0: f0d6 3b37 f195 13b9 c744 81b8 8b78 c5b9
00000100: 6653 03bc 897d ec3b c9af 373c 5518 af3b
00000110: 18b5 4fbc 49c7 50bb 5deb f63b 30bb d63b
00000120: f599 f23b 7f5c febb 177e cb39 ad71 0dbc
00000130: 0097 1a3c 0c27 463b 6472 f43a da06 f23b
00000140: de57 f13b 9f1f 0cbb a7d7 07bc efef 4cbc
00000150: 18fa 0d3c 7590 89bb b75b 8f3b 0343 003c
00000160: dd53 b939 7200 f7bb 44f1 04bc 3aa4 073c
00000170: 6e73 833a 07d1 af3b 74f0 9b3b 70c5 34bc
-0.0063297967 0.01115936 0.009730856 0.0077388845 -0.0034384385 0.010572226 0.013756439 -0.011429539
-0.015021005 0.010435366 -0.0020330823 0.008368624 0.012256968 0.0064011 -0.008449713 -0.027331816
0.011193123 0.0142731955 -0.011017216 -0.019369705 -0.016862968 -0.0044723446 0.015333085 -0.0014430641
-0.01290284 -0.015287976 0.0033976333 -0.01028202 -0.0041234097 -0.00873966 -0.014351064 0.012622912
-8.943991e-05 0.00017360717 -0.00011949252 -1.7057622e-06 5.076612e-05 -0.00021922843 -0.00012100667 -0.00025747772
0.00014996393 -7.7959514e-05 0.00017720017 8.637733e-06 0.00038858995 7.080946e-05 -0.000261808 5.3305706e-05
-0.000118568685 4.7074085e-05 -0.0001578723 -9.346247e-05 -2.4681307e-05 -2.3987921e-05 0.00012309183 -5.93739e-05
-0.00014457945 8.849237e-05 -0.00018465008 5.1101873e-05 1.1196113e-05 -0.0001407487 -6.16401e-05 -0.0003766458
-0.008015489 0.0072171134 0.011211344 0.005343477 -0.012677453 -0.0031857064 0.0075353817 0.006553076
0.007403607 -0.0077624912 0.00038813122 -0.008633059 0.009435415 0.0030235676 0.0018649814 0.0073860707
0.007365211 -0.0021381152 -0.008291162 -0.0125083765 0.008665584 -0.004198129 0.004374947 0.007828477
0.00035348433 -0.007537895 -0.008114163 0.008278901 0.0010028908 0.005365494 0.004758889 -0.011033401

model.transformer.encoder.layers.0.self_attn.out_proj.weight f4 [32, 32]
00000000: 0eb0 a6bd e9d5 413b 727f 243e 1874 0ebd
00000010: c9bb 563d d13c 5cbe 101d 3cbe aed9 c33d
00000020: abd1 5e3e 5f1e 38be b6a8 593e c3a9 84be
00000030: a922 90bd 0c5b 303e e181 74be 7b30 c83d
00000040: d3f2 30be 3054 47bd 9731 193e ad9d 4fbd
00000050: dce8 993e 1fd0 973e c286 70be 19b2 3abe
00000060: db8c c13d 2c32 233e bcac 043e 6ca7 0b3d
00000070: 397a 423e e3a9 1ebc d043 16be 7e36 78be
00000080: bf50 04be 2273 5abe dc1d d63d 3135 903e
00000090: fe03 45bc 02e5 e13d a5b7 6f3e 062a 6b3c
000000a0: ad1a ccbb bd11 d53d 86c5 5fbb 7ff1 a83d
000000b0: 0296 c13d 5d81 543d 2404 473e 8f7d 84be
000000c0: c978 84be 7565 82be b807 e9bd c6b5 8e3e
000000d0: ccb3 93be e898 55bd 56dc 48be c6a4 383e
000000e0: 004f 083e b5d8 e5bd e5af 31be cca7 f9bc
000000f0: a25e 92be 8632 c1bd 354e 873e 5bec 77be
00000100: bcbe 0a3e f059 05be 10eb 863d a20d 2b3e
00000110: 5ac5 a43d ca08 793e d2f4 923e 8e83 40be
00000120: aa6e cc3d a3f9 8a3e c455 eebd 46a4 bc3b
00000130: 1334 8dbd 2db1 8a3e 32f1 593e eaf8 e5bd
00000140: c925 05be d84d 7a3d f222 3a3e f27b 173d
00000150: 061a 76be 9b5b 30bc a146 c2bd a4d9 88bd
00000160: 1c3e 98be be11 823e e057 c3bd 990e 56ba
00000170: 861a 303e 582b a7bd 7a0c 033e 8e33 9f3e
00000180: d3e7 c43d 3ae4 fc3d bb88 07be 4fac d43d
00000190: 02f8 203e 164f 533e 7dce 563e 2c09 bfbd
000001a0: 887c ee3c 9208 61be a519 303e c7b5 78ba
000001b0: 39f8 42be 2b1b 3cbe 7e34 94be 3084 68bd
000001c0: 2c0b 543e 7556 95be 06e9 04bc fc48 d0bd
000001d0: d84e 2fbe 03e5 923e 76bb 91bd b079 85be
000001e0: 4779 63bd 52d9 cdbd 0a29 50bd d95e b5bd
000001f0: e219 a5bd f36a a4bb 0a77 233e 7986 8c3d
00000200: d221 c9bc fd6f a8bd cd69 9bbe 6609 3c3d
00000210: 9c23 1ebe 6355 d63d 6b77 1cbe 464c 98be
00000220: 04f8 febd 3ad7 193e 6917 21be d17a 54bb
00000230: e79b 5abe 1877 043e 674a 3cbd cfa2 4c3d
00000240: 0294 8fbc b2c8 5ebe 4c23 e73d 8c3a 0d3d
00000250: 48a0 09be 3ce9 08be a16e 22be dda1 8ebe
00000260: 5e1b 923d 1f7f 853e 7c74 863d f7fc 01bc
00000270: c184 893d 9a56 cb3d bbb5 883d 13fe 8f3e
00000280: ad4a dfbd 04a4 09bd 0a6f 913e 019e 293e
00000290: 3cbb d2bd 2e47 22be 6280 36be b75a a63d
000002a0: d2a0 9ebe 873c 863e d8c0 1a3d 8c1f 5d3e
000002b0: 2b7c 093d 6b43 8c3e 6329 93be 71d9 a3bd
000002c0: 90e8 53be 9cda 8b3e b1a7 25be e4ad 3d3b
000002d0: ce5a 593e e959 913e 6ac6 743e c76e 273d
000002e0: cb7b 8cbe 75a8 5a3e 0b69 0e3e d5c6 24be
000002f0: 6256 85bd bf0c 69be d290 763e ceea ddbd
00000300: dbcb 71be d22f 843d 7776 993e 8eba 173e
00000310: 579e 60be 2fdd 7b3e 95ef 803e a260 ef3b
00000320: 6d87 723e 67f8 6fbe 8980 863e e3ef 92be
00000330: a85a 633e 4ca6 683e b8fc 163d 1bca de3d
00000340: 70fb 153e ea5b 0bbe 6e51 12be 7097 6cbe
00000350: 384f 0fbe 04dd 473e 92f5 46bd cd93 933e
00000360: 856a 92be d7f2 24be 8fbb 7cbe a18d 723e
00000370: 1c13 2cbe 86de 25be ff85 623e a07d 6f3e
00000380: a349 a8bd 21f0 21be 113d 8d3e 9437 58bd
00000390: 88bd 013e 2ce5 833e 4419 bcbd 1386 c0bd
000003a0: a22c 2abe c9a8 4abd 7901 873e 5dee 003e
000003b0: 10ec d23d f025 4b3e 44d8 de3d 95fb 093e
000003c0: c250 843e 1015 dbbd 144b b3bc 208b 79be
000003d0: 3a61 88be a7c3 2a3e 6ff7 22be 0037 8d3e
000003e0: 2b6e 9ebe 14ab 06be 6283 023d b6e9 c0bd
000003f0: 83bb 2fbc 6e9c 53bd e76f 533e 4096 3d3e
-0.081390485 0.0029576963 0.16064242 -0.034778684 0.05242518 -0.21507575 -0.18370461 0.095630035
0.2175967 -0.17980336 0.21255764 -0.25910768 -0.07037861 0.17222232 -0.2387767 0.09774872
-0.1728013 -0.04866427 0.14960323 -0.05068748 0.3006047 0.2965097 -0.23488906 -0.18232001
0.09450694 0.15937108 0.12956518 0.034095213 0.18991937 -0.009684059 -0.14674306 -0.24239537
-0.12921427 -0.21332982 0.10454914 0.28165582 -0.012024878 0.11030008 0.23409899 0.014353281
-0.006228766 0.10403774 -0.0034144833 0.08249187 0.0945244 0.051881183 0.19435173 -0.25877044
-0.25873402 -0.2546803 -0.11378425 0.27873057 -0.28848112 -0.052147776 -0.19615301 0.18031606
0.13311386 -0.11222974 -0.17352255 -0.03047552 -0.28587824 -0.09433465 0.26426855 -0.24211256
0.13549322 -0.1302259 0.06587803 0.1670442 0.08045454 0.24319759 0.28702408 -0.18800184
0.09982045 0.27143583 -0.11637452 0.0057568876 -0.06894698 0.270883 0.21283415 -0.11229117
-0.13002695 0.061109394 0.18177393 0.036983438 -0.24033365 -0.010764028 -0.09486128 -0.06682137
-0.29734886 0.2540416 -0.09538245 -0.00081656274 0.17197618 -0.08162564 0.12797728 0.3109402
0.096145295 0.12348218 -0.13235752 0.10384428 0.15719607 0.20635638 0.20977207 -0.09327921
0.029112116 -0.21975926 0.17197283 -0.0009487536 -0.19040002 -0.18369739 -0.28946298 -0.05676669
0.20707387 -0.29167524 -0.008112198 -0.10170171 -0.1711992 0.28690347 -0.071158335 -0.26069403
-0.05553558 -0.10051216 -0.050820388 -0.088559814 -0.080615774 -0.005017632 0.15963379 0.06861586
-0.02455226 -0.08224485 -0.30354157 0.0459074 -0.15443271 0.10465505 -0.1527993 -0.29745692
-0.12449649 0.15023509 -0.15731587 -0.0032421837 -0.21348535 0.12936056 -0.045969393 0.049959954
-0.01752663 -0.21756247 0.11286029 0.034479663 -0.13440049 -0.13370222 -0.15862514 -0.27857867
0.07134126 0.26073548 0.065651864 -0.007933847 0.06714774 0.09928627 0.06675287 0.2812353
-0.10902915 -0.033603683 0.2840503 0.1656418 -0.102896184 -0.15847465 -0.17822412 0.08122771
-0.3098207 0.26218054 0.037781566 0.21594065 0.03356568 0.27395186 -0.28742513 -0.08000458
-0.20694184 0.27315223 -0.1617725 0.0028942758 0.21226045 0.28388909 0.23903814 0.04087713
-0.27438197 0.21353324 0.13907258 -0.16091473 -0.06510617 -0.22758768 0.24078682 -0.10835801
-0.23612921 0.064544335 0.29973194 0.14817259 -0.21935402 0.24596094 0.25182787 0.0073052207
0.23684473 -0.23434602 0.2626994 -0.28698644 0.22202551 0.22719687 0.036862105 0.10878392
0.14646697 -0.13609281 -0.14288875 -0.23104644 -0.13995063 0.19517905 -0.048574038 0.288237
-0.28596893 -0.16108261 -0.24680923 0.2368684 -0.16804165 -0.16198167 0.22121428 0.23387766
-0.0821717 -0.15814258 0.27585652 -0.05278738 0.12669957 0.25760782 -0.091845065 -0.09400573
-0.16618589 -0.049477372 0.2636831 0.12590928 0.102989316 0.19838691 0.10881093 0.13474877
0.25842863 -0.10697377 -0.021886386 -0.24369478 -0.26636678 0.16676198 -0.15914701 0.27581024
-0.30943426 -0.13151199 0.031863578 -0.09419577 -0.010725859 -0.051662855 0.20648156 0.18514347

model.transformer.encoder.layers.0.self_attn.out_proj.bias f4 [32]
00000000: 8416 003c 8625 8e3c 47ec 3ebc 5673 aa3b
00000010: 954d 87bc a5fb ca3b aee4 143c ad44 a8bb
00000020: 04aa 04ba 6749 3dbc 2d5e 033c 318f 83bc
00000030: 647d ad3b 36be d83b 2336 603b 5bc6 c93b
00000040: a25f 823b cc77 003b 5422 f93b 4f5e 1f3c
00000050: 715e e0bb 2e6a 083a 3105 263c 2745 e3b9
00000060: e15d f8b9 3f07 55bc 647e 9eba fe53 d5bb
00000070: 0f92 d8bb 2bd5 d6bb 60ba 07bc 3527 cdbb
0.007817868 0.017351877 -0.011653013 0.0052017374 -0.016516486 0.006194549 0.009087725 -0.00513514
-0.00050607347 -0.011553145 0.008018059 -0.01605949 0.0052944887 0.006614472 0.0034211955 0.006157679
0.0039786855 0.0019602655 0.007602969 0.009727075 -0.006847196 0.000520381 0.010133074 -0.00043348336
-0.0004737219 -0.013002216 -0.0012092111 -0.006510257 -0.0066092084 -0.0065561733 -0.008284181 -0.0062607774

model.transformer.encoder.layers.0.linear1.weight f4 [128, 32]
00000000: 6f29 0abe 6a62 f2bd cfe8 fd3d 8775 a53c
00000010: dcaf 003e 2f02 243e 4ce5 00bc 4476 3abe
00000020: e8de 1f3e edd0 19be 2f55 dbbc 3a8c 72bd
00000030: 6668 bbbd c242 32be 2bcf 9e3c 6618 d9bc
00000040: 4f27 1a3e c2dc 72bd 109f b5bd b1f2 443c
00000050: 3d58 013e 067e 0c3e 80ad d7bc 97ce 273e
00000060: d484 173e bac6 6bbd 08be 493d 82fc bcbd
00000070: f5a1 12be 6ab4 0bbe 8d67 dd3c c5c0 09be
00000080: ee76 463d 19b1 9f3d 29d4 db3d 9818 f63c
00000090: 05fc 7e3d 6aa2 cdbd f45a 303e b887 1e3e
000000a0: 069e b1bc c271 f3bd 7f08 943d 552f 253e
000000b0: 04cd 20be f703 0f3e c37c 073e 3f8b 18be
000000c0: dc24 093e 0014 12bd 37c9 b5bd f0dc 023d
000000d0: f0db 203e 063b 95bd 3756 443d c27c f3bd
000000e0: 62af 063d a914 1cbd bb39 03be 5a3d e53d
000000f0: 1cdd 5a3b b03c 313e 5388 3f3d 4094 be3d
00000100: a4df 1d3e 2df4 9ebc ec39 27bd 16a8 4bbd
00000110: f8b7 1bbe 3dde e6bd 9b38 3b3e 1bcd d73d
00000120: f390 413d 50b1 58bd 6eb9 183e 6c2d 8cbd
00000130: 14ce 7a3d d983 fcbd 3848 a3bd 4c54 353d
00000140: 198c 433b 7a6d 3f3e 43a5 c03d 351a 793c
00000150: 1f4c 08bd 01fb 6b3b cfac cfbc dc01 783d
00000160: 2df7 a13d 05e1 953d 5f48 a93d 6f19 603d
00000170: 67c0 323b 9c6d a0bd a74c 393d 6a9e 323d
00000180: 6096 eb3c dba0 be3d 3d5b 06be c5d9 1f3e
00000190: 8fac d83c ed8e a63d 4b36 e93d 04cc 5fbd
000001a0: 5b57 01be ff3b 2f3d ddf7 c43d 6967 d5bd
000001b0: 8591 80bd 6585 25be f67b 34be 1d16 613d
000001c0: 8c3b 1cbe 7f4e 37bd 263a a13d 9f81 8fbd
000001d0: 28fc 0cbe fc3e 84bd d9e0 d1bd 5a6c cd3d
000001e0: 4261 c7bd 9fc9 a9bd d61b 3c3e 4005 ec3d
000001f0: e02a 07be 6e26 043e 2a87 043e ded4 2a3e
00000200: 40fb b33d cae7 103e 5b8e e33d 8d1c 31be
00000210: e304 373e 24a4 b0bd bf3d f13d 5924 e8bd
00000220: d60c 083e c446 a1bd d1b1 4a3d b3b9 51be
00000230: 9c6e db3c 0115 a93c 6302 243e 22e6 3abd
00000240: 5f3f f23d e58c 2e3e 59d5 3fbe 6ee8 56bd
00000250: 5c0c 21be 0d6c d9bd 984c d83c 6009 05be
00000260: ab7a e03d ca69 2a3e 3ba0 b0bd 9dac 873d
00000270: 2b81 a0bc abda 0b3e 8edf 5b3c 6fea 08be
00000280: 358f 03be 6207 3a3d c412 11bc 3b68 dcbc
00000290: 148a 23be e3fb 173e dc9f 26be 84fc 2a3d
000002a0: ae5c 58bd d6f5 393e 88cf 2fbe c2c0 2fbd
000002b0: 6dd8 14be e05a 09bd 5f7d 48be 2f20 90bd
000002c0: f24b ae3c 85cb 83bd 6503 053e c52e 103e
000002d0: 09ad 6f3d 3bae 1d3c 4aa5 34be a42c 79bd
000002e0: 9209 0fbd 08de 073e 8c24 9fbd 2a90 d5bd
000002f0: e653 003e 59ca fdbb 71d7 e03d e085 5bbc
00000300: 12e8 293d d585 3e3e f58e 20be 5c07 34be
00000310: fe54 053e a51a eebd 04f5 fbbd 1f7c 2ebe
00000320: fa0b 273e 4a8c b1bd 987a 223e 194f e9bd
00000330: 4d49 1c3e 752e ddbd 1491 8e3c fcc4 0fbe
00000340: 9062 b6bd 9e61 84bc 8fc3 483e d6e8 6e3d
00000350: a9ec 4b3e b749 ed3d 1065 2ebe b3a5 5abd
00000360: 6754 403e c4ff a7bd 115e dc3d 59a0 283e
00000370: 3fde ac3d bef4 14bc 9426 3ebe 5080 753d
00000380: a6fc 2b3e a3bb 4d3e 6bcc ae3d 1dfc bcbd
00000390: 1d70 cdbd 6403 313e 1c42 d8bc 6b15 dabd
000003a0: f0f4 05bc 4934 c43d de94 dbbd 2521 0a3d
000003b0: ced1 243e 105d b53c ad38 983c 4033 913d
000003c0: 354a 10be a0cd 8bbd c076 903d d451 7abd
000003d0: bf06 fbbd cc89 c6bd 3eb8 0dbe d5c2 383e
000003e0: ccee 22be df02 f03d df8e 82bd 118d 073e
000003f0: 58e2 e93d 1c88 e43d 7bb3 803c 4dc4 a6bd
-0.13492368 -0.11835177 0.1239792 0.020197643 0.12567085 0.16016458 -0.007867169 -0.18209177
0.15612376 -0.15021105 -0.026774017 -0.05921576 -0.09150772 -0.17408279 0.019385895 -0.026500892
0.15054058 -0.059292562 -0.088682294 0.012020753 0.12631316 0.13719949 -0.026327848 0.16387402
0.14796764 -0.057562567 0.049253494 -0.092278495 -0.14319594 -0.13643041 0.027026916 -0.13452442
0.048453264 0.077974506 0.10733826 0.030041024 0.062252063 -0.10040744 0.17222196 0.1548146
-0.021681797 -0.11886932 0.07228183 0.16131337 -0.15703207 0.13966356 0.13231187 -0.14896868
0.13392967 -0.035663605 -0.08876269 0.031948984 0.157089 -0.072866485 0.047933783 -0.1188903
0.0328821 -0.03810564 -0.12814991 0.111933425 0.0033395952 0.17308307 0.04676087 0.0930562
0.15417343 -0.019403541 -0.040826723 -0.049720846 -0.15206897 -0.11272857 0.18283312 0.10537168
0.047257375 -0.052903473 0.14914486 -0.06844601 0.061231688 -0.123298354 -0.07972759 0.044269845
0.0029838143 0.18694106 0.09406521 0.015204002 -0.03327572 0.0036007764 -0.025350956 0.06054865
0.07908473 0.0731831 0.08265757 0.054711755 0.0027275325 -0.07833406 0.045239117 0.043608107
0.028758228 0.093080245 -0.13120742 0.15610416 0.02644947 0.0813273 0.11387309 -0.054637924
-0.1263098 0.042781826 0.09617589 -0.104201145 -0.06277756 -0.16164167 -0.17625412 0.05495273
-0.1525709 -0.044752594 0.07872419 -0.07007145 -0.13768065 -0.06457326 -0.102479644 0.10030432
-0.09735347 -0.08290409 0.18369994 0.11524439 -0.1319995 0.12905285 0.12942186 0.16682765
0.087881565 0.1415092 0.111111365 -0.17296048 0.17872958 -0.08625057 0.11779355 -0.11335058
0.13286147 -0.078748256 0.049485985 -0.20480995 0.026786141 0.020639898 0.16016535 -0.045629628
0.11828493 0.17045934 -0.1873373 -0.052467756 -0.15727371 -0.10616312 0.02640371 -0.12991858
0.10960897 0.16641918 -0.086243115 0.0662472 -0.019592842 0.13657634 0.013419999 -0.1337068
-0.12847598 0.045417197 -0.008854572 -0.02690517 -0.15970641 0.14842181 -0.16271919 0.041744724
-0.05282276 0.18160185 -0.1716901 -0.042908438 -0.14535685 -0.03353393 -0.19579075 -0.070373885
0.021276448 -0.06435303 0.12989576 0.14080341 0.05851463 0.009624059 -0.17641178 -0.06083359
-0.034921236 0.13268292 -0.07770643 -0.10427888 0.12532005 -0.007745069 0.10978592 -0.0133986175
0.041481085 0.1860574 -0.15679534 -0.17580932 0.13020703 -0.11626176 -0.123025924 -0.17039536
0.16313162 -0.08669336 0.15867078 -0.1139204 0.15262337 -0.107998766 0.017403163 -0.14039987
-0.08905518 -0.016159829 0.1960585 0.05832752 0.19914497 0.115863256 -0.1703074 -0.05338068
0.18782197 -0.0820308 0.10760129 0.16467418 0.084408276 -0.009091554 -0.18569404 0.05993682
0.16795596 0.20091109 0.085350834 -0.09227774 -0.100311495 0.1728645 -0.02639871 -0.106486164
-0.008176073 0.09580285 -0.107217535 0.033723015 0.16095659 0.022139102 0.018581713 0.07089853
-0.14090808 -0.06826329 0.070539 -0.061113194 -0.12257146 -0.096942514 -0.13839814 0.18043073
-0.15911406 0.117192976 -0.06374907 0.13237406 0.11420125 0.11158773 0.015710583 -0.0814291

model.transformer.encoder.layers.0.linear1.bias f4 [128]
00000000: b98f b03d 4c71 853d 1fe9 693d e696 16be
00000010: 6cae 7d3d d7d6 36bd ca31 053e 1df0 b93d
00000020: d12a e53d 764a 89bd 39b7 56bd 98f2 263d
00000030: 1891 183e 3e0d 853d 34fe 8e3d 63ec c43d
00000040: 3340 313e 0d43 c5bd 65be 73bd e9ff e6bd
00000050: 2095 cbbb 0c40 f83d 2af1 863c cfec fabc
00000060: f11a 2d3e 3c89 ca3c 4601 2c3e f0e5 3abd
00000070: ae4b 193d 49bb 97bd 4269 abbd 4c69 b0bd
00000080: a2c6 0f3e 6155 853d da8e d2bb 0723 923d
00000090: c07b 0abd cf30 d4bd 05f2 d5bd d56a 063e
000000a0: 4aad 7abd f711 cb3d 3926 353d 8f9f 02be
000000b0: 6b0c 4a3d df8f bfbd 4d77 d4bb a6de 2dbe
000000c0: 80c3 243e 563c 0ebd 97a0 7e3c f08b a0bb
000000d0: ef81 9e3d 7609 f43d 6cf5 2c3e a700 11be
000000e0: 1346 19be 4b5e fdbc ad8a 9cbd 7e85 24be
000000f0: 522d 093c 721d 7abd 62e3 1d3d 5e64 0dbd
00000100: 8f4e ae3d c6d3 b7bd 97bf d4bc 3a8f 6abd
00000110: 9cad 16bd 15b9 003e ada4 03be c019 d7bd
00000120: 6d48 f8bd 3578 c8bc b771 c13d df9b 723d
00000130: a98c 313e d8e1 4abd 90d8 253d 25b3 d4bd
00000140: 6a3b 35be ee19 a43d a8c5 f8bd 452e 23be
00000150: ac6c 8fbd 7b7e 22ba febd 1ebe 54e6 f9bc
00000160: 63cf a53d 859b 873d 88df 0bbe 1b9e 133e
00000170: e6e3 0f3e 79bb 18bd f194 66bd 1be4 f4bd
00000180: 3cf6 193e 34ae fc3c 1842 3a3c 8f94 9a3d
00000190: cd38 bf3d f715 1a3e 05e3 243e 6bf5 d53d
000001a0: 8282 1abe 6d55 78bc 536a 17bc dd21 9d3d
000001b0: 729d 053e 1469 0a3e 502b 923d 06fd 2e3c
000001c0: cb38 573d f775 26bd 495f ef3d a3d1 60bd
000001d0: 136d 043e d8d7 7e3d a28a c5bd 9c42 25be
000001e0: 36e6 f5bd a41c e5bc d791 aabc ea6d b23d
000001f0: 3623 d43d 16e0 70bd 41b1 c1bb 4bf1 25be
0.08621163 0.0651575 0.057107087 -0.14706 0.06193392 -0.04463848 0.13007274 0.09079001
0.11189807 -0.067036554 -0.05242083 0.0407587 0.14899099 0.06496666 0.06982079 0.096154
0.17309646 -0.096319295 -0.059507746 -0.1127928 -0.0062128454 0.12121591 0.016472418 -0.030630497
0.16904809 0.024723642 0.16797361 -0.04562944 0.03742569 -0.07408769 -0.08369686 -0.08613834
0.14040616 0.06510425 -0.0064257206 0.07135587 -0.033809423 -0.10360872 -0.10446552 0.1312669
-0.061200418 0.09915536 0.044225905 -0.1275618 0.04932825 -0.09353613 -0.0064839483 -0.16979465
0.16090202 -0.03472551 0.015541217 -0.0048994943 0.077396266 0.11915867 0.16890496 -0.14160405
-0.14968137 -0.030928751 -0.07643638 -0.16066548 0.008372622 -0.061063237 0.038546927 -0.034519546
0.085110776 -0.089759395 -0.025970263 -0.057265498 -0.03678666 0.12570603 -0.12855788 -0.10502958
-0.12123189 -0.024471382 0.094455175 0.05923068 0.17338814 -0.049531788 0.040489733 -0.103857316
-0.17698446 0.08012758 -0.12147075 -0.15935619 -0.070031494 -0.00061986566 -0.15502164 -0.030505337
0.080961965 0.0662146 -0.13659489 0.14415781 0.1405178 -0.037288163 -0.056294385 -0.1195757
0.15035337 0.030844785 0.011368297 0.075478666 0.09337006 0.15047441 0.16102226 0.104472004
-0.15088847 -0.015157086 -0.009241658 0.076724745 0.13048342 0.13516647 0.071371675 0.010680443
0.052544396 -0.040639844 0.11688096 -0.054887425 0.12932234 0.062217563 -0.09645583 -0.1613869
-0.120068 -0.027967758 -0.020821495 0.08712371 0.103582785 -0.058807455 -0.005911023 -0.16205327

model.transformer.encoder.layers.0.linear2.weight f4 [32, 128]
00000000: 7bac 91bd 1160 353e ceaf 27be 1987 04bb
00000010: 9019 2abe 1e51 a1bd d211 9fbc 45bf 3dbe
00000020: 9177 cbbb e5b0 c53a d89c 823d 2b54 83bd
00000030: 2f41 38bd 90f2 173e 5284 a73d a9ef 8b3d
00000040: 4b32 c5bd cfa2 5a3d a0e1 4c3e c53a db3d
00000050: 61ac ab3d d2e4 e7bd 472c 303e 67e5 67bd
00000060: 84f4 b7bd 0b52 f4bd 2f88 17be 6e85 2a3e
00000070: 6367 ba3d 64dc 1cbe 00f4 3bbe a57b 22be
00000080: 6afe 0b3e 974d ae3d 4432 00be c327 2d3e
00000090: 7bda 033e 6979 a2bd 7916 2e3d 8ee2 953d
000000a0: 89b9 373d 7e6d 86bd 6f97 673d e460 29be
000000b0: 943a 3dbe 7835 45be eb9c 8cbd 667d 2fbe
000000c0: 0470 133c f705 0bbe 189d eebd 8cec d93d
000000d0: e3dc fa3d 6859 82bc 98f5 213e 1160 75bc
000000e0: 634d 0f3e 71f8 25bb bebc 293d ef32 3c3d
000000f0: 5bb6 26be 44f8 0a3e 2de9 483d c0b9 333c
00000100: dc3d 1d3d 715b b83c 2316 1cbe cd6c 113e
00000110: 9d4d a23d c5b1 2c3d 5d9e d03d 4d10 0cbd
00000120: d1fb 283e 098a 20be 27d3 8d3d 16d5 393e
00000130: 84a9 be3d cc17 efbd 423f f7bd 462a 873d
00000140: ab78 273e 13d7 cd3c f7dd 3cbe a328 30bb
00000150: b48e 4a3d 6e75 ea3d 0ff8 f03d a34e 193e
00000160: e95d 77bd 3291 f03d 7732 483e 674d 00be
00000170: 0f4d 403d b151 d9bc f4bc ff3d 0481 183e
00000180: 2011 18be 5300 20be a57a 033e f6d7 1a3e
00000190: 98d0 8ebd 977e 073e 55db 9fbd 749d 423e
000001a0: c199 133e ae86 a43d 9c86 4dbd d14b d93c
000001b0: 8f01 373c f12e b1bc af2c 28be ce7d 0bbe
000001c0: 1615 57bd e54f 2cbc 650d 3b3d c0aa d7bd
000001d0: 42e6 8e3c 8f70 1fbd edfd 06be 555b 393e
000001e0: 51be eabd 4054 2cbe 0a21 f53d 9c8f 243e
000001f0: f782 c9bc dd97 6d3c 26e2 91bd a683 26bc
00000200: cce5 b2bd af6c 8dbd f6fd e33d 81dd 42bd
00000210: 54e0 2b3d 4c29 0cbe 7380 0dbd e947 ef3d
00000220: 9210 bf3d 5ffb d6bd d0ac 0f3c feda e83d
00000230: 78ae 423e 5a31 803d 9322 d03c 066d e0bd
00000240: 5c6c e83d 725d cabd 7eb1 c53d f54b 44be
00000250: e920 fc3d b2f9 f5bd d842 8b3d 3ab7 17be
00000260: 9891 283e 6946 4bbd ab9c c8bd f827 1cbe
00000270: c967 9b3c 910d 18be 4905 923d d7e0 e63c
00000280: 7d0a d5bd c62b 413e d0ee bfbd 8d11 86bd
00000290: 5993 51bd a0a8 8a3b 1ca6 013e 739d 233d
000002a0: 69fa 983d d69e d43b d614 f93d 9427 023e
000002b0: 4702 91bd baa9 183e a78f edbc bf2e 2fbe
000002c0: 7874 3bbc d0a3 1dbe 9dae 193e b5b3 32be
000002d0: 07f3 943d a2ed 1c3e 1252 08be 8184 153d
000002e0: 6611 0c3e 26a3 3d3e bbec b3bd cb78 143e
000002f0: 9cc7 7f3d 3af8 35be 36c0 153e 0e7c e93d
00000300: 1eb3 023e 358b d2bd 3f02 a63d 1225 773d
00000310: b930 143e d69b e4bd 2c26 27be 84e8 d6bd
00000320: 0115 efbd c87b 6e3c 0ae2 ddbb ef2c f83c
00000330: 8e27 053e 7dec dfbc 7fda 403d 9138 41be
00000340: 00f7 39be f4d0 243e 5afe 8b3d f014 453e
00000350: c073 2ebd ee4c d73d e240 4a3e 1320 e03d
00000360: ecce dcbd 3124 df3d 2c65 5dbd 5cbb ef3d
00000370: ae86 8e3d e324 363e 1c8f 303e 1f35 12be
00000380: ab28 0cbe 13d7 233e 1efa f2bc 2575 56bd
00000390: a067 60bd 8c71 32bb c0e5 173e eec1 cabd
000003a0: 3707 c83d bb88 a13d e201 523d 5a32 27bd
000003b0: 7257 3b3c 76e6 97bd fb36 393e 5af8 05be
000003c0: 9959 ddbd 2dd9 22be f079 2dbe 2419 39bc
000003d0: d781 4b3e 41c9 37bd 427c 2b3e 1af0 cd3d
000003e0: a13c babd 41fc 66ba 7003 f73b 3695 b33d
000003f0: 805a ab3d aed9 2fbd bc72 febd d4f3 193d
-0.07112976 0.17712428 -0.16375658 -0.0020222126 -0.16611314 -0.078768 -0.019417677 -0.18529995
-0.006209322 0.0015082626 0.06377572 -0.06412538 -0.04498404 0.14838624 0.08179535 0.06832821
-0.09628733 0.053377923 0.20007944 0.10704569 0.08382488 -0.11322941 0.1720439 -0.05661526
-0.089821845 -0.11929711 -0.14798044 0.16652462 0.09101751 -0.15318447 -0.18354797 -0.15867479
0.1367127 0.08510893 -0.12519175 0.16909699 0.12876312 -0.079333134 0.0425019 0.073186025
0.044854674 -0.06563853 0.056540903 -0.16540867 -0.18479377 -0.19258678 -0.06865867 -0.1713768
0.008998875 -0.13576494 -0.11651057 0.10640821 0.12249162 -0.015911773 0.15816343 -0.014976517
0.13994364 -0.0025325085 0.041439764 0.04594701 -0.162805 0.13571268 0.0490505 0.010969579
0.03838907 0.02250454 -0.1524282 0.1420166 0.0792496 0.04216172 0.101864554 -0.034195233
0.1650231 -0.15677656 0.0692504 0.18147692 0.09309676 -0.11674461 -0.12072612 0.0659986
0.16354625 0.02512697 -0.18444048 -0.002687969 0.0494525 0.11448179 0.117660634 0.14971404
-0.060392294 0.11746444 0.19550501 -0.12529527 0.04694849 -0.026528211 0.12487212 0.14892966
-0.14850283 -0.15625124 0.12839754 0.15121445 -0.0697338 0.13231884 -0.07805506 0.19005376
0.14414121 0.080335006 -0.0501772 0.02652541 0.011169805 -0.021628829 -0.16423295 -0.1362221
-0.052510343 -0.010517095 0.04566707 -0.10530615 0.01744378 -0.038925704 -0.13182802 0.18101247
-0.11462081 -0.16829014 0.11969192 0.16070408 -0.024598582 0.014501539 -0.071232125 -0.010163223
-0.087352365 -0.069054954 0.111324236 -0.047574524 0.041961983 -0.13687629 -0.034546327 0.11683638
0.093293324 -0.10497164 0.008769229 0.113698944 0.19011867 0.06259413 0.025407111 -0.109582946
0.11348793 -0.098811045 0.096529946 -0.191696 0.123109646 -0.12010516 0.06799859 -0.14815989
0.1646179 -0.049627695 -0.09795507 -0.15249622 0.018970387 -0.14848925 0.07129914 0.028183384
-0.10402391 0.18864354 -0.09371722 -0.06546316 -0.051165912 0.0042315274 0.12661022 0.039945077
0.07469637 0.0064886613 0.12162177 0.1271041 -0.070805125 0.14908496 -0.028999163 -0.17107676
-0.0114413425 -0.15394521 0.15008016 -0.17451365 0.07272916 0.15325025 -0.13312557 0.03650332
0.13678512 0.18519267 -0.08785387 0.14499204 0.06244622 -0.17770472 0.14624104 0.11400615
0.1276364 -0.10280458 0.08105897 0.060338087 0.14471711 -0.11162536 -0.16323155 -0.104935676
-0.11673928 0.014555879 -0.0067713307 0.030294864 0.1300337 -0.027334446 0.047083374 -0.18869235
-0.1816063 0.16095334 0.06835623 0.19246268 -0.042590857 0.1051272 0.19751313 0.10943618
-0.10781655 0.10895575 -0.054051563 0.11705658 0.06959282 0.17787509 0.17242092 -0.14278077
-0.13687389 0.16000013 -0.02966028 -0.05235781 -0.054786325 -0.0027228324 0.14833736 -0.099002704
0.09767001 0.078874074 0.051271327 -0.040819503 0.011434423 -0.07417004 0.1808738 -0.1308302
-0.10808105 -0.15903158 -0.16941047 -0.011297498 0.19873749 -0.044869665 0.1674662 0.10055561
-0.09093595 -0.00088113925 0.0075382516 0.08768694 0.08366871 -0.042932205 -0.124242276 0.03758605

model.transformer.encoder.layers.0.linear2.bias f4 [32]
00000000: f0d5 9abd b22d 4dbc 1d21 88bd ec5b a5bd
00000010: 4311 bfbc 35cd b4bd 7ba0 d1bc 56e7 893d
00000020: 5511 31bd c12a 193c 62e3 70bc 2481 febc
00000030: e9da 3b3d b699 193d ad5d d33c 8cef 98bd
00000040: f3f2 4abc aa76 02bc 0e1a 61bd 260f 9fbd
00000050: f836 fbbc 6a2d b3bd 3002 a83c 0581 213d
00000060: a814 313d 0591 8e3b b125 db3c 1f1b 4bbd
00000070: e3b9 bebd 2610 013c 75b6 ddbb de27 353d
-0.075603366 -0.012523102 -0.06646941 -0.08074173 -0.02332366 -0.08828203 -0.025589218 0.06733577
-0.04322942 0.009348572 -0.01470265 -0.031067438 0.045863066 0.037500106 0.025801504 -0.07467565
-0.012387025 -0.007962862 -0.05495649 -0.07766561 -0.03066586 -0.087488964 0.020508856 0.039429683
0.04323259 0.004350784 0.026751371 -0.04958641 -0.09312799 0.007877385 -0.0067661353 0.044227473

model.transformer.encoder.layers.0.norm1.weight f4 [32]
00000000: f04c 803f 5f36 803f fd0c 7e3f 51b0 7f3f
00000010: cede 813f 14b9 813f 9489 7d3f 8a20 7f3f
00000020: e495 803f 39a2 813f 1f82 7d3f 15ac 813f
00000030: 6c0b 7f3f 8dad 813f 3156 803f eb28 7e3f
00000040: 921a 7f3f 0136 803f 3b00 813f 2d10 813f
00000050: a928 7e3f a871 7f3f 6d43 813f ae0c 7e3f
00000060: 961d 803f 156f 7c3f a916 7e3f 87e9 803f
00000070: 9703 7e3f 46bb 803f bdfe 803f d732 7e3f
1.002348 1.0016593 0.9923857 0.9987841 1.014612 1.0134606 0.9903805 0.99659026
1.0045743 1.0127631 0.99026674 1.013064 0.99626803 1.0131088 1.0026304 0.99281186
0.9964992 1.0016481 1.0078195 1.0083061 0.9928079 0.997828 1.0098702 0.992381
1.0009029 0.98607 0.99253327 1.0071267 0.9922423 1.0057151 1.007774 0.99296325

model.transformer.encoder.layers.0.norm1.bias f4 [32]
00000000: 8dba e23b dc25 8b3c d919 3fbc 4607 673b
00000010: c56b 83bc e442 a63b 42a5 113c 96e9 b6bb
00000020: a01d 07bb e5ac 43bc fb25 023c 0f59 7ebc
00000030: 23b9 ad3b b06a 683b 0bf9 303b 266c c33b
00000040: 1951 3a3b a3eb 29ba bbe7 f53b fb01 103c
00000050: c1f8 e7bb 1f92 9eba d7c0 213c e384 20bb
00000060: 2161 fcb9 4375 57bc bf63 f2ba 177f ebbb
00000070: a2a9 e3bb ae84 e6bb 4259 0bbc 1da6 d1bb
0.0069192112 0.016985826 -0.011663877 0.0035252138 -0.0160426 0.005073892 0.008889498 -0.005582045
-0.0020617023 -0.011943077 0.007943626 -0.015524163 0.005301611 0.0035463981 0.002700391 0.00596382
0.0028429686 -0.0006481951 0.007504431 0.008789535 -0.0070792143 -0.0012097991 0.009872637 -0.002449327
-0.00048137552 -0.013150516 -0.0018492861 -0.007186781 -0.006947712 -0.0070348596 -0.008505167 -0.006397976

model.transformer.encoder.layers.0.norm2.weight f4 [32]
00000000: a8c3 7f3f ab3d 813f 1db5 7c3f db65 7e3f
00000010: 7d76 813f 7494 803f 8db1 7d3f 0c99 7f3f
00000020: ed93 803f ecbb 803f c724 793f e943 823f
00000030: 1ac7 7f3f 083e 803f 7e15 803f 0c12 7e3f
00000040: 5720 7e3f e2aa 7e3f 0d1b 813f add0 803f
00000050: 957c 7e3f 7848 803f b894 813f 9e8a 7c3f
00000060: 0360 803f fb06 7c3f 24a4 7f3f 51ca 7f3f
00000070: 4b5c 7e3f 3343 803f e4e1 803f 5526 7e3f
0.9990792 1.0096945 0.98713857 0.9937417 1.0114285 1.0045304 0.99099046 0.99842906
1.0045143 1.0057349 0.9732174 1.0176975 0.9991318 1.001893 1.0006559 0.9924629
0.99268097 0.99479496 1.008638 1.0063683 0.9940885 1.0022116 1.012351 0.98649013
1.00293 0.9844815 0.99859834 0.99918085 0.9935958 1.0020508 1.0068936 0.9927724

model.transformer.encoder.layers.0.norm2.bias f4 [32]
00000000: 7008 e03b 6502 103c 2775 5bbc 7191 ac3a
00000010: ec65 3bbc 5257 7cbb aecf f93b 2192 d3ba
00000020: 803e 0d3c ea4b 5dbc 77e4 063c 2883 56bc
00000030: 00ee 0a3b 389b cb39 53af 3abc 9465 b23b
00000040: 201a 1c3b a5a6 973b 9a4a 0b3c ad9e 32bb
00000050: 2e96 b1bb a83a 70bb 4fdb 3c3c 026d 1ebc
00000060: fe0e e53a 12ee 8c3b ad35 50bb f51e 7fbb
00000070: dbdc a8bb 3e47 efbb 9839 fcbb dace cfbb
0.0068369433 0.008789633 -0.0133946305 0.0013165904 -0.011437874 -0.0038504195 0.0076236343 -0.0016141572
0.008620858 -0.013506869 0.008233181 -0.0130927935 0.0021198988 0.00038834824 -0.01139434 0.005444238
0.0023819283 0.00462802 0.008501673 -0.0027255223 -0.005419514 -0.0036656056 0.011526897 -0.009669544
0.0017475781 0.004300841 -0.0031770275 -0.0038928364 -0.005153281 -0.007302194 -0.0076972954 -0.0063417973
