models/dgsr_pre_train/6_covar_koza/controller.pt (torch, 857869 bytes, 196 tensors)

state_manager.parent_embeddings.weight f4 [9, 16]
0.72916776 -0.6966681 0.3573646 0.42773062 -1.7458009 0.77043533 -1.3147559 -0.84706044
1.3324329 -0.5450761 0.0037331611 1.106118 -1.3621973 -0.6602124 0.9466277 0.834961
0.095299095 0.1035875 -0.9759293 -0.1788297 -2.0201905 0.10891482 -0.79229265 -0.8137419
0.84015137 -0.88601154 0.2693464 -0.27296454 0.62811846 0.3278679 -0.5065411 0.086022854
0.51869375 0.2686981 -0.026134752 -0.7401346 -1.325976 -1.2259885 0.45366526 0.1444175
2.0520399 0.36323193 -0.7303878 0.75478756 0.779223 -0.38416216 0.7521271 -0.97065336
1.1964076 -1.1262879 0.58697116 -0.68006784 0.029492883 -0.0044367444 0.6339581 0.061222695
-1.9291959 0.2614906 0.45456046 0.3372316 -0.3901248 -0.6282332 0.016045207 0.67326057
-0.7794434 0.34713194 -0.22376831 -3.250266 -0.7395021 0.6185749 -0.065537974 0.43747416
0.85112906 0.05947946 0.63311917 -0.69432485 0.5640214 2.1381452 0.30486545 1.6511542
-0.5280866 -0.14041229 0.48454118 -0.2867092 1.1173912 0.83839166 1.572986 -0.5437249
0.6153587 0.23494951 0.05803599 0.27954817 1.6225102 0.39249435 0.41286382 -0.54227567
0.68765795 0.35591727 0.9359232 -0.6579276 -0.48995036 0.46697456 -2.4271522 -2.6304297
1.5158764 -1.9608994 0.027422516 1.4313486 -0.02415777 0.39977857 0.6671217 -0.55791646
0.2788251 -0.03368919 -0.1844224 -1.7111151 0.03580757 -0.10983736 1.828673 -0.62895006
-1.6306494 -0.8448962 -1.0924649 0.18409526 1.0286964 0.29454902 -0.56885964 0.38453418
-0.6585123 0.07820046 -0.6749424 1.2465895 0.18748729 -0.25144303 0.55242616 -1.4841349
0.6204037 0.9938583 -0.5212055 1.2437576 0.98474926 1.519282 -0.16541933 -1.1908262
00000000: bdaa 3a3f d758 32bf 7ef8 b63e 82ff da3e
00000010: 6776 dfbf 403b 453f ec49 a8bf f4d8 58bf
00000020: 298d aa3f 1b8a 0bbf 0da8 743b 4695 8d3f
00000030: 7b5c aebf ae03 29bf 3156 723f 01c0 553f
00000040: 2c2c c33d af25 d43d 81d6 79bf 221f 37be
00000050: cd4a 01c0 bc0e df3d b1d3 4abf 6451 50bf
00000060: 2914 573f a7d1 62bf c5e7 893e 02c2 8bbe
00000070: 5fcc 203f 4dde a73e adac 01bf c02c b03d
00000080: 1dc9 043f cc92 893e 8c18 d6bc 7679 3dbf
00000090: 95b9 a9bf 31ed 9cbf d046 e83e 2ee2 133e
000000a0: 9f54 0340 89f9 b93e b2fa 3abf c239 413f
000000b0: 297b 473f e7b0 c4be 678b 403f bd7c 78bf
000000c0: e223 993f 342a 90bf be43 163f ed18 2ebf
000000d0: 0f9b f13c 1c62 91bb 144b 223f a6c4 7a3d
000000e0: e4ef f6bf 19e2 853e 26bc e83e 9fa9 ac3e
000000f0: 70be c7be e4d3 20bf 3d71 833c ce5a 2c3f
00000100: 9a89 47bf 47bb b13e 8523 65be 5c04 50c0
00000110: 0250 3dbf ed5a 1e3f c638 86bd 9dfc df3e
00000120: 98e3 593f bca0 733d 1914 223f 46bf 31bf
00000130: b563 103f 5fd7 0840 5317 9c3e 0559 d33f
00000140: af30 07bf 3dc8 0fbe c815 f83e 8ccb 92be
00000150: ad06 8f3f d6a0 563f 9b57 c93f 8e31 0bbf
00000160: 2688 1d3f 9b96 703e 25b7 6d3d f020 8f3e
00000170: 6aae cf3f 05f5 c83e e362 d33e 94d2 0abf
00000180: 5a0a 303f ca3a b63e aa98 6f3f f16d 28bf
00000190: c6da fabe 4a17 ef3e 7656 1bc0 f658 28c0
000001a0: 3d08 c23f c0fe fabf 2fa5 e03c 6e36 b73f
000001b0: 84e6 c5bc c7af cc3e 7dc8 2a3f 9dd3 0ebf
000001c0: 2ac2 8e3e adfd 09bd 3ad9 3cbe d205 dbbf
000001d0: f5aa 123d 69f2 e0bd f511 ea3f df02 21bf
000001e0: 1fb9 d0bf 1e4b 58bf e4d5 8bbf 7883 3c3e
000001f0: 53ac 833f 21cf 963e c9a0 11bf aae1 c43e
00000200: 4394 28bf 9027 a03d 06c9 2cbf 3f90 9f3f
00000210: abfc 3f3e 24bd 80be cd6b 0d3f 22f8 bdbf
00000220: c7d2 1e3f 7f6d 7e3f b96d 05bf 7333 9f3f
00000230: 8718 7c3f d577 c23f af63 29be fe6c 98bf

state_manager.sibling_embeddings.weight f4 [15, 16]
0.4912769 1.3374898 1.7857941 1.0971808 -0.30028212 0.7642808 0.16472563 0.73071456
0.39000604 -1.7699915 -1.6980468 0.7214576 2.1847603 -0.7912874 0.66672945 -1.2166257
-0.064892195 -1.9745141 0.07572072 -1.1359915 1.7702553 0.49886423 0.6709761 -1.4462012
0.28586918 -1.2694217 0.8425067 1.3073078 2.979822 -0.34207362 -2.009188 1.1327356
0.8813604 0.41268525 -0.84942853 0.5434568 -0.41626382 -1.0446818 0.4369614 -0.95481366
0.81725115 -0.7382554 0.8402557 -0.74297506 -0.474024 0.078913994 0.68878585 0.11184242
0.041609805 -0.81975305 -1.1233481 -0.23576087 1.2773697 -1.6797422 -0.257292 1.5381573
0.17043884 1.2316056 -0.20812143 -1.0877726 0.50812274 -0.52301115 0.011862079 -1.6825289
-0.27662274 -0.21990262 0.2370265 0.16957876 0.43631896 -0.47376826 0.87581706 -1.2639219
0.7876392 -1.7100568 -1.0760735 -0.0674115 -0.15262523 1.8101974 1.0764055 -0.15078013
-0.48515293 -0.19290276 -1.4322429 -0.20586033 0.58544 0.80534405 0.5322033 -1.1927404
0.25498912 -0.2908697 1.2544898 1.7387215 -0.9571589 2.9236794 -0.7801858 -0.5382653
1.2056341 0.8172807 -0.47997865 -1.0493784 -0.44844958 -0.41031164 -0.02880717 -0.83606267
-1.7494854 -0.0018337044 0.21354458 -0.1665522 1.1386195 -1.1782967 1.4506711 -0.8424874
0.7561359 -1.0438855 0.17581433 0.08456082 -2.3404953 -0.44418642 -1.7911823 1.1213367
1.4963751 -2.6908066 -0.17123371 -1.7315245 1.4779464 0.09588622 2.0205557 -1.3671771
1.312921 -0.20085236 -0.48731834 -1.0373869 0.92573285 -0.95601034 -0.47537193 -1.2017691
-0.1859947 0.90145606 0.80027056 -2.0106444 0.5669318 1.1613711 -0.118411705 1.5068322
-0.9777709 -0.90950316 0.2284622 -0.3992579 -0.8080393 -1.5789521 -0.5486631 -1.6114779
-0.009963225 1.2216583 -0.22220919 0.16995895 0.87001914 0.9635637 0.7120507 -0.9923276
-0.5586251 -0.85690904 -1.104578 0.8424453 -0.7600602 2.6178222 -0.5591378 1.6613386
-1.0579919 -0.467788 0.17148842 0.3637597 -0.7431798 0.9971526 1.1672499 -1.3392799
-0.8371863 1.1077882 -1.0189649 -0.5011674 -1.4296743 1.1895059 -0.5988671 0.70722157
-1.2668873 -0.569838 -0.4044141 -0.04112717 0.99667543 -1.4449285 0.17721273 1.0408391
1.1465389 -1.1949207 0.00020779618 -1.2111466 -1.7133702 -0.5779394 0.97394377 1.1190474
0.7034754 -0.6444295 0.7839279 1.8663371 0.43371361 -2.3171155 1.146475 1.9626392
1.1079588 0.021913206 -1.4976212 -1.3435106 1.1617216 -0.34324315 0.60926425 1.6773305
0.43340904 1.7147344 0.9651621 -0.6682453 -0.12895875 0.58534735 -1.3979564 0.7003834
0.060792703 1.0131305 -0.8451441 0.11380192 -1.1560767 0.039710812 0.21395198 -0.7520914
0.68111086 0.3195269 -1.1240089 0.76266295 -0.11755746 0.54968697 0.84778696 0.008587477
00000000: a588 fb3e de32 ab3f e794 e43f 6c70 8c3f
00000010: 94be 99be e8a7 433f d6ad 283e 1c10 3b3f
00000020: dfae c73e 158f e2bf 9959 d9bf 72b1 383f
00000030: 1dd3 0b40 d091 4abf c8ae 2a3f 64ba 9bbf
00000040: 33e6 84bd e1bc fcbf 7713 9b3d 2b68 91bf
00000050: ba97 e23f 226b ff3e 17c5 2b3f 1f1d b9bf
00000060: 725d 923e 697c a2bf 85ae 573f dd55 a73f
00000070: 67b5 3e40 4624 afbe 8996 00c0 7bfd 903f
00000080: d6a0 613f 7b4b d33e 2674 59bf fc1f 0b3f
00000090: 8820 d5be 22b8 85bf 68b9 df3e ab6e 74bf
000000a0: 5f37 513f 4efe 3cbf ff1a 573f 9d33 3ebf
000000b0: 46b3 f2be a99d a13d 4554 303f a40d e53d
000000c0: 0b6f 2a3d 56db 51bf dfc9 8fbf 4c6b 71be
000000d0: da80 a33f cb01 d7bf c7bb 83be 57e2 c43f
000000e0: 8587 2e3e 41a5 9d3f c91d 55be 223c 8bbf
000000f0: 5514 023f 0fe4 05bf 2a59 423c 1b5d d7bf
00000100: 7fa1 8dbe 272e 61be 13b7 723e 0ea6 2d3e
00000110: 3365 df3e c191 f2be 8c35 603f 31c8 a1bf
00000120: b9a2 493f 24e3 dabf c7bc 89bf 0a0f 8abd
00000130: ca49 1cbe 8cb4 e73f a8c7 893f 1b66 1abe
00000140: f765 f8be 4d88 45be bc53 b7bf 0dcd 52be
00000150: 65df 153f 072b 4e3f 7a3e 083f b8ab 98bf
00000160: ef8d 823e e0ec 94be 1f93 a03f 6d8e de3f
00000170: 5e08 75bf 901d 3b40 42ba 47bf c1cb 09bf
00000180: 3852 9a3f 4f39 513f c3bf f5be 0852 86bf
00000190: 2f9b e5be 5e14 d2be 04fd ebbc 3408 56bf
000001a0: 23ef dfbf e958 f0ba 6eab 5a3e a98c 2abe
000001b0: 49be 913f 6dd2 96bf 97af b93f 41ad 57bf
000001c0: 1f92 413f 0a9e 85bf ac08 343e 392e ad3d
000001d0: adca 15c0 676c e3be 7645 e5bf f687 8f3f
000001e0: 3889 bf3f 2d36 2cc0 e457 2fbe 98a2 ddbf
000001f0: 592d bd3f ff5f c43d c950 0140 a9ff aebf
00000200: cc0d a83f 3eac 4dbe ca81 f9be 18c9 84bf
00000210: d4fc 6c3f 18bd 74bf f363 f3be 92d3 99bf
00000220: 6575 3ebe d3c5 663f 88de 4c3f 66ae 00c0
00000230: 7122 113f cfa7 943f d681 f2bd e1df c03f
00000240: 324f 7abf 33d5 68bf fff1 693e 886b ccbe
00000250: aadb 4ebf 1a1b cabf 2f75 0cbf e844 cebf
00000260: cb3c 23bc 4d5f 9c3f ce8a 63be b809 2e3e
00000270: 93b9 5e3f 1cac 763f f448 363f 2e09 7ebf
00000280: 0e02 0fbf 645e 5bbf d062 8dbf 7faa 573f
00000290: 4e93 42bf 668a 2740 a823 0fbf bea6 d43f
000002a0: 476c 87bf e981 efbe a99a 2f3e b63e ba3e
000002b0: 0841 3ebf 6545 7f3f 7268 953f 866d abbf
000002c0: d751 56bf 01cc 8d3f 716d 82bf 824c 00bf
000002d0: 91ff b6bf bb41 983f 5b4f 19bf 790c 353f
000002e0: 5d29 a2bf e7e0 11bf 5d0f cfbe f774 28bd
000002f0: 1f26 7f3f 6bf3 b8bf 4177 353e 373a 853f
00000300: c9c1 923f 29f3 98bf dde3 5939 da06 9bbf
00000310: b74f dbbf d6f3 13bf 6154 793f f23c 8f3f
00000320: f716 343f 55f9 24bf 80af 483f 22e4 ee3f
00000330: b60f de3e 9f4b 14c0 b1bf 923f c337 fb3f
00000340: 98d1 8d3f 5383 b33c 0db2 bfbf 28f8 abbf
00000350: 4bb3 943f 91bd afbe bef8 1b3f c4b2 d63f
00000360: cae7 dd3e 6b7c db3f dd14 773f 2012 2bbf
00000370: c30d 04be 53d9 153f 3cf0 b2bf 544c 333f
00000380: c501 793d 43ae 813f 5d5b 58bf fb10 e93d
00000390: 52fa 93bf cea7 223d 3a16 5b3e 1089 40bf
000003a0: 485d 2e3f 0899 a33e 86df 8fbf e13d 433f
000003b0: f7c1 f0bd 49b8 0c3f 9108 593f 7db2 0c3c

model.decoder.weight f4 [16, 32]
1.3572104 1.0126957 1.4045537 0.87140304 0.9250058 -1.9402086 0.02356246 0.43722543
0.6483555 -0.19957466 0.012368937 -0.061154764 0.16191809 -0.90008265 -0.013610554 -0.1322654
0.4580248 -0.3204863 -1.0804744 0.546831 -1.6292055 0.18770093 -0.34498465 0.3334064
-1.504667 -1.1716212 0.93491477 -0.6997135 0.8959712 -1.2265419 0.28505778 -1.867864
0.7564928 -0.06526288 -0.3971243 -0.15626505 -0.26020432 0.74298364 0.017832575 0.54317296
-1.0910156 -0.8050899 0.36377883 0.3481509 -0.33614174 0.99554014 -1.2348206 0.809929
1.0899816 0.36545843 -0.18820605 -2.0673757 -1.7565613 -0.4503301 1.7871164 -1.4041713
0.08220372 0.511128 -0.98601264 -0.9386142 -0.1631792 1.5171794 0.4842621 1.6926597
-0.37049142 -1.7296447 0.077178076 0.40243068 -1.6134323 -1.0495969 -1.1398554 -0.0730091
1.295283 0.6580364 -0.57014066 0.115588784 -0.4666454 -1.0148904 -0.4151091 0.07913485
0.23063429 0.44982013 -0.2822221 1.0091212 0.039567962 0.47441864 -0.3664419 -0.7261229
-0.62455577 -0.24632613 -1.0780469 0.99844044 -1.1947619 0.9315956 -1.3032953 -0.35898158
1.4675777 -1.2608453 0.1326752 -0.05127627 -1.1265072 -0.15585352 -0.22827184 -1.9563148
0.5482424 -0.013967487 -0.17011298 1.1038262 -1.8008554 0.8368101 -0.25273374 1.2187557
-1.0534104 1.7460893 0.20926301 -1.0710484 -0.33195245 -0.5986089 -0.4333018 -0.5575057
0.05927543 -0.47100767 0.21007949 1.5788468 -0.10070768 -0.692986 -1.3555357 -1.2328311
1.3457962 1.8029163 -1.7949512 -0.1659879 -0.5882999 -1.7032338 -0.50868046 -0.2716976
0.55700266 -0.438651 -1.0309691 0.64351183 -0.5316234 -1.067136 0.4740137 -0.7058263
-0.17160238 0.36624843 0.06692795 -0.75917846 -1.7610464 0.40497828 0.060690466 -1.4521992
1.074337 -0.011708337 0.85150117 1.0353261 0.7091466 0.87441695 -1.3228523 -1.2268481
-0.98603195 0.34533978 -0.5323393 -0.048950296 -1.0767455 -1.4329535 1.5742754 1.1448978
1.2779567 -2.9069364 1.0150603 0.34048495 1.6126763 1.5558183 0.8601549 -0.69052476
-0.18111978 1.6988432 -0.33029422 0.2329755 -1.1512406 0.66839254 -1.2921877 0.54310405
1.3707567 -1.4780028 -2.9573417 1.8144944 1.7898788 0.9539961 0.19570732 -0.82258964
-1.272998 -1.6425695 -0.14552201 -1.282459 0.61914676 -0.26545048 0.18099412 -0.308213
-0.13678862 -0.47652504 -0.3091002 0.22243857 -0.8780659 1.8333055 -0.29056573 -1.6402322
-0.17902356 -1.7759585 -0.5141098 0.91327095 0.49594277 -2.1620407 -0.50723976 -0.8497616
1.747609 0.56445503 0.81808454 0.5030158 0.28124896 -0.59199303 0.040330183 -1.2005985
-1.0786949 2.3118577 0.043199666 -0.9219479 0.98193413 -0.049961664 -0.61634505 0.3561099
-0.5834774 -1.1052916 2.6846871 1.0449713 -0.35138774 0.4031993 -0.6270404 0.7494804
-1.0062068 -0.5224888 -1.4815303 0.39860055 0.45759058 -0.8855934 -1.6730729 -0.43569437
0.40796205 -0.24585946 1.1605567 -1.735802 -1.0386513 -0.19934331 0.07037143 0.56454134
00000000: 12b9 ad3f 03a0 813f 6ac8 b33f 4514 5f3f
00000010: 2ecd 6c3f c158 f8bf 0f06 c13c 03dc df3e
00000020: a0fa 253f 4d5d 4cbe 15a7 4a3c 6b7d 7abd
00000030: dbcd 253e d16b 66bf cdfe 5ebc 9570 07be
00000040: 3a82 ea3e c816 a4be fc4c 8abf 1efd 0b3f
00000050: ce89 d0bf ac34 403e d4a1 b0be 3eb4 aa3e
00000060: ee98 c0bf aff7 95bf 9356 6f3f 6d20 33bf
00000070: 5e5e 653f 53ff 9cbf 18f3 913e 2b16 efbf
00000080: 83a9 413f 8ba8 85bd e053 cbbe f203 20be
00000090: 8039 85be 2d34 3e3f 9f15 923c 620d 0b3f
000000a0: 66a6 8bbf 5f1a 4ebf 3841 ba3e d640 b23e
000000b0: c51a acbe b8db 7e3f 9a0e 9ebf 8257 4f3f
000000c0: 8484 8b3f 5e1d bb3e 16b9 40be e24f 04c0
000000d0: 00d7 e0bf ab91 e6be 3bc0 e43f e3bb b3bf
000000e0: 6d5a a83d 49d9 023f 536b 7cbf 0549 70bf
000000f0: 7318 27be ef32 c23f 34f1 f73e 13a9 d83f
00000100: 0db1 bdbe ff64 ddbf 8a0f 9e3d 650b ce3e
00000110: f384 cebf 3159 86bf c8e6 91bf cc85 95bd
00000120: d5cb a53f 1375 283f bdf4 11bf d0b9 ec3d
00000130: 25ec eebe eee7 81bf 2e89 d4be 7411 a23d
00000140: 652b 6c3e d34e e63e 6a7f 90be e22a 813f
00000150: 0412 223d 00e7 f23e 469e bbbe 31e3 39bf
00000160: e3e2 1fbf eb3c 7cbe 71fd 89bf cb99 7f3f
00000170: f5ed 98bf 0d7d 6e3f 61d2 a6bf 6fcc b7be
00000180: 96d9 bb3f 6163 a1bf 02dc 073e 1107 52bd
00000190: 6331 90bf 1198 1fbe 18c0 69be 8668 fabf
000001a0: 9d59 0c3f e3d7 64bc 1932 2ebe 2d4a 8d3f
000001b0: 6e82 e6bf 3039 563f 5166 81be 3000 9c3f
000001c0: 27d6 86bf db7f df3f 0b49 563e 1d18 89bf
000001d0: acf5 a9be 6f3e 19bf bcd9 ddbe b2b8 0ebf
000001e0: cbca 723d eb27 f1be 141f 573e a717 ca3f
000001f0: d43f cebd 8867 31bf 3282 adbf 69cd 9dbf
00000200: 0d43 ac3f f6c5 e63f f6c0 e5bf bbf8 29be
00000210: d29a 16bf 9103 dabf e238 02bf f31b 8bbe
00000220: ba97 0e3f dd96 e0be ccf6 83bf 31bd 243f
00000230: 7918 08bf ea97 88bf ecb1 f23e 08b1 34bf
00000240: 89b8 2fbe ea84 bb3e 8511 893d 8559 42bf
00000250: f869 e1bf 5059 cf3e 9196 783d aae1 b9bf
00000260: e083 893f 53d4 3fbc fbfb 593f 9185 843f
00000270: a28a 353f cad9 5f3f 3953 a9bf 5c09 9dbf
00000280: 976c 7cbf 60d0 b03e 6347 08bf 1b80 48bd
00000290: ccd2 89bf 056b b7bf db81 c93f 038c 923f
000002a0: 1694 a33f 3f0b 3ac0 7fed 813f 0b54 ae3e
000002b0: 2d6c ce3f 0e25 c73f 1d33 5c3f 3bc6 30bf
000002c0: 7777 39be b273 d93f 531c a9be 2191 6e3e
000002d0: da5b 93bf c61b 2b3f 6866 a5bf de08 0b3f
000002e0: f574 af3f 322f bdbf 1645 3dc0 5a41 e83f
000002f0: c01a e53f 1739 743f 8067 483e 3c95 52bf
00000300: 99f1 a2bf b83f d2bf b903 15be 9e27 a4bf
00000310: 6780 1e3f 20e9 87be 8656 393e 18ce 9dbe
00000320: 5112 0cbe 17fb f3be 6242 9ebe f0c6 633e
00000330: edc8 60bf c1a9 ea3f 08c5 94be 21f3 d1bf
00000340: f451 37be 9c52 e3bf b39c 03bf 20cc 693f
00000350: 36ec fd3e e05e 0ac0 77da 01bf fa89 59bf
00000360: a7b1 df3f 2080 103f fd6d 513f a5c5 003f
00000370: ddff 8f3e db8c 17bf 4331 253d 36ad 99bf
00000380: ad12 8abf 7af5 1340 22f2 303d c704 6cbf
00000390: 0960 7b3f 9aa4 4cbd cac8 1dbf 0954 b63e
000003a0: c65e 15bf 327a 8dbf ead1 2b40 9fc1 853f
000003b0: 18e9 b3be 2370 ce3e b885 20bf f3dd 3f3f
000003c0: 62cb 80bf d3c1 05bf c9a2 bdbf 5f15 cc3e
000003d0: 5049 ea3e 40b6 62bf 4127 d6bf 5513 dfbe
000003e0: 67e0 d03e 95c2 7bbe 1f8d 943f c32e debf
000003f0: 87f2 84bf a720 4cbe e51e 903d c885 103f

model.transformer.encoder.layers.0.self_attn.in_proj_weight f4 [96, 32]
-0.0070652976 0.11216255 0.12686189 -0.07160017 -0.13551511 -0.0025813736 0.23152466 -0.21512076
-0.09901771 0.16733412 -0.08320309 0.31957307 0.1889838 0.19991782 -0.048787296 -0.030661885
-0.014770063 0.1434178 -0.3252163 0.10702645 -0.033313755 0.29119024 0.09086199 0.23784839
-0.013060094 0.16428065 0.08024492 0.17545359 0.21542722 0.27366093 0.108948834 0.06660033
0.2661011 0.09183545 -0.00044241635 -0.030238068 0.18903056 0.1037223 0.03498832 -0.0029010149
0.045339175 -0.13156462 0.024342554 0.020794395 -0.26017356 -0.23907086 -0.27649802 -0.22186579
-0.0069096535 -0.2701858 0.051869456 -0.01144072 0.17498367 -0.18218799 -0.21581882 -0.2255035
-0.14994203 0.053488012 0.006210995 -0.15326884 -0.058479246 -0.050732736 0.1142272 0.12293303
0.1401957 0.17369165 0.008222175 -0.19678399 -0.15227403 0.078291096 0.18365616 0.046898503
0.12073151 0.102380164 -0.04109272 -0.024976296 -0.1878894 -0.23408535 -0.105334684 -0.0046456098
-0.0038691186 -0.20821348 0.1543655 0.10617737 -0.025591055 -0.04638873 0.02399971 -0.11317733
-0.104548186 -0.13764897 0.003403665 -0.15178116 -0.27138644 -0.16408768 0.13864006 -0.15484098
-0.02959527 0.11561838 -0.25429302 -0.13637957 -0.014086586 0.21758841 0.056601845 -0.063886344
-0.10934312 -0.033942927 0.04999612 0.23481722 0.085486084 -0.053248424 0.29545364 -0.0321425
0.2650235 0.26449102 -0.30286184 0.28821793 -0.010276202 -0.10257154 0.11490228 0.20478255
0.025319193 0.20429553 -0.24452923 0.27873427 0.12792854 0.057351884 0.03634868 -0.03457311
0.1029968 -0.14196165 0.19688189 -0.09470102 0.094387785 -0.097600505 0.0618963 0.02841873
-0.040288974 -0.27090874 0.08654417 -0.23731601 -0.12830107 0.018297 0.061165016 -0.034194298
-0.29865396 0.032417636 0.18680963 -0.04424169 0.094800174 -0.055250935 -0.11265286 -0.04949397
-0.043562327 0.069311336 -0.08732677 -0.2435349 -0.1402042 -0.26241827 -0.15526308 -0.13627571
-0.040039826 0.23407976 0.20776106 -0.12460994 0.13825114 -0.27794707 -0.23080584 0.31044945
-0.25352976 -0.14224172 -0.16354883 -0.15442502 -0.21878752 -0.27112055 -0.35202512 -0.02568367
-0.16609016 -0.13440768 0.14241657 -0.33668506 -0.03036069 0.055932913 -0.20264098 -0.16329275
-0.19971512 -0.054726437 0.033702463 -0.08698243 -0.07766209 -0.28446072 -0.013902918 -0.3051545
-0.07523986 -0.10049653 0.09704894 -0.17458245 -0.10766494 -0.15451576 0.072559066 0.018124592
0.19163147 0.037481744 0.068742335 0.18298596 0.23573454 -0.01954586 0.25145274 0.09202521
-0.00023774299 0.2523648 -0.2541102 0.2613661 0.14256144 0.23277126 0.052546635 0.024000587
-0.08824425 0.011231222 -0.044066045 0.07765577 -0.022814723 0.09975555 0.25100556 0.05708747
0.10400431 0.0108033875 -0.17109683 -0.13676675 -0.14163387 -0.039316297 -0.042341944 0.0692676
0.011793072 -0.06991058 0.109409414 0.10529808 -0.17654362 -0.10662518 -0.10269606 -0.20042613
0.074857526 -0.24687214 0.060715593 -0.27200532 -0.06136851 -0.18887126 -0.0042573838 -0.27445772
-0.2543021 0.030651463 0.13559037 -0.23019403 0.12746291 -0.033263493 -0.12539908 -0.052793276
00000000: 0384 e7bb 7bb5 e53d 15e8 013e 1ca3 92bd
00000010: 79c4 0abe 432c 29bb cd14 6d3e 9e48 5cbe
00000020: ccc9 cabd a359 2b3e 6266 aabd 159f a33e
00000030: f884 413e 42b7 4c3e 30d5 47bd a22e fbbc
00000040: 22fe 71bc 1edc 123e c082 a6be af30 db3d
00000050: 0174 08bd e316 953e da15 ba3d 878e 733e
00000060: 01fa 55bc 3039 283e 7357 a43d 1baa 333e
00000070: f498 5c3e 491d 8c3e 9120 df3d c165 883d
00000080: 673e 883e 3914 bc3d 1ef4 e7b9 d3b5 f7bc
00000090: 3a91 413e 5b6c d43d ea4f 0f3d f41e 3ebb
000000a0: 92b5 393d e0b8 06be 096a c73c 0259 aa3c
000000b0: 7835 85be fece 74be 2691 8dbe c930 63be
000000c0: 606a e2bb cb55 8abe 1175 543d dc71 3bbc
000000d0: eb2e 333e 7d8f 3abe 9cff 5cbe 64ea 66be
000000e0: 678a 19be 3f16 5b3d 9a85 cb3b 82f2 1cbe
000000f0: ef87 6fbd 21cd 4fbd f3ef e93d 50c4 fb3d
00000100: 768f 0f3e 39dc 313e 4db6 063c be81 49be
00000110: b9ed 1bbe 1557 a03d 5c10 3c3e a518 403d
00000120: 1542 f73d b1ac d13d d750 28bd 179b ccbc
00000130: 1466 40be 12b4 6fbe b6b9 d7bd 333a 98bb
00000140: 0a91 7dbb ea35 55be fd11 1e3e 8573 d93d
00000150: 55a4 d1bc 1c02 3ebd 0a9b c43c 84c9 e7bd
00000160: 5c1d d6bd daf3 0cbe 0610 5f3b 856c 1bbe
00000170: 2af3 8abe 9a06 28be a9f7 0d3e a28e 1ebe
00000180: c871 f2bc 54c9 ec3d b232 82be 16a7 0bbe
00000190: 6dcb 66bc 7fcf 5e3e 56d7 673d d8d6 82bd
000001a0: 49ef dfbd bd07 0bbd bbc8 4c3d ed73 703e
000001b0: 5413 af3d 051b 5abd b345 973e dba7 03bd
000001c0: 29b1 873e 5e6b 873e b510 9bbe 4d91 933e
000001d0: 845d 28bc 0711 d2bd e351 eb3d 84b2 513e
000001e0: 326a cf3c d932 513e df65 7abe 42b6 8e3e
000001f0: b3ff 023e cfe9 6a3d 5ae2 143d 899c 0dbd
00000200: fcef d23d 655e 11be 689b 493e 9cf2 c1bd
00000210: 624e c13d c6e2 c7bd fa86 7d3d 65ce e83c
00000220: 0d06 25bd 8db4 8abe 123e b13d f802 73be
00000230: 5b61 03be 97e3 953c 2b88 7a3d 520f 0cbd
00000240: 2ce9 98be 5bc8 043d 064b 3f3e c636 35bd
00000250: 9826 c23d ce4e 62bd 8bb6 e6bd 30ba 4abd
00000260: 696e 32bd 1af3 8d3d 61d8 b2bd 3661 79be
00000270: b191 0fbe b05b 86be 49fd 1ebe dc8b 0bbe
00000280: cd00 24bd 9bb2 6f3e 51bf 543e 7f33 ffbd
00000290: b591 0d3e 144f 8ebe 5e58 6cbe 3bf3 9e3e
000002a0: a7ce 81be d0a7 11be 5879 27be 9821 1ebe
000002b0: d609 60be 50d0 8abe a33c b4be 8f66 d2bc
000002c0: 8a13 2abe 2ba2 09be a6d5 113e fc61 acbe
000002d0: fbb6 f8bc e919 653d 1e81 4fbe 3736 27be
000002e0: 1f82 4cbe d428 60bd 980b 0a3d d823 b2bd
000002f0: 4d0d 9fbd d6a4 91be 11c9 63bc 363d 9cbe
00000300: 5b17 9abd 20d1 cdbd 98c1 c63d bec5 32be
00000310: 707f dcbd 6139 1ebe d999 943d 067a 943c
00000320: 0a3b 443e 7586 193d c8c8 8c3d ac60 3b3e
00000330: 6564 713e a41e a0bc 6abe 803e b777 bc3d
00000340: a64a 79b9 f635 813e bb1a 82be c7d1 853e
00000350: a0fb 113e 975b 6e3e 243b 573d e19c c43c
00000360: 67b9 b4bd 2903 383c 997e 34bd fd09 9f3d
00000370: f1e5 babc a34c cc3d cd83 803e 8dd4 693d
00000380: 3600 d53d b100 313c 0234 2fbe 950c 0cbe
00000390: 7808 11be 200a 21bd bf6e 2dbd 2cdc 8d3d
000003a0: bb37 413c 472d 8fbd 0b12 e03d 85a6 d73d
000003b0: dac7 34be 4d5e dabd 5052 d2bd 823c 4dbe
000003c0: e74e 993d 0dcc 7cbe eab0 783d 4844 8bbe
000003d0: 8c5d 7bbd 7867 41be 8681 8bbb b985 8cbe
000003e0: e333 82be c718 fb3c 34d8 0a3e fcb7 6bbe
000003f0: a385 023e 4d3f 08bd 9e68 00be c33d 58bd

model.transformer.encoder.layers.0.self_attn.in_proj_bias f4 [96]
0.12512144 -0.10258183 -0.072831705 0.11890448 -0.09162841 -0.15224233 0.075085506 -0.10564177
-0.002974912 -0.10205967 -0.16215964 0.030112585 -0.01002833 -0.20075081 -0.0193993 0.015926518
0.024427086 -0.057852272 0.00045775084 0.036813106 0.11785368 -0.053615205 0.08134252 -0.08255262
-0.032348298 -0.057237316 -0.014263795 0.11858574 0.1754057 0.049014114 0.21285647 0.08382487
0.021441346 0.0070808115 -0.00700943 0.022584703 -0.018825758 -0.028163843 0.018680796 -0.02268462
-0.01980773 -0.02711709 -0.033911563 0.022749918 0.012562965 0.006097145 0.006491323 0.026441908
-0.0030057244 -0.0007749114 0.023447275 0.0025172145 0.0245228 0.0063180965 0.0060089193 -0.024399698
-0.0031698528 0.0019697214 -0.024152808 -0.0039275414 0.019067712 0.0055662035 0.014747713 0.013917506
0.030044127 0.012023087 -0.013712833 0.009459606 -0.04948256 -0.023846729 -0.0052660005 -0.055490233
-0.04132005 0.037722938 -0.034062658 -0.0048178597 -0.033408202 0.023783822 -0.018550912 0.02086477
-0.033104215 0.034383573 -0.0059991316 -0.024162913 -0.012373306 -0.002810401 -0.032595 -0.00016744582
-0.0026104152 -0.007623291 0.012373042 -0.011581787 -0.018777011 -0.028039716 0.013533241 0.035454903
00000000: d61f 003e 6c16 d2bd ca28 95bd 3184 f33d
00000010: ada7 bbbd 6ae5 1bbe 6ec6 993d b65a d8bd
00000020: bef6 42bb a904 d1bd 2d0d 26be abae f63c
00000030: dd4d 24bc 9f91 4dbe 48eb 9ebc 5478 823c
00000040: 501b c83c 81f6 6cbd 47fe ef39 57c9 163d
00000050: 455d f13d 9e9b 5bbd e896 a63d 5911 a9bd
00000060: a67f 04bd ad71 6abd b1b2 69bc 15dd f23d
00000070: 8d9d 333e 06c3 483d 0cf7 593e 60ac ab3d
00000080: c3a5 af3c 2706 e83b 5caf e5bb 8e03 b93c
00000090: 7a38 9abc dcb7 e6bc 7808 993c 19d5 b9bc
000000a0: d243 a2bc a924 debc dae6 0abd 095e ba3c
000000b0: e5d4 4d3c 8fca c73b 2ab5 d43b b39c d83c
000000c0: b0fb 44bb 6c23 4bba 8014 c03c daf7 243b
000000d0: 0ae4 c83c 0908 cf3b 78e6 c43b e0e1 c7bc
000000e0: 4ebd 4fbb 7116 013b 1cdc c5bc 9bb2 80bb
000000f0: e433 9c3c b364 b63b 64a0 713c 4006 643c
00000100: 1a1f f63c 7bfc 443c caab 60bc 77fc 1a3c
00000110: 3aae 4abd 375a c3bc 6a8e acbb ba49 63bd
00000120: 363f 29bd 5e83 1a3d 4985 0bbd 23df 9dbb
00000130: 0ad7 08bd 4ad6 c23c 15f8 97bc 98ec aa3c
00000140: 4998 07bd cad5 0c3d 5d94 c4bb 4df1 c5bc
00000150: 68b9 4abc b42e 38bb 5682 05bd 6594 2fb9
00000160: 8013 2bbb cdcc f9bb 4db8 4a3c 89c1 3dbc
00000170: 3fd2 99bc 8cb3 e5bc 87ba 5d3c 2939 113d

model.transformer.encoder.layers.0.self_attn.out_proj.weight f4 [32, 32]
-0.17344137 0.05455416 0.23722617 -0.09140613 0.18400128 -0.051232632 0.189145 -0.15527007
0.30316982 0.21562424 -0.0602272 0.16440834 0.26921484 -0.04449639 0.23159964 0.11729389
0.20867513 -0.25030315 0.08815727 -0.03772873 0.2848991 -0.013795078 -0.03270914 0.043501675
-0.23997165 -0.04400163 0.088043906 0.014095088 0.28941745 -0.02911317 0.19663748 0.24698177
0.24541984 -0.25824064 -0.06972433 -0.16255233 0.10574059 -0.22677463 0.1643385 -0.10089179
0.15038402 0.16319552 -0.18532969 0.0912047 -0.25952742 -0.02111932 0.28351858 0.2452182
-0.2759186 -0.13284178 -0.11286015 -0.2774545 -0.28233683 -0.1776072 0.059053753 -0.09173987
-0.2571781 -0.0470286 -0.24091385 -0.23288098 -0.09577445 -0.22157982 0.13815239 -0.21367864
-0.20832758 0.27894923 0.27916268 -0.043056242 0.25558886 0.36689845 -0.12638983 -0.33056748
0.24268965 -0.003120833 -0.28422073 -0.023730943 0.08401313 -0.2905133 -0.32118654 0.19997491
-0.22246654 0.14766133 -0.28089 0.33407864 0.4532294 0.29248378 -0.0510647 0.03577319
0.02322022 0.16537541 0.18989564 0.21999003 0.022883926 -0.08099881 0.27619442 -0.2846715
-0.087201215 0.14282377 0.1114341 0.21046105 0.2588048 -0.3627805 0.14485046 0.23800834
0.1413762 -0.28132164 0.10047359 -0.121984944 0.17029291 -0.020218078 0.01077017 0.043532655
0.25436822 -0.17921564 0.2660524 0.18563698 -0.11730033 -0.16922545 0.13487689 -0.26022655
-0.27013186 0.005675352 0.12825972 0.08550384 0.18776944 -0.19116683 -0.17403036 -0.2346383
-0.28530163 0.1808827 0.24810115 -0.1815367 -0.094080925 -0.14850509 0.30360577 0.071470514
0.254577 -0.0039046353 -0.15105665 -0.33132836 -0.11334995 -0.062446106 -0.17773403 0.12898855
-0.10396874 0.21893732 0.055870112 0.18243194 0.2623766 0.021780562 0.03942859 -0.2791835
-0.13765183 -0.16671504 0.11220795 -0.1382372 0.1954439 0.18344405 -0.2904688 -0.11142859
0.14404276 -0.09109396 -0.06083495 0.32708833 0.13828401 -0.16526698 -0.20947428 0.12913188
0.2057065 0.12250098 -0.2216182 0.2781556 -0.24847232 0.25025803 0.1636043 0.29454777
0.04996241 -0.24815753 -0.044292048 0.17542984 -0.22372141 0.31252292 0.056212362 0.23090188
0.12028234 -0.3004034 0.29341605 0.20652713 0.0014032668 0.14120317 0.043995116 -0.1970893
-0.18118961 0.04847875 0.073554516 0.1230925 0.10826485 -0.10886318 -0.15421082 -0.2788589
-0.08697006 0.24565457 0.25890827 -0.091565564 0.1728734 0.051841076 -0.31232697 -0.09595534
-0.12746355 0.2667024 0.32522124 0.040089358 -0.18259981 -0.14033392 0.07504372 0.24722911
0.107145846 0.05774926 -0.28712165 -0.15235317 -0.18399468 -0.13360713 0.032047305 0.19920748
0.22789335 -0.1413168 -0.23770644 0.12808986 -0.22383323 -0.24404562 -0.21260092 0.042430088
0.08104448 -0.29702792 -0.20041864 0.06270739 0.17931126 0.00802275 -0.04752298 -0.24194214
0.23539644 -0.029938914 0.3007363 0.1412374 -0.08978861 0.22541106 0.31393614 0.012556315
-0.12354253 0.02169998 -0.16898742 0.08174635 0.18778329 0.093803756 -0.2511026 0.22384682
00000000: 9d9a 31be 2f74 5f3d 6beb 723e 2333 bbbd
00000010: d56a 3c3e 4fd9 51bd 3aaf 413e 1eff 1ebe
00000020: 1339 9b3e 9acc 5c3e ccb0 76bd a95a 283e
00000030: 87d6 893e d941 36bd 7528 6d3e c737 f03d
00000040: efae 553e bc27 80be cc8b b43d 7189 1abd
00000050: 4bde 913e c004 62bc 05fa 05bd d02e 323d
00000060: 21bb 75be 0e3b 34bd 5d50 b43d 15ef 663c
00000070: 862e 943e be7e eebc 565b 493e cae8 7c3e
00000080: 574f 7b3e 1e38 84be a1cb 8ebd 1e74 26be
00000090: 868e d83d 9c37 68be 5a48 283e 5ba0 cebd
000000a0: 45fe 193e ba1c 273e 11c7 3dbe 88c9 ba3d
000000b0: c7e0 84be 6d02 adbc 5929 913e 7b1a 7b3e
000000c0: 3445 8dbe ad07 08be 3923 e7bd 840e 8ebe
000000d0: 748e 90be a9de 35be 59e2 713d 1de2 bbbd
000000e0: d9ac 83be 10a1 40bd 1fb2 76be 5a78 6ebe
000000f0: 6525 c4bd d2e5 62be d277 0d3e 93ce 5abe
00000100: d353 55be 6fd2 8e3e 69ee 8e3e be5b 30bd
00000110: 8bdc 823e 1dda bb3e 566c 01be 2440 a9be
00000120: a383 783e e486 4cbb 6185 91be 6567 c2bc
00000130: 130f ac3d 29be 94be 9072 a4be 39c6 4c3e
00000140: 45ce 63be 8834 173e d0d0 8fbe 5b0c ab3e
00000150: af0d e83e 6fc0 953e 3829 51bd e986 123d
00000160: 5538 be3c 2c58 293e 0174 423e 1145 613e
00000170: 1277 bb3c b4e2 a5bd 5b69 8d3e 76c0 91be
00000180: 8d96 b2bd 6540 123e 9037 e43d 1a83 573e
00000190: 1082 843e 5ebe b9be ae53 143e 75b8 733e
000001a0: ecc4 103e 6409 90be 19c5 cd3d 3ed3 f9bd
000001b0: 4461 2e3e 62a0 a5bc 5e75 303c 4c4f 323d
000001c0: 8d3c 823e 4e84 37be 0538 883e 9f17 3e3e
000001d0: 283b f0bd 7049 2dbe 2b1d 0a3e 6a3c 85be
000001e0: b94e 8abe 4ef8 b93b 8456 033e a31c af3d
000001f0: a246 403e 3dc1 43be 0435 32be 0645 70be
00000200: 0e13 92be 5139 393e 3a0e 7e3e c2e4 39be
00000210: 80ad c0bd b811 18be 3772 9b3e 225f 923d
00000220: eb57 823e e9e4 7fbb 98ae 1abe dfa3 a9be
00000230: 0524 e8bd 7dc7 7fbd e9ff 35be 9315 043e
00000240: 90ed d4bd 1b31 603e 0fd8 643d 70cf 3a3e
00000250: 3a56 863e 266d b23c e07f 213d 24f1 8ebe
00000260: 9af4 0cbe 59b7 2abe 48cd e53d 0d8e 0dbe
00000270: 7222 483e c2d8 3b3e 54b8 94be ac34 e4bd
00000280: f27f 133e 788f babd 122e 79bd 1f78 a73e
00000290: 539a 0d3e bf3b 29be 6d80 56be 263b 043e
000002a0: baa4 523e cbe1 fa3d e2ef 62be 696a 8e3e
000002b0: 876f 7ebe d221 803e e387 273e f7ce 963e
000002c0: 62a5 4c3d 021d 7ebe 946b 35bd e1a3 333e
000002d0: 3a17 65be 0103 a03e ef3e 663d 8b71 6c3e
000002e0: 9656 f63d 79ce 99be a13a 963e d97b 533e
000002f0: d2ed b73a 9097 103e 3934 343d c7d1 49be
00000300: c589 39be a791 463d c0a3 963d ec17 fc3d
00000310: f6b9 dd3d a9f3 debd 71e9 1dbe 98c6 8ebe
00000320: 5c1d b2bd df8c 7b3e a08f 843e ba86 bbbd
00000330: b905 313e 4f57 543d 52e9 9fbe 3c84 c4bd
00000340: ce85 02be 388d 883e 6683 a63e bd34 243d
00000350: 72fb 3abe b2b3 0fbe 86b0 993d a129 7d3e
00000360: 486f db3d 7d8a 6c3d 9c01 93be 7802 1cbe
00000370: 1a69 3cbe 4fd0 08be 0944 033d 0cfd 4b3e
00000380: e05c 693e 5ab5 10be 5169 73be fd29 033e
00000390: 8a34 65be 18e7 79be 0eb4 59be 2ccb 2d3d
000003a0: a6fa a53d 0b14 98be 8b3a 4dbe bb6c 803d
000003b0: 5f9d 373e da71 033c 75a7 42bd aebf 77be
000003c0: c40b 713e 7442 f5bc 1cfa 993e 89a0 103e
000003d0: 17e3 b7bd 28d2 663e 3dbc a03e 01b9 4d3c
000003e0: de03 fdbd 28c4 b13c 0a0b 2dbe a16a a73d
000003f0: 434a 403e 2f1c c03d 8590 80be 1a38 653e

model.transformer.encoder.layers.0.self_attn.out_proj.bias f4 [32]
-0.037129376 0.0037375854 0.019192303 -0.059255663 -0.028403798 -0.034427 0.020872766 0.0330528
0.011043285 0.029183213 -0.010440881 -0.017698552 -0.013174248 -0.028453827 0.03167666 -0.004233916
0.04448171 -0.038343597 0.010719345 0.0067589474 0.050713103 0.015517993 0.009111892 0.028735252
-0.007534344 -0.016376669 0.039214447 -0.033007096 0.015697584 -0.02397676 0.004834914 -0.029223926
00000000: f914 18bd 47f2 743b 2d39 9d3c 11b6 72bd
00000010: 15af e8bc 5303 0dbd 5dfd aa3c 5f62 073d
00000020: e5ee 343c a211 ef3c 3b10 2bbc 8efc 90bc
00000030: cdd8 57bc 0018 e9bc 63bf 013d a9bc 8abb
00000040: 7432 363d 2d0e 1dbd 31a0 2f3c 297a dd3b
00000050: 8bb8 4f3d 2e3f 7e3c 0c4a 153c 3166 eb3c
00000060: a9e2 f6bb 5d28 86bc 549f 203d 7332 07bd
00000070: 3898 803c e96a c4bc 336e 9e3b 0467 efbc

model.transformer.encoder.layers.0.linear1.weight f4 [128, 32]
-0.052939434 -0.1526032 0.05847621 -0.12966706 -0.1293019 -0.088877514 0.2012182 0.052958965
-0.05380339 -0.03569155 -0.18931434 0.12064976 0.035786316 0.16029656 -0.20676173 -0.013397628
0.029871317 -0.033107854 0.21754809 -0.10384818 0.054469418 -0.20940486 0.18907848 0.091896914
-0.08061797 -0.1621877 -0.16362378 0.115058325 0.07884368 -0.15809031 0.23515086 0.07780757
-0.18107043 0.097839184 -0.1584326 0.0982976 0.033433508 0.11975259 0.080062404 -0.15538207
0.05293192 -0.26099715 -0.017096767 0.1091444 0.054025583 0.040998682 0.2119905 -0.1761416
0.054739263 -0.088623844 0.0010495642 0.22591291 -0.20121627 0.1014449 0.09678393 -0.17104654
0.16589233 -0.109766 0.11144657 -0.05094174 -0.14179699 -0.16738665 -0.09890973 0.16366701
-0.13465257 0.114424914 -0.0036446222 -0.09372073 0.17762057 -0.0933184 -0.023628557 0.049131088
-0.16228215 -0.16224413 -0.09120463 -0.00792651 0.009608784 -0.19603874 0.07286763 0.07731634
0.17738895 0.07653635 0.089887805 -0.010156533 0.0501502 -0.071272716 -0.0019290783 0.2675736
0.064454354 -0.019079559 0.02909705 0.014640082 0.0048104296 0.1149837 -0.08295755 0.08369245
0.068605155 0.03618704 0.09539912 0.07926243 0.11313234 0.22943133 -0.0810242 0.10417944
0.018547084 0.20778172 -0.13612258 0.024697803 0.1995686 0.08812139 -0.0003427728 0.13964719
0.13310577 -0.16141342 -0.09510116 -0.09440988 0.15801963 0.113827266 -0.15036319 -0.13892904
-0.09382012 0.10111817 -0.09750056 0.051879715 0.0049534133 -0.057437144 -0.15273634 -0.057982147
0.13264789 0.14101404 -0.009089387 -0.11045323 0.0018720984 0.25779667 -0.18827602 0.13584758
-0.08909795 0.124424 0.017082194 0.12041446 -0.05230359 0.102113366 0.0042959345 0.1941593
-0.19238275 -0.09683421 -0.09362663 -0.1451538 0.05014821 0.022195868 0.06910108 0.05999812
0.08662624 -0.16086465 -0.049158353 -0.039390136 0.0019677365 -0.14648315 -0.111164324 0.22615138
-0.075729206 -0.13960849 0.27268425 0.16887021 -0.06392561 -0.24125238 0.22643147 -0.16014218
-0.0047608116 -0.039532483 0.038115084 0.025347762 -0.2544027 0.01736924 -0.09704115 -0.007223086
0.06621987 0.015152044 -0.13963343 0.12894864 -0.00813022 -0.22456557 -0.19259118 -0.10261446
0.06610069 0.050158244 0.1330722 -0.12542793 -0.06922779 0.016784435 -0.08232914 -0.019291632
-0.06315657 0.18111917 0.15286167 -0.23045658 0.017119695 -0.13856561 0.12390393 -0.22419599
-0.11554644 -0.29865888 0.005230681 -0.007201404 -0.14006384 -0.019305574 -0.21778424 -0.050053217
0.05943322 0.1693383 -0.035425395 0.10874834 0.10379585 0.029767403 0.035285696 0.23221146
0.042095475 0.070592195 0.099775754 0.049955666 0.14509335 0.11818657 0.06513375 -0.17832834
0.019733574 -0.1408873 0.079205714 -0.14212103 0.10254736 -0.07607445 0.08601416 0.16355094
-0.056833804 0.1385644 -0.039560325 -0.1564343 -0.20818321 -0.15256284 -0.12794994 -0.1502192
-0.0039817835 -0.008699572 0.21155308 -0.008271056 0.048630036 0.0734102 0.035456076 0.21556953
0.08939041 0.20069021 -0.08163571 0.12345417 0.13572787 -0.18889514 -0.06261246 -0.12772276
00000000: 05d7 58bd 0344 1cbe c084 6f3d 71c7 04be
00000010: b867 04be 6a05 b6bd 250c 4e3e 80eb 583d
00000020: f260 5cbd 4d31 12bd 9edb 41be 3917 f73d
00000030: ac94 123d c824 243e 59b9 53be ba81 5bbc
00000040: b1b4 f43c 1a9c 07bd edc4 5e3e 5bae d4bd
00000050: 531b 5f3d 3a6e 56be ca9d 413e 7334 bc3d
00000060: 091b a5bd 8814 26be fe8c 27be b3a3 eb3d
00000070: cc78 a13d 6de2 21be 63cb 703e 9359 9f3d
00000080: 876a 39be e95f c83d 283c 22be 4150 c93d
00000090: 93f1 083d d940 f53d c2f7 a33d 7a1c 1fbe
000000a0: 24cf 583d 6ba1 85be 850e 8cbc 1987 df3d
000000b0: ee49 5d3d 3cee 273d 0a14 593e 775e 34be
000000c0: 4736 603d 6b80 b5bd 8891 893a b755 673e
000000d0: a30b 4ebe 58c2 cf3d a736 c63d d326 2fbe
000000e0: aedf 293e ffcc e0bd 193e e43d 49a8 50bd
000000f0: 3b33 11be 6867 2bbe 2f91 cabd 5398 273e
00000100: 5de2 09be 9c57 ea3d 9dda 6ebb a7f0 bfbd
00000110: 2be2 353e b81d bfbd ad90 c1bc ae3d 493d
00000120: 4b2d 26be 5323 26be 7ec9 babd 31de 01bc
00000130: 296e 1d3c 61be 48be a03b 953d 0758 9e3d
00000140: 73a5 353e 17bf 9c3d 1917 b83d 9667 26bc
00000150: 4c6a 4d3d 6ef7 91bd 20d9 fcba 68ff 883e
00000160: a500 843d bc4c 9cbc f05c ee3c f4dc 6f3c
00000170: cfa0 9d3b 937c eb3d a6e5 a9bd f266 ab3d
00000180: dc80 8c3d dd38 143d 9d60 c33d 5754 a23d
00000190: eeb1 e73d 0cf0 6a3e 04f0 a5bd 085c d53d
000001a0: 0ef0 973c bbc4 543e b863 0bbe 0c53 ca3c
000001b0: b65b 4c3e fd78 b43d 30b6 b3b9 acff 0e3e
000001c0: e14c 083e 8f49 25be 66c4 c2bd f859 c1bd
000001d0: e6cf 213e 451e e93d cff8 19be 6a43 0ebe
000001e0: c324 c0bd 0b17 cf3d 60ae c7bd d37f 543d
000001f0: 3e50 a23b 3643 6bbd ea66 1cbe b07e 6dbd
00000200: d9d4 073e fc65 103e a7eb 14bc 4e35 e2bd
00000210: 3361 f53a edfd 833e 6ecb 40be a11b 0b3e
00000220: fc78 b6bd 03d2 fe3d f5ef 8b3c db9b f63d
00000230: 4a3c 56bd d020 d13d e9c4 8c3b b2d1 463e
00000240: fcff 44be 0451 c6bd 52bf bfbd 33a3 14be
00000250: 3668 4d3d 1cd4 b53c de84 8d3d 97c0 753d
00000260: 1969 b13d b4b9 24be 455a 49bd 8d57 21bd
00000270: 24f5 003b aeff 15be 1faa e3bd 3a94 673e
00000280: ea17 9bbd 87f5 0ebe 459d 8b3e 50ec 2c3e
00000290: 6eeb 82bd dd0a 77be a7dd 673e 50fc 23be
000002a0: 9500 9cbb d0ec 21bd 901e 1c3d 1ca6 cf3c
000002b0: 1241 82be f049 8e3c 83bd c6bd a3af ecbb
000002c0: 489e 873d 4740 783c 11fc 0ebe 1d0b 043e
000002d0: 9d34 05bc 84f4 65be 9f36 45be 8827 d2bd
000002e0: cc5f 873d bb72 4d3d 1444 083e 2e70 00be
000002f0: 4dc7 8dbd 837f 893c 2e9c a8bd 7c09 9ebc
00000300: 3b58 81bd 4e77 393e c587 1c3e cffc 6bbe
00000310: 9a3e 8c3c 25e4 0dbe 58c1 fd3d a293 65be
00000320: 9da3 ecbd d1e9 98be 2266 ab3b c1f9 ebbb
00000330: e56c 0fbe b926 9ebc d502 5fbe 9a04 4dbd
00000340: 4070 733d 0567 2d3e 381a 11bd 73b7 de3d
00000350: eb92 d43d c5da f33c bc87 103d d7c8 6d3e
00000360: 4e6c 2c3d a492 903d 3b57 cc3d 509e 4c3d
00000370: 5a93 143e cd0b f23d d864 853d b49b 36be
00000380: 4ea8 a13c c344 10be 9b36 a23d 2d88 11be
00000390: 5a04 d23d eccc 9bbd 3128 b03d e679 273e
000003a0: 90ca 68bd d3e3 0d3e 020a 22bd 5030 20be
000003b0: fb2d 55be 6f39 1cbe 4f05 03be 10d3 19be
000003c0: 9f79 82bb a688 0ebc 5fa1 583e 5383 07bc
000003d0: 4a30 473d 1658 963d 643a 113d 42be 5c3e
000003e0: 5212 b73d bc81 4d3e a030 a7bd 8ad5 fc3d
000003f0: 3ffc 0a3e ba6d 41be f63a 80bd c1c9 02be

model.transformer.encoder.layers.0.linear1.bias f4 [128]
-0.117310666 0.1878393 -0.10725468 -0.14051923 0.10533982 0.16714554 0.041127656 0.0013761261
0.06411383 -0.12517314 0.038995136 -0.09688265 -0.036177937 0.08862192 0.032219563 -0.11051673
-0.15728864 -0.060092125 0.06557899 0.08571226 -0.015458877 -0.1844686 -0.13745616 -0.13111807
-0.18215987 0.060822256 -0.007746157 -0.17042378 -0.0057702325 -0.116240285 0.024345834 0.055358995
-0.09723728 0.035306927 0.11540838 0.10090498 -0.004062051 -0.018757617 0.12281059 0.09188785
-0.17604843 0.013283255 0.03493291 0.1031043 0.0892745 -0.114277735 0.051850926 -0.04345561
0.09047775 -0.0878015 -0.16985703 -0.14172818 0.0761371 0.09897244 -0.065005116 0.013943335
-0.15645888 0.02496438 -0.1728058 -0.09772667 0.14542972 0.06032796 0.03317401 0.044559736
-0.026165247 -0.14737383 -0.16092093 -0.034000084 0.0625651 0.012646239 -0.15168509 -0.19039917
0.012155262 -0.13058884 0.16549905 -0.12188676 -0.0074447277 -0.12383061 -0.0417725 -0.11089097
0.04125011 -0.07003995 -0.07568693 0.123496436 0.027074365 -0.09594766 0.13471866 0.076875985
-0.0120754335 0.18240106 -0.043900263 0.12720257 -0.010433479 0.10577864 -0.14454977 -0.06740632
-0.14227693 -0.005859831 0.085623756 0.07804924 0.11624731 0.06390141 0.11202288 0.028430715
-0.070923306 -0.0065488927 0.14134952 -0.06717832 -0.14087209 -0.029562954 0.19383007 -0.08152025
-0.038795657 -0.0032904232 0.081121616 -0.007956692 0.050591286 0.09172778 -0.0695574 0.02613099
0.083985284 -0.0326963 -0.03770946 -0.032779705 -0.046488937 0.1408728 -0.1630363 0.09826995
00000000: 9340 f0bd f258 403e 57a8 dbbd 46e4 0fbe
00000010: 67bc d73d 3328 2b3e 7975 283d 215f b43a
00000020: 1d4e 833d 632d 00be 5db9 1f3d 696a c6bd
00000030: 512f 14bd 697f b53d a9f8 033d 9856 e2bd
00000040: 4610 21be 2923 76bd 474e 863d e989 af3d
00000050: 3b47 7dbc 56e5 3cbe 4fc1 0cbe d143 06be
00000060: 1e88 3abe c220 793d 79d3 fdbb 9283 2ebe
00000070: 3814 bdbb 630f eebd ea70 c73c 1dc0 623d
00000080: 5724 c7bd ff9d 103d 3b5b ec3d 45a7 ce3d
00000090: f41a 85bb 93a9 99bc 1e84 fb3d b22f bc3d
000000a0: 0a46 34be 02a2 593c d015 0f3d 5928 d33d
000000b0: 8dd5 b63d 720a eabd a361 543d 82fe 31bd
000000c0: 664c b93d 46d1 b3bd 00ef 2dbe 3121 11be
000000d0: c5ed 9b3d 10b2 ca3d 6721 85bd 9672 643c
000000e0: c236 20be 1982 cc3c 01f4 30be ec24 c8bd
000000f0: 87eb 143e 731a 773d 79e1 073d 4584 363d
00000100: 8058 d6bc 2ae9 16be 75c8 24be ac43 0bbd
00000110: 2222 803d 2c32 4f3c 5653 1bbe 00f8 42be
00000120: dd26 473c 15b9 05be 9578 293e c49f f9bd
00000130: e7f2 f3bb e79a fdbd a419 2bbd ce1a e3bd
00000140: e0f5 283d 1b71 8fbd c001 9bbd b3eb fc3d
00000150: 0fcb dd3c 3580 c4bd b0f3 093e 2871 9d3d
00000160: 0ad8 45bc 58c7 3a3e c3d0 33bd 6441 023e
00000170: 2ff1 2abc 79a2 d83d db04 14be 530c 8abd
00000180: 0bb1 11be d303 c0bb 825b af3d 48d8 9f3d
00000190: 1213 ee3d bede 823d 406c e53d 88e7 e83c
000001a0: 3d40 91bd 1898 d6bb eebd 103e c994 89bd
000001b0: c640 10be 022e f2bc 647b 463e 17f4 a6bd
000001c0: 32e8 1ebd 24a4 57bb 1723 a63d c95c 02bc
000001d0: cf38 4f3d c6db bb3d 1c74 8ebd a810 d63c
000001e0: 7a00 ac3d 8eec 05bd 3c75 1abd 0344 06bd
000001f0: 2f6b 3ebd f640 103e fdf2 26be c141 c93d

model.transformer.encoder.layers.0.linear2.weight f4 [32, 128]
-0.13765816 0.006726532 0.082219265 -0.16128351 -0.07468297 -0.13411725 0.11776945 0.035394516
-0.1501515 0.01363207 0.20609663 0.015722642 0.09841407 0.10850035 -0.18631744 -0.06544469
0.079332516 -0.22746857 -0.074226044 -0.008748965 -0.009516115 -0.22424327 -0.014588274 -0.020135647
-0.09176067 0.01647528 0.23584066 -0.14768252 -0.023958191 -0.052693315 -0.03718317 0.060090333
0.23654675 -0.00023395245 0.1995127 0.11021294 -0.056788966 -0.019689463 -0.16268891 -0.015248888
0.077142164 0.060828757 -0.12033736 -0.0011394939 0.06651582 0.035182193 0.007233701 0.017713673
0.12041633 0.083578885 0.2040899 -0.032881185 0.24396834 0.13239078 -0.05629422 -0.095503084
-0.19177672 -0.06868576 0.019480577 0.036432255 0.144017 0.049757514 -0.101049826 -0.1957934
-0.05461562 0.113077745 -0.03237032 -0.19011167 -0.09600493 -0.2149707 0.23663726 -0.11239527
-0.05867071 0.18426476 -0.07233302 0.038140748 0.16203994 -0.2015309 0.28562245 -0.06867907
0.09590008 -0.08610049 0.086794585 0.16739021 0.07082909 -0.10793154 -0.023644136 -0.10706427
0.120303325 -0.0026933155 0.11191244 -0.0026181522 -0.09987664 0.060493175 0.22203416 -0.071995534
0.038026866 0.15189417 0.042120412 -0.12887491 0.0965193 0.023986343 0.079613075 -0.066749595
-0.1460778 0.07783788 0.014219019 -0.020276934 0.05492402 -0.03526129 -0.23488858 -0.19080828
0.1827439 -0.12063886 0.038123798 -0.10264736 -0.17274143 0.12990907 -0.0953124 -0.13426438
-0.22936602 0.019680806 -0.13887545 0.19924423 0.2578577 -0.16600226 0.1604607 0.03221011
-0.0956741 0.038464874 0.027870886 0.13591185 -0.11597332 0.01366908 -0.05009754 -0.07770107
0.10408988 0.15616444 0.23121548 -0.0148923425 0.058209695 -0.09103527 0.135636 -0.2847992
-0.18540244 0.0411139 0.073000796 -0.203557 -0.098751254 0.13272272 -0.009263375 -0.029693918
0.047144026 0.1206707 0.18130936 0.01258548 -0.0953339 -0.21432805 -0.1657791 -0.015042619
0.1917283 0.06715602 0.04380854 0.15517461 -0.06915391 0.12151165 0.18880609 -0.13253796
-0.011613793 -0.25242138 0.08231084 -0.09602695 0.02832074 0.1007626 -0.24253248 0.1299701
-0.17042147 -0.0910814 -0.17441218 0.048534658 0.2673291 0.18271086 -0.025014415 0.18509935
-0.04585846 -0.1076551 0.2155361 -0.00094448356 -0.11462279 0.004078519 0.12644888 0.024021074
0.11351833 0.15998897 0.05972397 0.13918081 -0.08843601 0.017284792 -0.18752638 -0.012658576
-0.2136536 -0.1112328 -0.1024795 -0.087012455 -0.089792356 0.18778756 0.17100066 -0.28718048
-0.08129134 -0.07636099 0.052465335 -0.08149637 -0.17663236 0.011577544 0.033324655 -0.089249045
0.05429812 -0.08049073 0.03040848 0.19227958 -0.11321939 0.016414542 -0.061561324 -0.024147637
0.10776641 -0.008750036 0.1349754 -0.0903095 -0.054137293 0.12435931 -0.14924581 0.08580753
-0.11170458 -0.17016555 -0.102073 -0.14485566 -0.09239686 -0.11853214 -0.08844994 0.098716445
0.059344135 -0.12917443 -0.08709226 -0.1785008 -0.12410371 0.053188663 0.039137527 -0.15197028
0.13445798 -0.050508544 -0.036620792 0.010003447 0.17729883 0.15105994 -0.040540893 0.014359402
00000000: 43f6 0cbe 3d6a dc3b 9362 a83d 8127 25be
00000010: 63f3 98bd 0856 09be 1c31 f13d d7f9 103d
00000020: 51c1 19be 0c59 5f3c ff0a 533e c5cc 803c
00000030: 518d c93d 6e35 de3d 00ca 3ebe de07 86bd
00000040: 1679 a23d 85ed 68be d303 98bd d257 0fbc
00000050: 7be9 1bbc 07a0 65be a803 6fbc 83f3 a4bc
00000060: 05ed bbbd 2bf7 863c 3780 713e 163a 17be
00000070: f843 c4bc f2d4 57bd 614d 18bd 4821 763d
00000080: 5039 723e 2251 75b9 0f4d 4c3e 52b7 e13d
00000090: 8c9b 68bd cc4b a1bc ec97 26be 79d6 79bc
000000a0: b6fc 9d3d 9327 793d 6f73 f6bd 125b 95ba
000000b0: 7239 883d 341b 103d af08 ed3b 441c 913c
000000c0: d69c f63d 682b ab3d f1fc 503e 6cae 06bd
000000d0: d6d2 793e 7391 073e c594 66bd 1f97 c3bd
000000e0: 1e61 44be 1fab 8cbd bb95 9f3c fd39 153d
000000f0: 3179 133e 89ce 4b3d 36f3 cebd 117e 48be
00000100: a1b4 5fbd 4e95 e73d be96 04bd a2ac 42be
00000110: 3c9e c4bd 4721 5cbe 0a51 723e 7e2f e6bd
00000120: b350 70bd e7af 3c3e 5623 94bd 7939 1c3d
00000130: cced 253e 1e5e 4ebe 1b3d 923e 9da7 8cbd
00000140: 4367 c43d 7455 b0bd 5cc1 b13d 5768 2b3e
00000150: d80e 913d 360b ddbd 59b1 c1bc 8344 dbbd
00000160: 9761 f63d 5682 30bb 5932 e53d 4e95 2bbb
00000170: 208c ccbd b1c7 773d ec5c 633e 6572 93bd
00000180: 0fc2 1b3d 258a 1b3e 7486 2c3d c9f7 03be
00000190: e9ab c53d 027f c43c 2e0c a33d 03b4 88bd
000001a0: 6b95 15be 7769 9f3d e3f6 683c d01b a6bc
000001b0: 02f8 603d 246e 10bd a286 70be 3f63 43be
000001c0: 3821 3b3e 8211 f7bd b327 1c3d c738 d2bd
000001d0: 21e3 30be e206 053e 2633 c3bd 9a7c 09be
000001e0: edde 6abe a439 a13c 5e35 0ebe ae06 4c3e
000001f0: ed05 843e 7ffc 29be cf4f 243e c0ee 033d
00000200: c8f0 c3bd 588d 1d3d 7c51 e43c 7a2c 0b3e
00000210: 6c83 edbd 47f4 5f3c 1433 4dbd bd21 9fbd
00000220: 132d d53d 92e9 1f3e c0c3 6c3e 03ff 73bc
00000230: 4a6d 6e3d b370 babd 2ae4 0a3e 33d1 91be
00000240: 23da 3dbe 0c67 283d 7181 953d 3f71 50be
00000250: 193e cabd 77e8 073e 69c5 17bc a940 f3bc
00000260: 181a 413d 3322 f73d 29a9 393e 5433 4e3c
00000270: 6b3e c3bd d078 5bbe ffc1 29be 5175 76bc
00000280: 6c54 443e 1889 893d 9570 333d 18e6 1e3e
00000290: 91a0 8dbd 1adb f83d 6256 413e 08b8 07be
000002a0: c747 3ebc 603d 81be 9692 a83d c7a9 c4bd
000002b0: e600 e83c 9f5c ce3d 6f5a 78be e216 053e
000002c0: f782 2ebe e388 babd 1b99 32be 47cc 463d
000002d0: 5cdf 883e 8e18 3b3e 08eb ccbc af8a 3d3e
000002e0: 15d6 3bbd 477a dcbd 7fb5 5c3e 3897 77ba
000002f0: 5abf eabd 19a5 853b d17b 013e d8c7 c43c
00000300: 4c7c e83d 26d4 233e 1fa1 743d 6a85 0e3e
00000310: f01d b5bd d698 8d3c ea06 40be ea65 4fbc
00000320: 02c8 5abe 06ce e3bd c6e0 d1bd 9633 b2bd
00000330: 0ee5 b7bd 624b 403e cc1a 2f3e 5209 93be
00000340: 137c a6bd 2763 9cbd e4e5 563d 92e7 a6bd
00000350: 1ddf 34be bdaf 3d3c 6f7f 083d 34c8 b6bd
00000360: b567 5e3d 53d8 a4bd 341b f93c f0e4 443e
00000370: 91df e7bd ca77 863c ba27 7cbd 44d1 c5bc
00000380: a3b4 dc3d 505c 0fbc fe36 0a3e 30f4 b8bd
00000390: 11bf 5dbd 18b0 fe3d e5d3 18be dcbb af3d
000003a0: 5fc5 e4bd e13f 2ebe a60b d1bd 0b55 14be
000003b0: 913a bdbd fbc0 f2bd 3e25 b5bd d92b ca3d
000003c0: d612 733d 4d46 04be 6d5d b2bd eac8 36be
000003d0: 162a febd 5bdc 593d ac4e 203d 199e 1bbe
000003e0: 5aaf 093e 0ce2 4ebd afff 15bd 7fe5 233c
000003f0: d38d 353e 75af 1a3e 350e 26bd b243 6b3c

model.transformer.encoder.layers.0.linear2.bias f4 [32]
-0.057211045 -0.088451356 -0.053978655 -0.10005393 -0.05343364 0.056584373 -0.049608316 0.102391385
0.015256245 0.013255591 0.08601771 -0.045998257 -0.058037557 -0.070462756 -0.06484092 -0.027389148
0.08279421 0.015993824 -0.07515505 0.0070272936 -0.08660939 0.0080073625 0.020073678 -0.089798294
-0.07761394 -0.053807095 -0.10817809 -0.028863186 0.09206643 -0.061659634 -0.07322402 -0.06973689
00000000: 2156 6abd fc25 b5bd b918 5dbd 13e9 ccbd
00000010: 3cdd 5abd 04c5 673d 1732 4bbd 93b2 d13d
00000020: 54f5 793c fa2d 593c 0e2a b03d ab68 3cbd
00000030: cab8 6dbd c74e 90bd 51cb 84bd 355f e0bc
00000040: 0390 a93d 7b05 833c e4ea 99bd 3645 e63b
00000050: 4460 b1bd 5031 033c 8e71 a43c 2be8 b7bd
00000060: 0ff4 9ebd d464 5cbd 798c ddbd 7d72 ecbc
00000070: 538d bc3d d08e 7cbd 7af6 95bd 37d2 8ebd

model.transformer.encoder.layers.0.norm1.weight f4 [32]
1.0263759 0.9653576 1.1040424 1.021697 0.9895361 1.0755929 1.0313104 0.969679
1.053703 1.0282763 1.0035901 1.0274336 1.072922 1.0317298 1.0279877 1.0726725
0.94451845 0.92430186 1.0440149 0.9146088 0.9145024 0.99531925 1.0361305 0.9521434
0.9564272 0.98007905 0.98406917 0.9795832 1.0682727 0.96260434 0.9917055 0.96404064
00000000: 4960 833f ad21 773f 4351 8d3f f8c6 823f
00000010: 3d52 7d3f 07ad 893f fb01 843f e23c 783f
00000020: bddf 863f 8f9e 833f a475 803f f282 833f
00000030: 8255 893f b90f 843f 1a95 833f 554d 893f
00000040: f6cb 713f 0c9f 6c3f 48a2 853f cd23 6a3f
00000050: d41c 6a3f 3ecd 7e3f ed9f 843f abbf 733f
00000060: 6ad8 743f 76e6 7a3f f5eb 7b3f f7c5 7a3f
00000070: 29bd 883f 3d6d 763f 69e0 7d3f 5ecb 763f

model.transformer.encoder.layers.0.norm1.bias f4 [32]
-0.029443838 -0.0055850195 0.010391209 -0.045270365 -0.033904333 -0.043965347 0.008969723 0.017302593
0.016892325 0.0082219625 0.004419316 -0.0052302736 -0.016561355 -0.044790242 0.03808965 0.008792746
0.029815027 -0.016106432 -0.011411438 0.009096951 0.03435786 0.007880848 0.010329503 0.01965959
-0.0033038938 -0.02612137 0.040784627 -0.02114765 0.026762165 -0.019787094 -0.0019124416 -0.038130105
00000000: 3434 f1bc 8a02 b7bb e43f 2a3c 6b6d 39bd
00000010: 45df 0abd 0215 34bd bff5 123c 2bbe 8d3c
00000020: c661 8a3c 69b5 063c e9cf 903b b762 abbb
00000030: aeab 87bc f975 37bd e503 1c3d 730f 103c
00000040: a53e f43c a3f1 83bc 0af7 3abc 610b 153c
00000050: d4ba 0c3d ac1e 013c 133d 293c 260d a13c
00000060: 2486 58bb 7cfc d5bc c80d 273d d63d adbc
00000070: 543c db3c 8b18 a2bc e4aa faba 502e 1cbd

model.transformer.encoder.layers.0.norm2.weight f4 [32]
1.0515609 1.0282341 1.1227632 1.0335208 1.0290425 1.0448209 0.9908666 0.9857268
1.034918 1.0038522 1.0583665 1.042406 0.9621464 0.99800646 0.9835129 1.075023
1.0172998 0.9986758 1.0223567 1.0246494 0.963737 0.95730853 0.99803364 1.0142808
0.9842259 0.9435379 1.0452036 0.953131 0.9976253 0.99988943 1.0099734 0.9912729
00000000: 8c99 863f 2d9d 833f b4b6 8f3f 694a 843f
00000010: aab7 833f b1bc 853f 6fa9 7d3f 9758 7c3f
00000020: 3178 843f 3b7e 803f 8e78 873f 8f6d 853f
00000030: 3a4f 763f 5a7d 7f3f 80c7 7b3f 5b9a 893f
00000040: e136 823f 38a9 7f3f 96dc 823f b627 833f
00000050: 78b7 763f 2c12 753f 227f 7f3f f4d3 813f
00000060: 3bf6 7b3f b38b 713f 3bc9 853f 6500 743f
00000070: 5f64 7f3f c1f8 7f3f cf46 813f 10c4 7d3f

model.transformer.encoder.layers.0.norm2.bias f4 [32]
-0.029407183 -0.025560807 0.008368036 -0.025827838 -0.002126623 0.014780531 0.009672407 0.031270154
-0.0038101557 0.00882133 0.023872113 0.010111741 0.008578039 -0.03743635 -0.011222623 0.01780172
-0.0022711128 0.019829253 -0.01982983 0.03306578 -0.016528819 -0.0115146795 0.014207889 -0.02577826
0.008938621 -0.0015455204 -0.0364069 -0.0071518975 0.022568965 -0.0057181255 0.0012846682 -0.040300056
00000000: 55e7 f0bc e664 d1bc 161a 093c e794 d3bc
00000010: d05e 0bbb 0a2a 723c 0479 1e3c 2215 003d
00000020: ceb3 79bb 5787 103c 738f c33c b7ab 253c
00000030: e78a 0c3c dc56 19bd 18df 37bc ead4 913c
00000040: f3d6 14bb f570 a23c 2b72 a2bc fc6f 073d
00000050: 7267 87bc 11a8 3cbc 35c8 683c ee2c d3bc
00000060: 4b73 123c 0f93 caba 671f 15bd 775a eabb
00000070: 8de2 b83c 1d5f bbbb 5062 a83a ac11 25bd
