models/dgsr_pre_train/5_covar_koza/controller.pt (torch, 848237 bytes, 196 tensors)

state_manager.parent_embeddings.weight f4 [9, 16]
0	0x3da24b13	0.079244755
1	0xbf2d7364	-0.677542
2	0x3ffb3e72	1.9628432
3	0xbed087cf	-0.40728614
4	0x401e7e53	2.4764602
5	0x3eefab1f	0.46810243
6	0x3f415eaf	0.755351
7	0xbfc2fee4	-1.5234036
8	0xbd8732c5	-0.066014804
9	0x3e925366	0.28579253
10	0xbf172121	-0.59034926
11	0x3e92a4c7	0.2864134
12	0xbe79497e	-0.24344441
13	0xbee15091	-0.4400678
14	0xbf5d7e98	-0.8652129
15	0xbf16db58	-0.5892844
16	0xbe312310	-0.17298532
17	0x3e0f86fc	0.14016336
18	0x3ea1ade0	0.3157797
19	0xbf15e7db	-0.5855691
20	0x3f04705d	0.5173395
21	0xbf908849	-1.1291591
22	0x3f12227d	0.57083875
23	0xbf7f398e	-0.99697196
24	0xbe399714	-0.18124038
25	0xbe68eabd	-0.22745796
26	0xbfc1a7df	-1.5129355
27	0x400a22f5	2.1583836
28	0xbebd8d88	-0.37022042
29	0x3fe1e4cb	1.7647947
30	0x3f3603db	0.7109963
31	0x3feacf48	1.8344507
32	0x3f69ceae	0.91330993
33	0xbf9abfba	-1.208976
34	0x3e9f015c	0.31055725
35	0xbe949880	-0.29022598
36	0xbee2f982	-0.44330984
37	0xbe1a25a1	-0.15053417
38	0xbefe50cb	-0.49671015
39	0xbf67500e	-0.9035653
40	0xbf66f8a3	-0.9022314
41	0x3e920b1e	0.28524107
42	0x3e9acf9c	0.30236518
43	0x3efeb3e1	0.49746612
44	0xbe38ce1b	-0.18047373
45	0x3fe947f0	1.8225079
46	0x3ba97271	0.005171113
47	0xbec0c1cc	-0.37647855
48	0x3e840233	0.25782928
49	0xc03204bf	-2.7815397
50	0xbf3cba7a	-0.7372204
51	0x3fd89e35	1.6923281
52	0xbe91eab5	-0.2849938
53	0x3dd9c390	0.10633004
54	0xbf46ebbc	-0.7770345
55	0xbf839e24	-1.0282636
56	0xbf04f0c2	-0.5192987
57	0x3ddad408	0.10684973
58	0x3e8acb21	0.271081
59	0xbfe565ac	-1.7921653
60	0x3fc597d3	1.5436958
61	0xbee45f3b	-0.44603905
62	0x3feea780	1.8644867
63	0xbf642d08	-0.8913121
64	0xbf81d1eb	-1.0142187
65	0xbf46d594	-0.77669644
66	0x3ebd1b3d	0.36934844
67	0xbf5debd1	-0.8668795
68	0xbf4ced7e	-0.80049884
69	0xbf9357d8	-1.1511183
70	0xbf8a370a	-1.0798047
71	0x3dc926cb	0.09821852
72	0xbb8aac1c	-0.004231943
73	0x3d591853	0.053001713
74	0x3fbd0210	1.4766254
75	0xc0502b2a	-3.2526345
76	0xbf8ea606	-1.1144416
77	0xc007a049	-2.119158
78	0x3f87f9ca	1.0623105
79	0xbf6b050e	-0.9180459
80	0x3f02c5d2	0.510831
81	0xbe4c89bc	-0.19974416
82	0xbccf263c	-0.025286786
83	0x3fa91fb6	1.3212802
84	0x3ddb8b27	0.107199006
85	0x3c13f84a	0.009031365
86	0xbfb44bf9	-1.4085685
87	0x3ebb6c3c	0.36606014
88	0x403eba85	2.9801342
89	0x3eebdc46	0.46066493
90	0x3f78ab12	0.9713603
91	0xbc658c49	-0.014010497
92	0xbf21aec8	-0.6315732
93	0x3f81ce83	1.0141147
94	0xbf746799	-0.9547058
95	0xbf9c92f6	-1.2232349
96	0xbe8d6f11	-0.276238
97	0x3f210a4d	0.6290634
98	0x3e01c4b9	0.126727
99	0x3f67a144	0.90480447
100	0x3f42fe0f	0.7616891
101	0x3fd30803	1.648682
102	0xbea5e42a	-0.32400638
103	0xbf2829f4	-0.65689015
104	0xbf99458d	-1.197435
105	0xbeedc31e	-0.46437925
106	0xbed53e60	-0.4164915
107	0x3ea5e72b	0.3240293
108	0x3fbff9aa	1.4998066
109	0x3f1ed53b	0.62044114
110	0xbec97797	-0.39349052
111	0x3eafafd9	0.3431385
112	0xbf46a7ae	-0.7759961
113	0x3e9f4223	0.31105146
114	0x3e9cecec	0.30649507
115	0xbe74588e	-0.23861906
116	0xbfb18fb3	-1.3871979
117	0x3d2744e3	0.04083718
118	0x3e3ddaed	0.18540545
119	0x3d5b63d6	0.053562008
120	0x3e64b18a	0.22333351
121	0xbf170d58	-0.59004736
122	0x3f5788b5	0.84192973
123	0xbd6f8093	-0.058472227
124	0x3d5bea98	0.053690523
125	0xbf4bed70	-0.79659176
126	0x3e5af55a	0.21382657
127	0x3e2221d9	0.15833224
128	0x3f3a75af	0.7283582
129	0x3ec2351d	0.37931147
130	0x3e9a4604	0.30131543
131	0xbede27a1	-0.4338961
132	0xbe630dd6	-0.22173247
133	0xbf4fc1fd	-0.8115538
134	0xbf30fb4e	-0.6913346
135	0xbe5a0c3c	-0.2129373
136	0x3f74da49	0.95645577
137	0xbe885899	-0.26630095
138	0xbf1d757f	-0.6150741
139	0x4003eeb0	2.0614433
140	0x3e9a38cb	0.30121455
141	0xbf49095f	-0.78529924
142	0x3fa0c370	1.2559643
143	0x3ef246f4	0.47319758

state_manager.sibling_embeddings.weight f4 [14, 16]
0	0x40185ac6	2.3805404
1	0xbf978a79	-1.1839134
2	0x3e4f145f	0.20222615
3	0x3ece97de	0.4035024
4	0xbe8d8f6e	-0.2764849
5	0xbcbd1923	-0.023083275
6	0x3fa609ea	1.2971776
7	0xbf938b9c	-1.152698
8	0xbf44bfcb	-0.7685515
9	0xbc91b843	-0.017788058
10	0x3f559141	0.83424765
11	0x3f208303	0.6269991
12	0xbe01fa5f	-0.12693165
13	0x3f509be6	0.8148788
14	0xbfb23388	-1.3921976
15	0x3fdb1b48	1.71177
16	0x3f2ca19a	0.67434084
17	0x3f4c84ef	0.7989034
18	0xbed9cb76	-0.4253804
19	0xc00173ee	-2.0227008
20	0x3fff9cee	1.9969766
21	0xbe68ff6c	-0.22753686
22	0x403171a5	2.7725613
23	0x3de85a00	0.11345291
24	0xc0249c55	-2.5720417
25	0xc008c731	-2.1371577
26	0x3fcdcfc3	1.6079029
27	0x3e903e69	0.28172615
28	0xbfa6283a	-1.2981026
29	0xbf6567b5	-0.8961137
30	0xbf334434	-0.70025945
31	0xbfab8e1e	-1.3402746
32	0x3fc4fa81	1.5388948
33	0xbe4d1a29	-0.2002951
34	0xbf25908e	-0.646737
35	0xbf3a21bf	-0.7270774
36	0xbefb2f30	-0.4905944
37	0x3f713ad4	0.9423039
38	0xbfbe1e8b	-1.4853071
39	0x3e6d8358	0.23194635
40	0xbf8ccbdc	-1.0999713
41	0xbef1ea73	-0.47249183
42	0x3f4bf24e	0.796666
43	0xbf8cdee6	-1.1005523
44	0xbf4b28c6	-0.7935909
45	0x3f9bdf55	1.217753
46	0x3fe95752	1.8229773
47	0x3f50d52d	0.8157528
48	0x3d5fc297	0.054628935
49	0xbf085311	-0.5325175
50	0x3f12f2bd	0.5740164
51	0x3d6500d8	0.055909008
52	0xbf87f522	-1.0621684
53	0x3dc2eea9	0.09518177
54	0x3efe70a4	0.49695313
55	0x3fd4df8e	1.6630723
56	0xbe1c61d2	-0.1527169
57	0x3f57ff71	0.8437415
58	0xbf763047	-0.96167415
59	0xbf821ef4	-1.0165696
60	0x3f9f170c	1.2428908
61	0xbee59d86	-0.44846743
62	0xbefd95d3	-0.4952837
63	0xbf9fd3c0	-1.2486496
64	0xbe13db79	-0.14439191
65	0x3eaec8d7	0.34137604
66	0x400083c4	2.0080423
67	0x3f652c8d	0.89521104
68	0xbf958e50	-1.1684055
69	0x3f81a066	1.0127075
70	0x3f89e62c	1.0773368
71	0xbe679ebe	-0.22619149
72	0x3f455c2b	0.7709376
73	0xbdfc7b67	-0.12328225
74	0x3ea150fc	0.315071
75	0xbefad801	-0.48992923
76	0x3fc4f523	1.538731
77	0x3e95a340	0.29226112
78	0xbf5516c7	-0.8323788
79	0xbffff053	-1.9995216
80	0x3f1e4745	0.618275
81	0x3e3bf1e4	0.18353993
82	0xbf29560b	-0.66146916
83	0x3e2f609b	0.17126696
84	0x3e219e42	0.15783027
85	0xbf2d35c8	-0.6766019
86	0x3f7596cd	0.9593323
87	0xbe416e52	-0.1888974
88	0xbf539f89	-0.82665306
89	0xbfc72c77	-1.5560445
90	0x3f1fc32d	0.6240719
91	0xbef68071	-0.48144868
92	0xbfc06bcd	-1.5032898
93	0x40222c9c	2.5339727
94	0x3fb9bbf5	1.4510485
95	0x3f805dce	1.0028627
96	0x3edbbd92	0.42918068
97	0xbf25d8c4	-0.64783883
98	0xbed9d2d1	-0.42543653
99	0x3fd2ba61	1.6463128
100	0xbfb719d1	-1.4304754
101	0x40225273	2.5362823
102	0xbea38a15	-0.31941286
103	0x3e0aab21	0.13541843
104	0xbf2c9b9d	-0.6742495
105	0xbe6cb95b	-0.23117582
106	0xbfaa06e8	-1.3283358
107	0x3f678954	0.9044392
108	0x3f47484d	0.778447
109	0xbfb79b80	-1.434433
110	0xbfa9efab	-1.3276266
111	0x3c5cb7ec	0.013471585
112	0x3fb49f6f	1.4111155
113	0xbf621c6b	-0.8832461
114	0xbe53095f	-0.20609044
115	0x3f1141e5	0.5674117
116	0xbe1f94be	-0.15584084
117	0x3fdb5223	1.7134441
118	0xbf58727b	-0.84549683
119	0x3f6d07a7	0.925898
120	0x3f50e91e	0.8160571
121	0xbf18a237	-0.5962252
122	0x3f4bef9c	0.7966249
123	0x3e7ff7cf	0.24996875
124	0x3fa4572c	1.2839103
125	0xbf1a7cf7	-0.6034693
126	0x3f5bac92	0.85810196
127	0xbf67c9f6	-0.9054254
128	0xbec7933a	-0.38979512
129	0x3f6db904	0.92860436
130	0x3ebe614b	0.37183604
131	0xbea16bc1	-0.31527522
132	0xbf7f2e8a	-0.9968039
133	0xbf3f8027	-0.7480492
134	0xbe01b501	-0.12666704
135	0x3f528fb5	0.8225053
136	0xbe7d848c	-0.24757594
137	0xbf447285	-0.7673724
138	0x3f53ee87	0.8278584
139	0xbf10cb2b	-0.5656001
140	0x3f181f7b	0.59423035
141	0x3e8faba8	0.2806065
142	0x3fb1da91	1.3894826
143	0xbfce4f0e	-1.6117876
144	0x3cd1438d	0.025544906
145	0xbf482ec5	-0.78196365
146	0x3f8a7c49	1.0819179
147	0x3fbdafd7	1.4819287
148	0xbf1c987d	-0.6117018
149	0x3d5199f7	0.051172223
150	0x3f8438d3	1.0329841
151	0xbf85b522	-1.0445902
152	0xbf65d264	-0.89774156
153	0x3f1e575f	0.6185207
154	0xbf0fda2d	-0.56192285
155	0x3d7375b9	0.05943844
156	0xbf17b601	-0.5926209
157	0x3e9a89b2	0.30183178
158	0xbe13980a	-0.14413467
159	0x3f54b010	0.8308115
160	0xbe51db5d	-0.20493837
161	0xbf4566c2	-0.7710992
162	0x3f9e292e	1.2356317
163	0xbfe88590	-1.816576
164	0x3eca24b7	0.39481136
165	0xbeee5a4d	-0.4655327
166	0x3dcea3f1	0.10089863
167	0xbf01c845	-0.5069621
168	0xbf0ce457	-0.5503592
169	0x3fcaf543	1.5856098
170	0x3f125541	0.5716134
171	0x3f79994f	0.97499555
172	0x3f8c0496	1.09389
173	0x3f119fed	0.5688465
174	0xbe98ccb1	-0.29843667
175	0x4001cc23	2.0280845
176	0xbe21d77a	-0.15804854
177	0xbf640b33	-0.8907959
178	0xbf5af63e	-0.85531986
179	0xbfa972f5	-1.3238207
180	0xbf8c327a	-1.0952904
181	0xbf8d6b04	-1.1048284
182	0x3fa3d64c	1.2799773
183	0xbfa59b32	-1.2937987
184	0x3ea58e87	0.32335302
185	0x3e4cb629	0.19991364
186	0xbf6f743b	-0.9353673
187	0x3e488f86	0.19586
188	0xbe8917e3	-0.26776037
189	0xbf7a2e98	-0.97727346
190	0x3e99029e	0.2988481
191	0xbf8728f9	-1.0559379
192	0x3e47a766	0.19497451
193	0x3facc76f	1.3498362
194	0x3f32771b	0.6971299
195	0x3f420222	0.75784504
196	0xbe99d900	-0.3004837
197	0x3f5a7a61	0.85342985
198	0xbf965fc7	-1.1747979
199	0x3fb8cc5b	1.4437364
200	0xbea62e37	-0.32457134
201	0xbf00111a	-0.50026095
202	0xbf27aa7e	-0.65494525
203	0x3fdf010d	1.7422196
204	0x3ff6ffc3	1.9296802
205	0x3f44b133	0.76832885
206	0xbf2c831c	-0.6738756
207	0xbfbc7090	-1.4721851
208	0x3fa14179	1.2598106
209	0x3e9dd623	0.30827436
210	0xbdd7406f	-0.105103366
211	0xbea0e986	-0.31428164
212	0x3fe9ac52	1.8255713
213	0xbfa44ae5	-1.2835356
214	0x3f804039	1.0019599
215	0xbf0de559	-0.5542808
216	0x3facfe52	1.3515112
217	0xbf79180b	-0.9730231
218	0xbf566b45	-0.8375743
219	0xbee60c30	-0.44931173
220	0x3e262cd7	0.16228043
221	0xbfb03745	-1.3766867
222	0xbf1067d8	-0.56408453
223	0x3f8bf856	1.0935161

model.decoder.weight f4 [15, 32]
0	0xbf06e7c9	-0.52697426
1	0x3e65a953	0.22427873
2	0xc0232485	-2.549104
3	0xbee2c10b	-0.44287905
4	0xbda12057	-0.078674965
5	0x3f5d339c	0.86406875
6	0xbea1c064	-0.31592095
7	0xbf91ceb2	-1.1391203
8	0xbee49972	-0.4464832
9	0xbf639e2f	-0.88913244
10	0xbe985387	-0.29751226
11	0xbf31c968	-0.69447947
12	0xbf788af2	-0.97087014
13	0x3e7a812f	0.24463342
14	0xbf9f8302	-1.2461855
15	0xbf0d6dee	-0.55245864
16	0xbf855295	-1.0415827
17	0x3f12c16d	0.57326394
18	0xbf919ded	-1.137632
19	0x3f44c5e0	0.76864433
20	0x3f91e04d	1.1396576
21	0xbe835f38	-0.25658584
22	0x3f444e0c	0.7668159
23	0xbf0a159e	-0.53939235
24	0x3ec31765	0.38103786
25	0x3ea7e908	0.32794976
26	0x3fcf3048	1.6186609
27	0xbe2a48f6	-0.16629395
28	0xbdf06235	-0.117374815
29	0xbda8eaca	-0.082479075
30	0x3f329ed1	0.69773585
31	0xbf83c97a	-1.0295861
32	0xbf10bedf	-0.56541246
33	0x3f142aea	0.5787798
34	0x3f2c296f	0.6725072
35	0xbf3eb989	-0.74501854
36	0xbfa785b4	-1.3087678
37	0xbe0deceb	-0.13859908
38	0x3f10b264	0.565222
39	0x3f226a2f	0.63443273
40	0x3f11762f	0.5682096
41	0xbec7ed63	-0.390483
42	0xbee26d40	-0.44223976
43	0xbf3f2646	-0.74667776
44	0x3d970ae4	0.07375124
45	0x3eaa8041	0.33300975
46	0xbf21f018	-0.6325698
47	0x3ce9b069	0.028526502
48	0xbeb3c953	-0.35114536
49	0x3f47d2ac	0.78055835
50	0xbea2e646	-0.3181631
51	0xbeb4964a	-0.3527091
52	0x3eeec3d1	0.4663377
53	0x3ddbc2c0	0.10730505
54	0xbfab6df6	-1.3392932
55	0x3e4a063f	0.19728945
56	0x3dbfe98a	0.09370716
57	0xbf152197	-0.5825438
58	0x3ee0ed13	0.43930873
59	0x3fa46982	1.2844698
60	0xbfd8d6c0	-1.6940536
61	0xbf601d04	-0.87544274
62	0x3f51c750	0.8194475
63	0xbeec35da	-0.46134835
64	0x3f183d4d	0.5946854
65	0xbfad18ac	-1.3523154
66	0xbfdc734e	-1.7222688
67	0xbe0b8dc1	-0.13628294
68	0x3ea9b30e	0.3314442
69	0x3fe7f731	1.8122312
70	0xbfe71237	-1.8052434
71	0xbc8262b8	-0.015916213
72	0xbefcbef9	-0.4936445
73	0x3fc2da12	1.52228
74	0xbebcaf20	-0.3685236
75	0xbece7cb0	-0.40329504
76	0xbef559a1	-0.47919944
77	0x3e445b92	0.19175556
78	0xc0087fd1	-2.1328013
79	0xbf310416	-0.6914686
80	0xbf822ed1	-1.0170537
81	0x3f993801	1.1970216
82	0xbfebe8a6	-1.8430374
83	0x3d8f7d49	0.07006318
84	0xbec995b6	-0.39372033
85	0x3e02fd7f	0.12792014
86	0xbfd0e935	-1.6321169
87	0xbf1c491e	-0.6104907
88	0x3e4e7058	0.20160043
89	0x3f98604c	1.1904387
90	0x3c2a35e6	0.010388827
91	0x3fc57f4e	1.5429475
92	0xbfa335a2	-1.2750742
93	0x3fa61b73	1.2977127
94	0xc003b397	-2.0578363
95	0xbf044f4e	-0.5168351
96	0x3ed71598	0.42008662
97	0x3d77ca6e	0.060495786
98	0x3f18f822	0.5975362
99	0x3f663f5e	0.8994044
100	0xbeb8fec1	-0.36131862
101	0xbfe794d7	-1.8092297
102	0x3fbc4543	1.4708637
103	0xbe5f812a	-0.21826616
104	0xbf840025	-1.0312544
105	0x3e41f3ef	0.1894071
106	0x401299b4	2.2906313
107	0xbfb57642	-1.4176714
108	0x400910e7	2.1416566
109	0xbe5e6a04	-0.21720129
110	0xbedd1f6e	-0.4318804
111	0xbeccbe61	-0.39988998
112	0xbfbc7bb4	-1.4725251
113	0xbf8c9f52	-1.0986121
114	0xbed550e3	-0.41663274
115	0xbf92ba55	-1.1463114
116	0x3f3b2473	0.7310249
117	0x3e1dde93	0.15416937
118	0xbf526a04	-0.82193017
119	0x3f70afa5	0.9401801
120	0x3fe6e083	1.8037266
121	0xbe9d4639	-0.30717638
122	0x3f5354c9	0.82551247
123	0xbdde5638	-0.10856289
124	0xbf77858b	-0.96688145
125	0xbf0321f0	-0.5122366
126	0x3f43b65b	0.7645013
127	0x3ef7149e	0.48257917
128	0xbfa17586	-1.261399
129	0x3d81376e	0.063094005
130	0xbf55c1f0	-0.8349905
131	0x3f81e98d	1.0149399
132	0xbee3c69b	-0.4448746
133	0x3def9b60	0.11699557
134	0x3faec444	1.3653646
135	0x3eafd22b	0.34340033
136	0xbf4b36c2	-0.7938043
137	0x3f3a7d7a	0.7284771
138	0xbf3ac287	-0.72953075
139	0x3f0fcd28	0.5617242
140	0xbf43a137	-0.7641787
141	0x3f4d8cea	0.8029314
142	0x3faf4f5e	1.3696096
143	0x3f95b0b6	1.1694553
144	0xbf83e651	-1.0304662
145	0x3feddfe3	1.858395
146	0xbf6ee73b	-0.9332158
147	0xbe1a3dfa	-0.15062705
148	0xbfee7966	-1.8630798
149	0x3d28413d	0.04107784
150	0xbed1593d	-0.40888396
151	0x3c57e828	0.013177909
152	0xbccd988a	-0.02509715
153	0xbf053726	-0.52037275
154	0x3c8540bb	0.016266217
155	0xbe8f38be	-0.27972978
156	0xbff7c3ab	-1.9356588
157	0xbdc9861a	-0.09840031
158	0xbf3da0c9	-0.74073464
159	0xbfe81bed	-1.8133522
160	0x3fbfdd46	1.4989402
161	0x3fc8467e	1.5646513
162	0xbe4867cd	-0.19570847
163	0x3f680a75	0.90640956
164	0xbf2cc68a	-0.67490447
165	0x3f07ffcb	0.53124684
166	0x3f97cf6b	1.1860174
167	0x3f7ae21a	0.98001254
168	0xc012ca2d	-2.2935898
169	0x3df8b00d	0.12142954
170	0xbfddb80e	-1.7321794
171	0x3e864c39	0.26230028
172	0x3f74d6c3	0.956402
173	0xbf265023	-0.6496603
174	0x3e92ffde	0.28710836
175	0x3fda01ed	1.7031838
176	0x3f44d9b9	0.7689472
177	0xbef36cda	-0.47543985
178	0xbf3dfecb	-0.7421691
179	0xbf81f285	-1.0152136
180	0xbf727f3d	-0.947254
181	0xbf4cf897	-0.8006682
182	0x3f1bd76a	0.6087557
183	0x3e8aa547	0.27079222
184	0x3e0f3604	0.13985449
185	0x3f3498ec	0.7054584
186	0xbf1d49c8	-0.61440706
187	0x3f8c4eb0	1.0961514
188	0x3fa92db1	1.3217069
189	0xbf25f368	-0.64824533
190	0x3f4bfd44	0.7968333
191	0xbe5733be	-0.21015832
192	0x3eefa6af	0.46806857
193	0x3d8c9f1f	0.068662874
194	0x3eef766a	0.4677003
195	0x40303802	2.7534184
196	0x3ee6ea20	0.45100498
197	0xbf36f64a	-0.7146956
198	0x3fea2b1f	1.829441
199	0x4001fadd	2.0309365
200	0xbf9e08d8	-1.2346449
201	0xbfaef003	-1.3666996
202	0x3fa9b650	1.3258762
203	0x3f66cd7a	0.9015728
204	0xbf31fb4b	-0.6952407
205	0xbf9e4dcc	-1.2367492
206	0xbfacfa6c	-1.3513923
207	0xbf95a257	-1.1690167
208	0xbe3e57bb	-0.18588154
209	0x3f1f8ab7	0.6232104
210	0x3f6bfbe6	0.9218124
211	0x3eeee230	0.46656942
212	0x3f4eafaa	0.8073679
213	0x3fabaa41	1.3411332
214	0x3ffb0791	1.9611684
215	0xbfb44040	-1.4082108
216	0xbdc0de0d	-0.09417353
217	0xbdf14022	-0.117798105
218	0xbd8f25e4	-0.06989649
219	0x3e5b2513	0.21400861
220	0xbf73468e	-0.9502953
221	0xbc803488	-0.015650049
222	0x3efd9fda	0.4953602
223	0x3f5151fb	0.8176572
224	0xc01e25d0	-2.471058
225	0x3fbe6ba0	1.4876595
226	0xbc56130f	-0.013066067
227	0x3f22bea8	0.6357217
228	0xbe7601f9	-0.2402419
229	0x3f00b859	0.5028129
230	0xbf9d7ec1	-1.2304307
231	0x3e6074d5	0.21919568
232	0xc0107b0b	-2.25751
233	0xbf77d7c1	-0.9681359
234	0xbf72107d	-0.9455641
235	0xbfb58637	-1.4181584
236	0x3f6ec8a8	0.9327493
237	0x3f4ac250	0.7920275
238	0xbec93ed1	-0.39305738
239	0xbf8cfba5	-1.1014296
240	0xbf24ba07	-0.64346355
241	0xbe72ff7f	-0.23730277
242	0xbe834f1f	-0.25646302
243	0xbe3e7bfb	-0.18601982
244	0xbf2692ed	-0.6506794
245	0xc01a9f8c	-2.415988
246	0x3ef2f651	0.4745355
247	0x3f39ceb0	0.72581005
248	0x3db68c0d	0.08913431
249	0xbf82e2fb	-1.0225519
250	0xbdfe0f51	-0.12405265
251	0x3c8015f4	0.015635468
252	0x3f376218	0.71634054
253	0xbf136457	-0.5757498
254	0xbf8fab36	-1.1224124
255	0x3f8325b9	1.0245887

model.transformer.encoder.layers.0.self_attn.in_proj_weight f4 [96, 32]
0	0x3de26531	0.11054457
1	0x3e4ff84c	0.20309561
2	0x3c5d0063	0.013488862
3	0xbe2a2f0b	-0.16619508
4	0xbdff63c5	-0.124702014
5	0x3d0d6225	0.034517426
6	0x3d894967	0.067034535
7	0xbe2c1afb	-0.16807167
8	0xbdcd5369	-0.10025675
9	0x3de01311	0.10941137
10	0x3de0a4d2	0.10968937
11	0xbe170be6	-0.14750633
12	0xbe556030	-0.20837474
13	0xbe0ac596	-0.13551936
14	0xbd97694f	-0.07393133
15	0x3d55e529	0.052220497
16	0x3dfdaff1	0.12387074
17	0xbe0aabf8	-0.13542163
18	0xbd9644d0	-0.07337344
19	0xbe428fc9	-0.19000162
20	0xbe111ef2	-0.14171961
21	0x3dafde39	0.085873075
22	0xbd64b5ca	-0.05583743
23	0xbda055f2	-0.07828893
24	0xbe373795	-0.17892297
25	0x3cbeacc1	0.023275735
26	0x3d097abc	0.033564314
27	0x3dd8f64f	0.10593855
28	0x3e164c54	0.14677554
29	0x3d2bf017	0.041977014
30	0xbdb928ec	-0.09041008
31	0x3d54de5d	0.051969875
32	0xbcad7a6e	-0.021176543
33	0x3d8aedad	0.06783614
34	0xbd14e1e2	-0.03634823
35	0x3cd5fd39	0.026121723
36	0x3e0a193e	0.13486192
37	0xbe5232cd	-0.20527191
38	0xbe4877b2	-0.1957691
39	0xbda44bd7	-0.08022278
40	0x3e28e7ee	0.16494724
41	0xbe30a27d	-0.17249484
42	0x3e454d23	0.19267707
43	0x3cd77475	0.026300648
44	0x3c031806	0.008001333
45	0xbe4739fb	-0.19455712
46	0x3e15ddf3	0.14635448
47	0xbe382b61	-0.17985298
48	0x3daccd37	0.08437579
49	0x3d966a56	0.07344501
50	0x3e32766d	0.17427988
51	0x3dd35991	0.10319818
52	0x3dd15dfb	0.102230035
53	0x3c31159c	0.010808375
54	0x3e29c977	0.16580759
55	0x3def4528	0.116831124
56	0x3e490bfb	0.19633476
57	0x3e3a0030	0.18164134
58	0xbd90f5b3	-0.070781134
59	0xbc14e87a	-0.00908863
60	0xbe539cf8	-0.20665348
61	0xbbef4a33	-0.0073025464
62	0xbc1e65a3	-0.009667787
63	0xbde22a58	-0.11043233
64	0xbe3e70fb	-0.18597786
65	0xbcfdbec1	-0.030974748
66	0xbd9b33fc	-0.075782746
67	0xbe286180	-0.16443443
68	0x3e52b6c0	0.20577526
69	0x3e04a855	0.12954839
70	0xbe39e8c4	-0.181552
71	0x3c9d4ae6	0.019200753
72	0x3e14209c	0.14465564
73	0x3d9c5e42	0.07635166
74	0xbe5466b4	-0.20742303
75	0x3d9d9cf0	0.07695949
76	0x3b9046a7	0.0044029537
77	0x3e1c728a	0.15278068
78	0x3d9a680c	0.075393766
79	0xbd41f7d5	-0.04735549
80	0x3dd3e488	0.10346323
81	0x3dcae6a0	0.099072695
82	0xbe4fa9bf	-0.20279597
83	0x3e315289	0.17316641
84	0x3da80d62	0.082056776
85	0x3d45307b	0.048141938
86	0x3e14661b	0.14492075
87	0x3e321eb8	0.17394531
88	0x3dd22c86	0.102623984
89	0xbd97976e	-0.0740193
90	0xbe3beede	-0.1835284
91	0x3dda621a	0.10663243
92	0xbe4b3001	-0.19842531
93	0x3db71854	0.08940187
94	0xbd9244b4	-0.0714201
95	0xbdb42c1c	-0.08797476
96	0xbd7fa7dd	-0.062415946
97	0xbd88ffd3	-0.066894196
98	0x3e3368c5	0.17520435
99	0xbdcfe9c0	-0.10152006
100	0x3dddcb12	0.10829748
101	0xbe001217	-0.125069
102	0x3e3a313e	0.18182847
103	0xbdb1efd1	-0.086883195
104	0xbe1cc1a4	-0.15308243
105	0xbe03e280	-0.12879372
106	0x3e3eb07e	0.18622014
107	0x3d522f8e	0.051314883
108	0x3e0d6c19	0.13810767
109	0x3de85266	0.11343841
110	0x3dede6cd	0.116162874
111	0x3b9f6310	0.004864104
112	0xbe1092ca	-0.14118496
113	0xbe1e656c	-0.15468377
114	0xbdbe522b	-0.09293016
115	0x3da83ecf	0.08215105
116	0xbde16c61	-0.11007
117	0xbd34703c	-0.044052348
118	0x3d301fd6	0.04299911
119	0x3e4318fc	0.190525
120	0xbe064960	-0.13113928
121	0xbd43f059	-0.047836635
122	0x3d23eb13	0.040019106
123	0x3e5b5fc4	0.2142325
124	0xbe188c37	-0.14897238
125	0x3cdd6a12	0.027028117
126	0x3d6ce736	0.057837687
127	0xbdb60600	-0.08887863
128	0xbe3e0285	-0.18555649
129	0xbd52223b	-0.051302176
130	0x3e39cf2d	0.18145438
131	0x3d7c128f	0.061541136
132	0x3d038fa0	0.032119393
133	0xbddc9087	-0.10769754
134	0x3ccb5bab	0.024823984
135	0x3cfe36b8	0.031031951
136	0xbd9f71ee	-0.07785402
137	0x3e482605	0.19545753
138	0xbdab5f6a	-0.08367808
139	0x3e039ff0	0.1285398
140	0xbdc92170	-0.09820831
141	0xbd25e753	-0.04050381
142	0xbdedb35d	-0.116064765
143	0xbbdbd1ff	-0.006708383
144	0xbccdb330	-0.025109857
145	0xbde681af	-0.11255204
146	0x3e44b59a	0.192099
147	0xbe093fc1	-0.13403226
148	0x3d80cc5a	0.06288977
149	0x3d0f5c1d	0.034999955
150	0x3d5d8d3e	0.054089777
151	0x3e1111ce	0.14166948
152	0xbd9fb060	-0.07797313
153	0x3d483886	0.04888203
154	0xbcaffab4	-0.02148185
155	0xbdaf07b1	-0.08546389
156	0xbe58d152	-0.211736
157	0xbe3b69f0	-0.1830213
158	0xbe24cab9	-0.16092958
159	0xbdb49af0	-0.088186145
160	0xbde42a5c	-0.11140892
161	0xbd258746	-0.04041221
162	0x3d9890e1	0.074495085
163	0x3e461221	0.19342853
164	0x3dea6432	0.11444892
165	0xbdcdba41	-0.10045291
166	0x3d96e4b2	0.07367839
167	0xbe002bd7	-0.12516724
168	0xbd12fd4a	-0.035886087
169	0x3e1e2774	0.15444738
170	0x3d05cf4a	0.03266839
171	0xbdc24972	-0.09486665
172	0x3cf368bc	0.029713027
173	0x3d4dbbf9	0.050228093
174	0x3d8a186b	0.067429386
175	0xbda16998	-0.078814685
176	0xbd4e3971	-0.05034775
177	0x3d8f997d	0.070116974
178	0x3e336eb0	0.17522693
179	0x3e179bca	0.14805523
180	0x3ac3227c	0.0014887596
181	0xbdc09d4b	-0.09405001
182	0x3ce931b7	0.028466089
183	0xbe2fb3f0	-0.17158484
184	0x3db245c3	0.08704712
185	0x3e4deaeb	0.20109145
186	0x3dad27da	0.08454867
187	0xbda1aaa9	-0.07893879
188	0x3d17c666	0.037054442
189	0x3c8de69f	0.017321883
190	0x3e3ac071	0.18237473
191	0x3e15bb06	0.14622125
192	0xbe4a6dee	-0.19768497
193	0x3d7e5718	0.062094778
194	0x3e276ed9	0.16350879
195	0xbe4dc27d	-0.20093723
196	0xbd00a1aa	-0.031404175
197	0xbd998a3d	-0.0749707
198	0xbe2e3d56	-0.17015585
199	0xbe610808	-0.2197572
200	0x3cac7643	0.021052485
201	0xbde729e8	-0.1128729
202	0x3e0f240d	0.13978596
203	0xbd36795e	-0.04454934
204	0xbde1d343	-0.11026623
205	0x3dff8d8d	0.124781705
206	0xbd3fbc5c	-0.046810493
207	0x3d09c4d3	0.03363497
208	0xbdf92f85	-0.12167267
209	0xbdbd2996	-0.092364475
210	0x3e515532	0.20442656
211	0x3e1f5fae	0.15563843
212	0x3d6eb637	0.058279242
213	0xbd4f9771	-0.050681535
214	0xbb2807fd	-0.0025639527
215	0x3d54f0c6	0.051987432
216	0x3def9304	0.11697963
217	0xbbaf097b	-0.0053417063
218	0x3e49dec4	0.19713885
219	0xbd22dad0	-0.039759457
220	0x3d1a7736	0.037711345
221	0x3c70852c	0.014680188
222	0x38364504	4.3456457e-05
223	0xbe4ea847	-0.2018138
224	0xbddcee10	-0.10787594
225	0xbe30bc79	-0.17259397
226	0x3d1bc5bf	0.038030382
227	0x3e555e4d	0.20836754
228	0xbcfd9226	-0.030953478
229	0x3e681d2c	0.22667378
230	0x3d379123	0.044816148
231	0xbe1abcd5	-0.15111096
232	0xbd0a9781	-0.03383589
233	0x3dcffdbc	0.10155818
234	0xbe27e2a4	-0.1639505
235	0xbe14017d	-0.14453693
236	0x3e1d0308	0.15333188
237	0x3e356957	0.17715965
238	0x3d7e5fd6	0.062103115
239	0x3e36ff1e	0.17870757
240	0x3e1454f6	0.14485535
241	0xbe2cbd8e	-0.16869184
242	0xbe421574	-0.18953496
243	0xbe48910c	-0.19586581
244	0xbddcddc5	-0.10784487
245	0x3e2664c0	0.1624937
246	0x3dc2f94d	0.095202066
247	0xbd1f44ec	-0.03888409
248	0xbe3968cc	-0.18106383
249	0x3d8aa253	0.06769242
250	0xbe114ccc	-0.14189452
251	0x3e0d5617	0.13802372
252	0xbce14bf4	-0.027502038
253	0x3e219f57	0.1578344
254	0xbdeda983	-0.116045974
255	0x3e0b0060	0.13574362

model.transformer.encoder.layers.0.self_attn.in_proj_bias f4 [96]
0	0x3af18b60	0.0018428378
1	0x3bb57b24	0.005538361
2	0x3af5d295	0.0018754775
3	0x3bc63d27	0.0060497704
4	0xbb96991f	-0.00459589
5	0x3bac29ff	0.0052540298
6	0x3c9b495f	0.018955885
7	0x3c12b0e3	0.008953306
8	0xbcbadff2	-0.022811864
9	0x3c81854f	0.015810637
10	0x3c016412	0.007897394
11	0x3cb25541	0.021769168
12	0x3c2c4495	0.010514398
13	0xbbf77dda	-0.0075528445
14	0x3bbd8c06	0.0057845144
15	0xbcd0c3dd	-0.02548402
16	0x3c1823a8	0.009285845
17	0x3cbae65b	0.02281492
18	0x3ce9a218	0.028519675
19	0xbc17c4ef	-0.009263261
20	0x3bfc74f6	0.0077043725
21	0xbb8b146a	-0.004244377
22	0x3b0aefea	0.0021200129
23	0xba8cb2c2	-0.0010734426
24	0xbc394f32	-0.011310386
25	0xba244d1a	-0.00062675925
26	0x3ca7f0c7	0.020500554
27	0xbc3ddf11	-0.011588828
28	0x3bd86910	0.0066043213
29	0xbb96f8c0	-0.00460729
30	0xbc2700e6	-0.010193085
31	0x3c13764c	0.009000372
32	0xba00d3eb	-0.0004914391
33	0x3aa55a65	0.0012615441
34	0x3a1a70ed	0.0005891461
35	0xb9359987	-0.00017318699
36	0xb8ce9744	-9.851021e-05
37	0x39a560b9	0.00031543316
38	0xb93fe838	-0.00018301688
39	0x37e21ba9	2.695418e-05
40	0x398735a4	0.00025789172
41	0x39ca1bc0	0.00038549118
42	0x3a5a08c0	0.0008317344
43	0xb9067ff3	-0.000128269
44	0xb9bd557f	-0.0003611259
45	0x39b0d3bb	0.00033727087
46	0x38a1b84d	7.711407e-05
47	0x3933239d	0.00017084037
48	0xb8a20758	-7.72613e-05
49	0xba1ff727	-0.0006102197
50	0xba057035	-0.00050902675
51	0x39b867fd	0.00035172692
52	0xb5efff21	-1.788114e-06
53	0x3963c220	0.00021720724
54	0xba0cc8a4	-0.0005370474
55	0xb8853312	-6.351447e-05
56	0x39b9f3f2	0.00035467703
57	0xba483873	-0.0007637806
58	0xba8d7a00	-0.0010793805
59	0x399768e2	0.00028879108
60	0xb96b9442	-0.00022466577
61	0xb89b1dba	-7.396513e-05
62	0xb9b787e6	-0.00035005732
63	0x3a6c58fc	0.0009015945
64	0x3c325e67	0.010886765
65	0xbbc2b009	-0.005941395
66	0x3986ffcf	0.00025749064
67	0xbb32a9dc	-0.0027261889
68	0x3bae8460	0.005325839
69	0xba6925ce	-0.0008893878
70	0x3b5758eb	0.0032859396
71	0xbbbdeb5b	-0.005795879
72	0xbab82e62	-0.0014051909
73	0xbb6f9c91	-0.0036561827
74	0xbb8b4ba1	-0.004250959
75	0xbbc3e45a	-0.0059781494
76	0xbb21bc40	-0.0024678856
77	0xbbb2012e	-0.0054322695
78	0x3b2704f8	0.002548514
79	0x3b2e7b20	0.0026623681
80	0xbbc1584c	-0.0059004184
81	0xba10439b	-0.0005503238
82	0xbaa9e813	-0.001296284
83	0xbab5a03d	-0.0013856959
84	0xbb962e65	-0.0045831674
85	0x3bf4e1c0	0.0074732006
86	0xbbd86316	-0.006603609
87	0xbbcc0702	-0.0062264213
88	0xb9a13d00	-0.00030753762
89	0xbb9e539a	-0.0048317434
90	0x3bc80d87	0.006105128
91	0x3b7810c6	0.0037851795
92	0xbbf98d75	-0.00761574
93	0xbb601011	-0.0034189264
94	0x3b92894b	0.004471933
95	0x3c0b5970	0.00850521

model.transformer.encoder.layers.0.self_attn.out_proj.weight f4 [32, 32]
0	0x3e4c969c	0.19979328
1	0x3e7845a7	0.2424532
2	0xbe360fde	-0.1777949
3	0xbd094ddc	-0.033521518
4	0xbe333cc0	-0.17503643
5	0x3e64b40f	0.22334312
6	0x3dfb7996	0.1227905
7	0xbe8107a9	-0.25201157
8	0x3e8abeca	0.27098686
9	0x3d7ab2f4	0.06120582
10	0xbe1ea40b	-0.15492265
11	0x3e7ef9d4	0.2489999
12	0x3d8d39ff	0.068958275
13	0x3e9a7e74	0.301746
14	0x3e5022d3	0.20325784
15	0x3d853b26	0.06505422
16	0x3d9dee85	0.077115096
17	0xbe4e9924	-0.20175606
18	0xbd825525	-0.06363896
19	0x3d8eb2b3	0.06967678
20	0x3c885dff	0.016646383
21	0xbe2d3ee3	-0.1691852
22	0xbe7485cd	-0.23879166
23	0xbe546e56	-0.20745215
24	0xbe1f0cf7	-0.1553229
25	0xbce06f7b	-0.027396908
26	0x3e6d8130	0.23193812
27	0xbe930fef	-0.28723094
28	0x3c3d879a	0.011567974
29	0x3d9aae8a	0.07552822
30	0xbca871cb	-0.020562073
31	0xbc44023b	-0.011963422
32	0x3e2028f3	0.15640621
33	0xbd9ff705	-0.07810787
34	0xbdc03c47	-0.09386497
35	0xbda8cc8d	-0.0824214
36	0x3e343fcd	0.17602463
37	0xbd808606	-0.06275563
38	0x3e9c877f	0.30572125
39	0xbd4eee40	-0.05052018
40	0xbe0330f6	-0.12811646
41	0x3e0f7d38	0.14012611
42	0xbe250662	-0.16115716
43	0xbd16a4e9	-0.036778364
44	0xbe5f7b8b	-0.21824472
45	0x3e3240cd	0.17407532
46	0xbe69a165	-0.22815473
47	0xbe160a08	-0.14652264
48	0x3c3c7fa9	0.011505046
49	0xbc8d27aa	-0.017230827
50	0x3d74b9f6	0.05974766
51	0x3cddaafb	0.027059069
52	0xbe945b90	-0.28976107
53	0xbd63f024	-0.055648938
54	0x3e2b992d	0.1675765
55	0x3e09ffdb	0.13476507
56	0x3e07d974	0.13266546
57	0xbc1b556e	-0.009480817
58	0xbe2afa91	-0.16697146
59	0x3e8cb8fe	0.27484888
60	0xbe152c0e	-0.14567587
61	0xbd1c924a	-0.03822545
62	0x3e5e46dd	0.2170672
63	0x3e64490a	0.22293487
64	0xbd7a7a71	-0.061151925
65	0x3e1d3346	0.1535159
66	0x3d94d596	0.07267301
67	0x3e6c30dc	0.23065513
68	0x3e8ebf56	0.27880353
69	0x3e745e43	0.23864083
70	0xbe9535b2	-0.2914253
71	0xbe3ca682	-0.18422893
72	0xbd59d7f2	-0.053184457
73	0x3d96fbb9	0.07372231
74	0xbe41540c	-0.18879718
75	0xbe887bcd	-0.26656953
76	0x3e803153	0.2503763
77	0x3d2e4d64	0.042554274
78	0x3ce1a7f8	0.027545914
79	0x3e1cf40f	0.15327476
80	0xbe840f87	-0.25793096
81	0x3e806024	0.2507335
82	0x3ddcc4f4	0.10779753
83	0xbdb18c3c	-0.08669326
84	0xbe109841	-0.1412058
85	0x3dd1aeb5	0.10238401
86	0x3e9377a7	0.28802225
87	0xbddeef84	-0.10885528
88	0xbe096af3	-0.13419704
89	0x3dabba5c	0.083851546
90	0xbda6b6f5	-0.08140365
91	0x3df2ec0b	0.11861428
92	0x3e046eb0	0.12932849
93	0xbe98e840	-0.29864693
94	0xbd492c8f	-0.04911476
95	0x3da14ebf	0.07876348
96	0xbb95b58d	-0.0045687617
97	0x3dc7248a	0.09723766
98	0x3e104896	0.1409019
99	0xbdc7908e	-0.097443685
100	0x3e966848	0.29376435
101	0x3d6185a3	0.055059087
102	0x3d2efd28	0.042721897
103	0xbe9d8322	-0.3076411
104	0xbd8e544f	-0.06949674
105	0x3e878000	0.26464844
106	0xbd6197c9	-0.055076394
107	0xbe4b6bde	-0.19865367
108	0x3e92d080	0.28674698
109	0xbe0285bd	-0.1274633
110	0xbda21bc1	-0.0791545
111	0xbd8e8311	-0.06958593
112	0x3e1d11f8	0.15338886
113	0xbd2a4daa	-0.041577972
114	0xbe451dae	-0.19249603
115	0x3d98798a	0.07445057
116	0xbd9f3658	-0.07774037
117	0xbe4c7ac5	-0.19968708
118	0x3d75bf1d	0.059996713
119	0xbcf71fae	-0.030166473
120	0x3e867936	0.26264352
121	0xbe4314ed	-0.19050951
122	0x3dc2305a	0.094818786
123	0x3bc65c67	0.0060534957
124	0xbe8220df	-0.25415704
125	0x3e0a1525	0.13484628
126	0xbe63c38d	-0.22242565
127	0x3d276f6b	0.04087774
128	0xbe912fa6	-0.28356665
129	0xbe958452	-0.29202515
130	0xbcc2154a	-0.023691792
131	0xbe7f3db1	-0.24925877
132	0xbe4e8885	-0.20169266
133	0x3d34bb55	0.044123966
134	0x3e501e45	0.20324047
135	0x3ccda28e	0.025101926
136	0xbdb2c946	-0.08729796
137	0xbd953aff	-0.07286643
138	0xbe4165a0	-0.18886423
139	0xbe97a5e0	-0.2961874
140	0x3d30b6c1	0.043143038
141	0xbe8936df	-0.26799676
142	0x3dde3e73	0.10851755
143	0xbe3326ca	-0.17495266
144	0x3dac66fc	0.0841808
145	0x3e66a812	0.22525051
146	0x3e61495b	0.22000639
147	0x3e587416	0.21138033
148	0x3d44061f	0.0478574
149	0xbd23e269	-0.040010843
150	0x3e87eeb1	0.26549295
151	0x3cc1219d	0.023575598
152	0x3e449e85	0.19201095
153	0xbd6fb102	-0.058518417
154	0x3d36d7c4	0.044639364
155	0x3c83edc3	0.016104585
156	0x3abcae64	0.0014395234
157	0x3d4ff268	0.050768286
158	0x3d1fa6e4	0.03897752
159	0x3e74384a	0.23849598
160	0x3c48a02b	0.012245218
161	0x3d9ee5ad	0.07758651
162	0xbe9e19c7	-0.30879042
163	0x3e2bdf47	0.16784392
164	0x3d6b008e	0.057373576
165	0xbcf9dabf	-0.030499814
166	0x3e87d8d3	0.2653261
167	0xbc140be1	-0.009036035
168	0xbe79b101	-0.24383928
169	0x3dd9ed2e	0.106409416
170	0x3e6fb7a5	0.23409899
171	0xbd843ac3	-0.064565204
172	0x3df675d0	0.1203419
173	0xbe816368	-0.25271153
174	0x3e0cb4fe	0.13740918
175	0xbe95d366	-0.29262847
176	0x3e70564f	0.23470424
177	0xbe5272e9	-0.20551647
178	0xbdbc5c1e	-0.091972575
179	0x3d3793c9	0.044818673
180	0x3e30fc19	0.17283668
181	0x3d57e4bd	0.052708376
182	0xbcd75eb5	-0.026290277
183	0xbda2f906	-0.07957654
184	0x3e2faa28	0.17154753
185	0xbdaa9922	-0.08329989
186	0x3c87a94a	0.016560216
187	0x3d9352a2	0.07193495
188	0x3da44215	0.08020417
189	0xbe95cd5b	-0.29258236
190	0x3e455878	0.1927203
191	0x3c31be0e	0.010848535
192	0xbd32262a	-0.043493427
193	0xbd922a31	-0.071369536
194	0x3b809859	0.0039244113
195	0xbd40bf6a	-0.047057547
196	0x3e696e88	0.2279607
197	0x3e906482	0.2820168
198	0xbd50eabb	-0.051005106
199	0xbe81a36f	-0.25320002
200	0x3ae4fae4	0.0017469791
201	0xbe8def51	-0.27721646
202	0xbe768c36	-0.24076924
203	0xbcfd1317	-0.030892892
204	0x3dbd5432	0.092445746
205	0x3e60bcb8	0.2194699
206	0x3e8edd18	0.27903056
207	0x3e8f67e4	0.2800895
208	0xbe15c509	-0.14625944
209	0xbe833cd9	-0.2563236
210	0x3dd6117c	0.10452554
211	0xbdb2f0b6	-0.08737318
212	0xbdb4489a	-0.0880291
213	0x3e4b57cb	0.19857709
214	0x3d0159ed	0.0315799
215	0xbe5fdf7f	-0.218626
216	0xbdad483d	-0.08461044
217	0x3d72bf56	0.059264503
218	0x3cbd1e9d	0.023085887
219	0x3e88f950	0.2675271
220	0x3e2130b5	0.15741237
221	0x3e9c1ac1	0.30489162
222	0xbe8d16ae	-0.27556366
223	0x3e2057d9	0.15658511
224	0x3e8c4757	0.27398178
225	0x3e04699f	0.12930916
226	0x3d9bc117	0.07605188
227	0xbc78b5ee	-0.015180094
228	0x3cfe0e25	0.031012604
229	0xbce255fa	-0.027628887
230	0x3da083c4	0.07837632
231	0xbe2ba549	-0.1676227
232	0xbdc4b658	-0.09605092
233	0xbcaa237e	-0.020768877
234	0xbe77e961	-0.2421012
235	0x3e214012	0.15747097
236	0x3dcbcfce	0.09951745
237	0x3e7bcaa6	0.24589023
238	0x3e72571f	0.23666047
239	0x3e37735c	0.179151
240	0xbe08ce47	-0.13359939
241	0xbe023a8b	-0.12717645
242	0xbe00c5e6	-0.12575492
243	0x3c3d8b1e	0.011568813
244	0x3d370d95	0.044690687
245	0x3e7455f8	0.2386092
246	0xbda3f0e7	-0.08004933
247	0x3db0f302	0.086401
248	0xbdd28f85	-0.102812804
249	0x3e29658f	0.16542648
250	0x3e31d59a	0.17366639
251	0x3e772bc7	0.24137793
252	0x3e392f28	0.18084395
253	0xbe822f31	-0.2542663
254	0xbd0ef90f	-0.03490549
255	0x3e5f91d6	0.21832976

model.transformer.encoder.layers.0.self_attn.out_proj.bias f4 [32]
0	0xbc225b34	-0.00990944
1	0x3b8fc6dd	0.00438772
2	0x3a731025	0.000927212
3	0xbb29692d	-0.0025850043
4	0xbb8ccbe9	-0.004296769
5	0x3c33ea42	0.010981144
6	0x3ac37730	0.001491284
7	0x3c0a1854	0.008428652
8	0xbbd9e420	-0.006649509
9	0xbb1612d9	-0.0022899418
10	0xbb22e4f3	-0.0024855703
11	0xbb832255	-0.0040018954
12	0xbc322e7a	-0.010875339
13	0x3c2ddf0d	0.0106122615
14	0x3b1b7276	0.0023719347
15	0x3aec92e6	0.001804915
16	0xbc06adb3	-0.008220124
17	0xbbfbd9fa	-0.007685897
18	0x3b9b718d	0.004743761
19	0x3a8e22fe	0.0010844169
20	0x3b7c7ef7	0.0038527825
21	0x3c0689a3	0.008211526
22	0xbb92ffda	-0.0044860663
23	0x3aefaa72	0.001828505
24	0xbb479bf9	-0.0030457957
25	0xba12641b	-0.0005584375
26	0x3a4e20be	0.00078631553
27	0xbb08e781	-0.002088994
28	0x3baafdbf	0.005218237
29	0xbbef8c70	-0.0073104426
30	0xbaffd03a	-0.0019517012
31	0x3b92cf92	0.0044803107

model.transformer.encoder.layers.0.linear1.weight f4 [128, 32]
0	0x3daf361a	0.08555241
1	0xbda6df74	-0.08148089
2	0x3cc93f5e	0.024566349
3	0x3cb42090	0.021988183
4	0xbe51eff4	-0.20501691
5	0xbd74c7f4	-0.059761003
6	0x3e118bc1	0.14213468
7	0x3e08dcea	0.13365522
8	0xbd78e947	-0.060769346
9	0x3deab165	0.114596166
10	0xbda2f08c	-0.07956037
11	0x3ca075e2	0.01958746
12	0xbd7daa60	-0.06193006
13	0xbcca7833	-0.024715519
14	0x3e4d4431	0.20045544
15	0xbe42790d	-0.1899149
16	0xbde38f58	-0.11111325
17	0x3d552fea	0.052047648
18	0xbe529bc5	-0.20567234
19	0x3e30ae40	0.17253971
20	0xbcf95390	-0.030435354
21	0xbd88d11d	-0.0668051
22	0xbe112b29	-0.1417662
23	0xbdd356d4	-0.103192955
24	0xbe1ebf8e	-0.1550276
25	0x3d83a483	0.064278625
26	0x3e1298c9	0.14316095
27	0xbdddb23d	-0.10825012
28	0xbe0ef4b1	-0.1396053
29	0xbdf24200	-0.11828995
30	0x3ccb84c2	0.024843577
31	0x3cdc3870	0.02688238
32	0x3d2e697d	0.04258107
33	0x3de13925	0.109972276
34	0xbe2aa7cc	-0.16665572
35	0x3cffe904	0.03123904
36	0x3e122c12	0.14274624
37	0xbe2ef36c	-0.17085046
38	0xbdbf110a	-0.09329422
39	0xbe1bb5f6	-0.15206131
40	0x3cb36f5b	0.021903684
41	0xbd2e2fd2	-0.042526074
42	0xbd3edeb2	-0.046599098
43	0xbdd67613	-0.104717396
44	0xbcc90051	-0.024536284
45	0x3e270078	0.16308773
46	0xbe365f87	-0.17809878
47	0x3da93c4f	0.08263456
48	0x3e1b5c61	0.15171959
49	0x3dcbf3ff	0.09958648
50	0xbdf6c9c7	-0.12050205
51	0xbe1e563e	-0.15462586
52	0x3ddfc524	0.109262735
53	0xbe142d91	-0.14470507
54	0x3cf8aa0a	0.030354518
55	0xbe1f4d97	-0.15556942
56	0x3e388373	0.18018894
57	0x3d88fc95	0.06688801
58	0xbc82178a	-0.015880365
59	0x3d49f82b	0.049308937
60	0xbda45b7a	-0.0802526
61	0xbd7dd0f2	-0.061966844
62	0xbc4c55e7	-0.012471653
63	0xbe293b8b	-0.1652662
64	0x3c4e5318	0.012593053
65	0xbceb89d8	-0.028752252
66	0x3df9b856	0.121933624
67	0x3d6b8997	0.057504263
68	0xbd5341d7	-0.05157646
69	0xbc9b627e	-0.018967863
70	0x3cd675ac	0.026179157
71	0x3d9a1ed6	0.07525413
72	0x3e25e99e	0.16202399
73	0xbe267cdd	-0.16258569
74	0x3dd9c19b	0.106326304
75	0x3d82de7c	0.06390092
76	0x3d69f9c2	0.057122953
77	0xbcb51749	-0.02210583
78	0xbd789fb3	-0.060699176
79	0xbd5bfc74	-0.053707555
80	0x3e17baa1	0.14817287
81	0x3db0f22f	0.08639943
82	0xbe13d069	-0.14434971
83	0x3d89b370	0.06723678
84	0xbe49077b	-0.1963176
85	0xbe36064f	-0.17775844
86	0xbd684594	-0.05670698
87	0xbdee4d50	-0.1163584
88	0x3e1fa0c5	0.15588672
89	0xbe215333	-0.15754394
90	0x3dd6e0dc	0.10492107
91	0xbdda802b	-0.10668977
92	0x3db55d04	0.08855632
93	0x3d64513d	0.055741537
94	0x3da230f4	0.07919493
95	0xbc0f358b	-0.008740793
96	0xbe24898c	-0.16068095
97	0x3e26c6d2	0.16286781
98	0xbde60574	-0.11231509
99	0x3e2bbbe7	0.16770898
100	0xbe3462ec	-0.1761586
101	0xbbb19aee	-0.0054200804
102	0x3df9a217	0.12189119
103	0x3d15e90b	0.0365992
104	0x3df8db6d	0.12151227
105	0x3db05d0d	0.08611498
106	0xbe2480e8	-0.16064799
107	0x3e2b3b0e	0.16721746
108	0x3d172ac8	0.036906034
109	0x3d663819	0.056205843
110	0xbd966c97	-0.073449306
111	0x3dd11589	0.10209186
112	0x3e0cdbbb	0.13755696
113	0x3d6bb670	0.057547033
114	0x3c5bc68b	0.013414036
115	0x3d8f41de	0.06994985
116	0xbd241d6d	-0.040067125
117	0xbe2c415b	-0.16821806
118	0xbdab202c	-0.08355746
119	0x3da0ecad	0.07857642
120	0xbdd93f32	-0.10607757
121	0xbd099f68	-0.033599287
122	0x3cd3a3db	0.025834968
123	0xbe25f62b	-0.16207187
124	0xbd06a143	-0.032868635
125	0x3da09129	0.07840187
126	0x3d30eaa5	0.043192524
127	0xbdeba6ba	-0.1150641
128	0x3e560cf3	0.20903377
129	0x3c85042a	0.016237337
130	0xbd53f2ab	-0.051745098
131	0x3e2aee82	0.16692546
132	0xbd818bc5	-0.06325487
133	0x3c86b7fa	0.016445149
134	0xbd98d035	-0.07461587
135	0x3d87c5f4	0.066295534
136	0xbe1a9255	-0.15094884
137	0xbd1b8626	-0.03796973
138	0x3d0591ee	0.032609873
139	0xbdd28be9	-0.10280592
140	0xbde03c13	-0.10948958
141	0x3d80a661	0.06281734
142	0xbdb3ac82	-0.08773138
143	0xbdc4ef84	-0.096159965
144	0xbda8ec0f	-0.082481496
145	0x3cbe28dd	0.023212845
146	0x3e488595	0.19582208
147	0x3d13f6d5	0.03612407
148	0x3dd8af7a	0.105803445
149	0x3b89df6a	0.0042075412
150	0xbc9e5b1c	-0.019330554
151	0x3d39ec7b	0.04539154
152	0xbe22ceb2	-0.1589916
153	0x3ddd99e4	0.10820368
154	0xbddf861f	-0.109142534
155	0x3e3e023f	0.18555544
156	0x3caf7b01	0.021420958
157	0xbd96eeb6	-0.07369749
158	0x3c9f21d8	0.019425318
159	0xbe088780	-0.13332939
160	0xbe2ad033	-0.16680984
161	0xbe2481eb	-0.16065185
162	0xbdbdc14e	-0.092653856
163	0xbde74515	-0.11292473
164	0xbca6d4ef	-0.020365207
165	0xbc580cdb	-0.013186659
166	0xbe3742a5	-0.17896517
167	0x3ce2ad72	0.027670596
168	0xbdc124c0	-0.09430838
169	0x3e2c4fcb	0.16827314
170	0x3e3e4258	0.18579996
171	0xbc3890ce	-0.011264993
172	0x3cb5dc09	0.022199648
173	0x3e001a87	0.1251012
174	0x3e348a88	0.1763097
175	0x3da78921	0.08180452
176	0x3cf3aaad	0.02974447
177	0x3daf9d8e	0.08574973
178	0x3d562c8d	0.05228858
179	0x3e2dabba	0.1696004
180	0xbc2126b6	-0.00983589
181	0xbd6c542c	-0.05769746
182	0xbc386657	-0.0112548685
183	0xbd8951bb	-0.06705042
184	0xbe34aa06	-0.17642984
185	0xbe360e66	-0.1777893
186	0xbc4fb046	-0.012676304
187	0xbdfe0eec	-0.1240519
188	0xbcfa83f1	-0.030580493
189	0x3d3da3ed	0.04629891
190	0xbe1b94de	-0.15193507
191	0xbe143ea5	-0.14477022
192	0xbe3b4c34	-0.18290788
193	0x3d9c8f7c	0.07644555
194	0xbe2d9bc4	-0.16953951
195	0xbd9f2377	-0.07770436
196	0x3d48a7de	0.048988216
197	0xbe34790c	-0.176243
198	0xbc86a93c	-0.01643812
199	0xbde7a5bd	-0.11310909
200	0x3e4a4b60	0.19755316
201	0xbe48b6b3	-0.19600944
202	0xbd56d456	-0.052448593
203	0x3e2567fc	0.16152948
204	0x3c60cc5a	0.013720596
205	0x3d090348	0.033450395
206	0x3e495683	0.19661908
207	0xbe128ccd	-0.14311524
208	0xbdf51c0a	-0.11968239
209	0xbc287569	-0.010281899
210	0x3e2ec37f	0.17066763
211	0xbe1db1db	-0.15399878
212	0x3db9e6cd	0.09077225
213	0xbd28221d	-0.041048158
214	0xbd5d73e6	-0.054065607
215	0x3d0ec401	0.034854893
216	0xbe115f3b	-0.14196484
217	0xbd68aa24	-0.056802884
218	0xbd6d0fc4	-0.057876363
219	0x3dcbb5be	0.09946774
220	0x3decaf85	0.11556915
221	0xbdbef562	-0.09324147
222	0xbdefc54f	-0.117075555
223	0x3d272d8c	0.04081492
224	0x3d9ffa4c	0.07811412
225	0x3e2aacea	0.16667524
226	0x3dec3b43	0.11534741
227	0x3e170755	0.1474889
228	0xbe02e27c	-0.1278171
229	0xbd9dd265	-0.07706145
230	0xbd0e1ec6	-0.034697317
231	0xbdf1c0e7	-0.11804371
232	0x3dd0660e	0.101757154
233	0x3e3bb057	0.18328987
234	0x3d9f144b	0.077675425
235	0xbe20d5d2	-0.15706566
236	0xbdec8767	-0.115492634
237	0xbdb65355	-0.08902613
238	0xbe2dd4a3	-0.16975646
239	0xbd8742c6	-0.06604533
240	0xbd0a8636	-0.0338194
241	0x3e3e7b08	0.1860162
242	0xbda9731b	-0.08273908
243	0x3c93e42f	0.018053142
244	0xbd934f0c	-0.07192811
245	0xbd478f2b	-0.04872052
246	0x3daad7a0	0.083419085
247	0x3df4c17f	0.11950969
248	0x3c31c8e8	0.010851122
249	0x3c819cd1	0.015821846
250	0xbcd98f85	-0.026557693
251	0x3d5884e9	0.052861128
252	0x3d87de7e	0.06634234
253	0xbe1e5662	-0.1546264
254	0xbe07c113	-0.13257246
255	0xbdce6c68	-0.100792706

model.transformer.encoder.layers.0.linear1.bias f4 [128]
0	0xbd057864	-0.032585517
1	0xbd1ab7d3	-0.037772965
2	0x3e24a4f3	0.16078548
3	0x3d8731aa	0.066012695
4	0x3e1da693	0.15395574
5	0xbdbcb7e0	-0.09214759
6	0x3dc3e78f	0.09565651
7	0x3dbf6df5	0.093471445
8	0xbd9cf3e6	-0.076637074
9	0x3d987b7e	0.07445429
10	0xbe219a38	-0.15781486
11	0x3e15520e	0.14582083
12	0x3d2c329a	0.042040445
13	0xbe1e6d08	-0.1547128
14	0x3e29ef43	0.16595177
15	0xbe2a3347	-0.16621123
16	0xbe01f860	-0.12692404
17	0x3e297b00	0.16550827
18	0x3e10cea3	0.14141326
19	0x3d8ce06e	0.06878744
20	0x3c588a91	0.013216631
21	0xbcd108af	-0.025516836
22	0xbdd5f140	-0.104464054
23	0xbdccba14	-0.09996429
24	0x3e0e74f3	0.139118
25	0x3bead98c	0.007167047
26	0x3dde1628	0.1084407
27	0x3dcb863b	0.09937712
28	0xbd9ec5a2	-0.07752539
29	0x3e29c87f	0.1658039
30	0x3e2c91b9	0.16852464
31	0xbdc347aa	-0.09535153
32	0xbe228637	-0.15871511
33	0xbd8c7a91	-0.06859315
34	0x3e02cd85	0.12773712
35	0xbe187cc7	-0.14891349
36	0x3e05f9dd	0.13083597
37	0x3dfb9c59	0.1228568
38	0x3c510c47	0.012759275
39	0xbdcabdc1	-0.09899474
40	0xbb05d7b6	-0.0020422763
41	0xbdd6215d	-0.10455582
42	0x3e156103	0.14587788
43	0xbbf872df	-0.007582053
44	0x3dbff447	0.09372764
45	0xbe004505	-0.12526329
46	0xbe0b72db	-0.13618033
47	0x3de44709	0.111463614
48	0xbd9b60d6	-0.07586829
49	0xbe10cc87	-0.14140521
50	0x3dddedc8	0.10836369
51	0xbdd9205f	-0.106018774
52	0x3d1a6997	0.037698355
53	0xbdd84d4e	-0.1056162
54	0x3e0adad4	0.13560039
55	0xbcf1d6d3	-0.029521381
56	0x3de0ed70	0.109827876
57	0x3e04b777	0.12960611
58	0x3d28da2b	0.041223686
59	0x3dee1b35	0.11626283
60	0xbe066243	-0.13123421
61	0x3de8df30	0.11370695
62	0xbd3bf55e	-0.045888297
63	0xba7cdbcc	-0.00096457894
64	0xbdeb5d94	-0.11492458
65	0xbd0bd274	-0.03413625
66	0x3de927b7	0.11384528
67	0x3dc9ab1d	0.098470904
68	0xbd676617	-0.056493845
69	0xbd3b7870	-0.045769155
70	0xbc25abef	-0.010111793
71	0x3d306325	0.0430633
72	0x3e172d2a	0.14763322
73	0xbd5793db	-0.05263124
74	0xbd24fb66	-0.040278815
75	0x3d9c4132	0.076296225
76	0x3cf48ca0	0.029852211
77	0x3d4ebf0b	0.05047516
78	0xbe2b1f50	-0.16711164
79	0x3d5278cb	0.05138473
80	0x3d03320c	0.03203015
81	0x3da5bc68	0.08092576
82	0xbe307866	-0.17233428
83	0x3e175a9c	0.14780658
84	0x3e09f109	0.13470854
85	0x3d33dcd7	0.04391178
86	0xbd5b2d0e	-0.053509764
87	0xbe11b40d	-0.1422884
88	0xbd4ea577	-0.05045077
89	0x3c04e2ca	0.008110711
90	0x3c0bdf3c	0.00853711
91	0xbe3569ae	-0.17716095
92	0x3d94e767	0.07270699
93	0xbe0760f3	-0.13220577
94	0x3e0340fc	0.12817758
95	0x3d9f176a	0.07768138
96	0x3d8cb430	0.068703055
97	0x3c5f912b	0.013645451
98	0xbd80f665	-0.06296996
99	0xbd00c5d6	-0.03143867
100	0x3e1675a8	0.1469332
101	0xbe344bfd	-0.17607112
102	0x3c30bd77	0.010787359
103	0x3d95fa68	0.07323152
104	0x3cd6fe82	0.026244406
105	0xbe274331	-0.16334225
106	0xbde71a2f	-0.11284291
107	0xbe09ed43	-0.13469414
108	0x3dcf014e	0.10107671
109	0xbd436cf9	-0.047711346
110	0xbd276c90	-0.040875018
111	0xbdbd71a5	-0.092501916
112	0x3e08b678	0.13350856
113	0x3e1b9708	0.15194333
114	0x3b7833fb	0.003787278
115	0x3e358883	0.17727856
116	0x3d916e7f	0.071011536
117	0x3d3d3c51	0.0462001
118	0xbdd481c6	-0.10376315
119	0x3dcc83ad	0.09986053
120	0xbd4b8f20	-0.04969704
121	0x3e10ba21	0.14133503
122	0x3d0aad07	0.033856418
123	0xbc7b309e	-0.015331415
124	0x3bb41ed1	0.0054968377
125	0x3e03c460	0.1286788
126	0xbda9d404	-0.08292392
127	0x3e17ba9d	0.14817281

model.transformer.encoder.layers.0.linear2.weight f4 [32, 128]
0	0xbe5d9860	-0.21640158
1	0xbd564297	-0.0523096
2	0x3e022937	0.12711035
3	0x3d982572	0.07429017
4	0x3d0a6d7d	0.033795822
5	0xbe513c83	-0.2043324
6	0x3df17b9f	0.11791157
7	0xbdcd508f	-0.10025131
8	0x3c0214d7	0.007939539
9	0xbde5e594	-0.11225429
10	0x3dc76e33	0.09737816
11	0x3e19588d	0.14975186
12	0xbcc4dc94	-0.024030961
13	0x3e06f1b8	0.13178146
14	0xbcdf1173	-0.02723
15	0xbe2656eb	-0.16244094
16	0xbdc43a66	-0.09581451
17	0xbdef2e01	-0.116786964
18	0xbd288f68	-0.041152388
19	0x3d0e9896	0.034813486
20	0xbe06061f	-0.13088273
21	0xbcc28960	-0.023747146
22	0xbd8dabc3	-0.069175266
23	0xbda46743	-0.08027508
24	0xbe265737	-0.16244207
25	0xbdd67658	-0.10471791
26	0xbd5d5376	-0.054034673
27	0x3db5e220	0.088810205
28	0xbdb125db	-0.086497985
29	0x3e2963e2	0.16542009
30	0x3d1edbbc	0.038783774
31	0xbc77a326	-0.015114581
32	0x3d9f840c	0.07788858
33	0x3da84112	0.08215536
34	0x3b657503	0.0035012371
35	0xbdd9aaa6	-0.10628252
36	0xbe31c3f5	-0.17359908
37	0x3c95fa04	0.018307693
38	0x3ca22763	0.019794172
39	0xbdf961d9	-0.12176866
40	0x3ccabddf	0.02474874
41	0xbda3b3c1	-0.0799327
42	0x3d55f2e2	0.052233584
43	0xbe176272	-0.14783648
44	0x3ca86ee7	0.020560695
45	0x3e1fe0ca	0.15613094
46	0x3d98b331	0.07456053
47	0x3e1cbc61	0.15306236
48	0x3e0bd7f9	0.13656606
49	0x3d33e8d4	0.043923214
50	0xbe162835	-0.14663775
51	0x3dc895b4	0.097941786
52	0x3e056026	0.13024959
53	0xbd9a3e7c	-0.07531449
54	0xbe278df9	-0.16362752
55	0x3bca993a	0.006182817
56	0xbe2c5dde	-0.16832682
57	0x3be8620c	0.007091766
58	0xbd83ed5a	-0.064417556
59	0xbda9fbe5	-0.08299998
60	0xbe2d021b	-0.16895334
61	0x3de2db11	0.1107694
62	0x3cd8f3d2	0.02648345
63	0xbe48cd82	-0.19609645
64	0x3df41358	0.11917752
65	0x3e3f3135	0.18671115
66	0x3d3d8e97	0.046278562
67	0x3df4c924	0.11952427
68	0x3e1d88c8	0.15384209
69	0xbd867db1	-0.065669425
70	0xbd3da035	-0.046295363
71	0xbdfcb966	-0.123400494
72	0x3db3ae1d	0.08773444
73	0xbc55ae6e	-0.013042076
74	0xbe0ff4d2	-0.14058235
75	0x3d230b69	0.039805803
76	0xbde899ab	-0.11357435
77	0xbe22f29a	-0.15912858
78	0x3e2a4515	0.16627915
79	0x3e266107	0.1624795
80	0xbe3e8f05	-0.18609245
81	0xbdf6fde8	-0.120601475
82	0x3d6418d0	0.055687726
83	0xbbeb5ccc	-0.007182693
84	0xbd269ee5	-0.040678877
85	0x3b7d1342	0.0038616215
86	0x3c8eae12	0.017416988
87	0x3cc11a2e	0.023572054
88	0x3d150ae0	0.036387324
89	0xbe147541	-0.14497854
90	0x3ddc850e	0.10767566
91	0x3cab59a5	0.02091677
92	0xbe11aa4c	-0.1422512
93	0x3d78c4ba	0.060734488
94	0x3d149a9d	0.036280263
95	0xbe2cec5d	-0.1688704
96	0xbe13b0df	-0.1442294
97	0x3ce229ac	0.027607761
98	0xbe372ed4	-0.17888957
99	0x3dab82f3	0.08374586
100	0x3e0e0dab	0.13872401
101	0x3dae0ca6	0.08498506
102	0xbd96f074	-0.073700815
103	0xbc99cea8	-0.0187753
104	0xbe086d5c	-0.13322967
105	0x3d4b523d	0.049638975
106	0x3d06f4ac	0.03294818
107	0xbe2a90c5	-0.16656788
108	0x3d516aa5	0.051127095
109	0xbda4002a	-0.08007844
110	0x3dc4b64a	0.096050814
111	0x3dffb87d	0.1248636
112	0x3caca15a	0.021073032
113	0x3d3f6479	0.046726678
114	0xbe30128e	-0.17194578
115	0xbe3eee35	-0.18645556
116	0x3e15578f	0.14584182
117	0x3e1d42f8	0.15357578
118	0xbe5de8c3	-0.21670823
119	0xbda3b7c0	-0.07994032
120	0xbdc669aa	-0.096881226
121	0xbda6bad5	-0.08141104
122	0xbdf8de5b	-0.12151786
123	0xbe26dbfb	-0.16294853
124	0xbca885a6	-0.020571541
125	0x3e1d330d	0.15351506
126	0x3d5e83c4	0.05432488
127	0x3dcb7be5	0.099357404
128	0xbda3f44d	-0.08005581
129	0x3e2a42c6	0.16627035
130	0xbc888f6f	-0.016669957
131	0xbe1c5f44	-0.15270716
132	0x3e186b1e	0.14884612
133	0xbe3f7f3e	-0.18700883
134	0x3d05f55d	0.0327047
135	0xbe3f36cf	-0.18673252
136	0xbd048f3e	-0.03236317
137	0x3e1831b6	0.14862713
138	0x3e252e15	0.1613086
139	0xbd40ae61	-0.0470413
140	0xbda6c818	-0.081436336
141	0x3d3f741c	0.04674159
142	0xbe3cb35b	-0.18427794
143	0xbda83c10	-0.08214581
144	0x3d632535	0.055455405
145	0xbd0f8b73	-0.0350451
146	0xbe3f340e	-0.18672201
147	0xbd5e4330	-0.054263294
148	0x3e341deb	0.17589538
149	0x3c440c0f	0.011965766
150	0x3c2cc008	0.010543831
151	0x3d616e69	0.055036936
152	0x3c3c9368	0.011509754
153	0x3e03eeb5	0.12884028
154	0x3e365b29	0.17808212
155	0xbe278c23	-0.16362052
156	0xbe2e8db2	-0.1704624
157	0xbd4392c7	-0.0477474
158	0xbd5c3779	-0.05376384
159	0x3def93c0	0.11698103
160	0xbd8b75bd	-0.06809566
161	0x3e042001	0.12902834
162	0xbd73f0ff	-0.059556004
163	0xbdc3fb59	-0.09569425
164	0xbc191b94	-0.009344954
165	0x3e421d9e	0.1895661
166	0xbda10b57	-0.07863491
167	0x3e0e36c5	0.1388808
168	0x3d8a3997	0.06749266
169	0xb80fe280	-3.43048e-05
170	0x3d2c5b79	0.042079423
171	0x3cc2141b	0.023691228
172	0x3d0388c5	0.032112855
173	0xbe2bf010	-0.16790795
174	0xbd5ebef9	-0.054381344
175	0xbd5f0c8f	-0.054455336
176	0x3d378b88	0.0448108
177	0x3df0c62e	0.1175655
178	0xbdc70944	-0.09718564
179	0x3dd6899c	0.10475466
180	0x3e0b5455	0.13606389
181	0x3db7a8f1	0.0896777
182	0xbe3c4b38	-0.18388069
183	0xbe28399a	-0.16428223
184	0xbdfcac53	-0.12337556
185	0xbe0f255a	-0.13979092
186	0x3dce04b8	0.10059494
187	0x3c7bb8db	0.015363897
188	0x3c12f243	0.0089688925
189	0x3d943a1c	0.07237646
190	0x3ddadaae	0.10686241
191	0x3e11ed68	0.1425072
192	0xbc8fc5a3	-0.017550295
193	0x3e13f264	0.14447933
194	0x3d48d73a	0.04903338
195	0xbdb37e83	-0.087643646
196	0xbe043251	-0.12909819
197	0x3e1bebc6	0.15226659
198	0xbe326e37	-0.17424856
199	0xbe2e27c6	-0.1700736
200	0x3ccf8e5d	0.025336439
201	0xbe1c1d65	-0.15245588
202	0x3e288c62	0.16459802
203	0x3d7e8d82	0.06214667
204	0xbcdb08dd	-0.026737625
205	0xbc972e9c	-0.018454842
206	0x3e06a8dd	0.13150354
207	0xbe32930e	-0.1743891
208	0x3dd32765	0.10310248
209	0x3da4308b	0.08017071
210	0xbc915b57	-0.01774375
211	0x3e075140	0.13214588
212	0x3d1ee79f	0.03879511
213	0xbdf26a0b	-0.11836632
214	0xbe21f355	-0.1581548
215	0xbce0d177	-0.02744363
216	0xbde0ec1e	-0.10982536
217	0x3d402d38	0.046918124
218	0x3e1506d9	0.14553393
219	0x3dd574ed	0.104226924
220	0xbe496393	-0.19666891
221	0x3dcf2a13	0.10115447
222	0x3dd9c013	0.106323384
223	0x3dbf1bfc	0.093315095
224	0x3e0ad25d	0.1355681
225	0xbbdfa6e9	-0.006825317
226	0x3dc8b59b	0.098002635
227	0x3d88ec39	0.06685681
228	0xbd9cc975	-0.076556124
229	0xbd5194f8	-0.05116746
230	0xbd625a7e	-0.05526208
231	0x36e80fba	6.9159696e-06
232	0x3d1018ca	0.03517989
233	0x3ce9f7af	0.028560488
234	0xbe484a6a	-0.19559637
235	0xbdcc045c	-0.09961769
236	0x3d8fc744	0.07020429
237	0x3da838cd	0.08213959
238	0x3db66ca7	0.089074425
239	0xbe0af12e	-0.13568565
240	0xbde9133f	-0.11380624
241	0x3df07513	0.1174108
242	0x3db1deec	0.08685097
243	0xbe28b944	-0.16476923
244	0x3e362954	0.17789203
245	0x3dc7d5f4	0.09757605
246	0xbe43976b	-0.1910073
247	0xbdad2a52	-0.084553376
248	0x3b1368a8	0.00224928
249	0x3ddd806d	0.10815511
250	0xbe374168	-0.17896044
251	0xbe0b4740	-0.13601398
252	0x3e44808d	0.19189663
253	0xbe29bf83	-0.16576962
254	0x3d295190	0.04133755
255	0x3e077774	0.13229162
