models/dgsr_pre_train/8_covar_koza/controller.pt (torch, 872973 bytes, 196 tensors)

state_manager.parent_embeddings.weight f4 [9, 16]
-1.118278 -1.1567131 -0.2432759 -0.44299245 0.8436507 0.6927456 -0.3105573 -2.1071172
0.32105234 -1.2673845 0.3448655 0.30609593 0.12411538 1.2474508 1.1168048 -0.25378457
-1.340561 -1.6898441 0.5629374 0.78098875 0.60798734 -1.5501975 -0.3479327 1.8597798
0.75872695 -0.586992 -0.17943336 0.1868134 1.4021287 1.5946454 0.93884933 -0.8583737
-0.60173684 0.031692203 -0.48902932 0.23796202 0.43773332 0.13092081 0.63821894 0.4306099
-0.0977827 0.78912026 -0.28425014 0.053251926 0.53264403 2.3088272 -1.4591327 -1.58961
-0.6667642 0.8623487 1.0562314 0.17347166 -0.2351649 -0.39059156 0.5402428 -0.3854973
-0.44142002 0.7571288 1.5173185 3.4076068 -1.528745 -1.2454122 1.8198398 -0.5523415
-0.57216823 0.9179147 1.1079942 1.2949057 -1.47801 2.5871518 -0.45711124 0.3257225
-1.6156397 -0.55195296 -0.48369098 -0.50234234 -1.057539 1.1123904 -0.1552307 0.81169206
-0.093957454 0.6840721 -0.8341931 0.008353105 0.83672494 -0.40388152 1.040788 0.36241966
-0.25124478 2.3133962 -1.8893999 -0.045792382 -1.0490487 -0.96027005 0.04056173 0.70890707
1.6509717 -1.3615912 0.3434146 0.5271089 -2.6146476 -1.6876141 -0.23357645 0.26224798
0.25644115 0.06732673 0.33539692 0.4579724 0.45788604 -0.856342 0.7824988 -0.93195504
-0.21614403 -2.4378471 -0.06474615 -0.026071379 0.9617491 0.3599344 -0.9118109 -0.05358283
-0.61942005 -0.46650663 1.9217643 -0.41061765 0.12528841 1.1695818 0.9399402 1.3807048
-0.88587236 -0.42860037 -0.8010049 0.5683621 0.5990082 0.46424773 1.9559264 -1.0617037
-0.081223205 0.12490923 -0.59008265 -1.24739 -0.11296667 -1.0312638 -0.30888465 0.24677303
00000000: bc23 8fbf 2d0f 94bf 511d 79be e8cf e2be
00000010: 7ef9 573f c757 313f 5e01 9fbe 02db 06c0
00000020: f960 a43e a839 a2bf 3692 b03e 9bb8 9c3e
00000030: 3430 fe3d 78ac 9f3f 76f3 8e3f 0df0 81be
00000040: 8197 abbf d04c d8bf aa1c 103f e1ee 473f
00000050: 0fa5 1b3f df6c c6bf 3c24 b2be 440d ee3f
00000060: ee3b 423f 1c45 16bf 61bd 37be 034c 3f3e
00000070: f478 b33f 571d cc3f 6e58 703f 61be 5bbf
00000080: 6d0b 1abf afcf 013d 0d62 fabe 51ac 733e
00000090: 951e e03e 1b10 063e 5162 233f e778 dc3e
000000a0: 4c42 c8bd c903 4a3f 3c89 91be b11e 5a3d
000000b0: 5c5b 083f d3c3 1340 dcc4 babf 5778 cbbf
000000c0: 0fb1 2abf e2c2 5c3f 9732 873f 8ea2 313e
000000d0: 11cf 70be 9efb c7be 5a4d 0a3f e75f c5be
000000e0: ce01 e2be 31d3 413f 7e37 c23f 3b16 5a40
000000f0: ebad c3bf ab69 9fbf 83f0 e83f 4166 0dbf
00000100: 9e79 12bf 75fc 6a3f c1d2 8d3f 78bf a53f
00000110: 6f2f bdbf e593 2540 7c0a eabe 19c5 a63e
00000120: 48cd cebf ca4c 0dbf 58a6 f7be 8299 00bf
00000130: 705d 87bf cf62 8e3f ccf4 1ebe 0dcb 4f3f
00000140: c46c c0bd 591f 2f3f ae8d 55bf 76db 083c
00000150: 9b33 563f 8fc9 cebe 8b38 853f 128f b93e
00000160: 28a3 80be af0e 1440 dbd7 f1bf cb90 3bbd
00000170: 3a47 86bf 42d4 75bf 0e24 263d ef7a 353f
00000180: 0a53 d33f 9f48 aebf 0ad4 af3e 9cf0 063f
00000190: 6356 27c0 bd03 d8bf aa2e 6fbe 5e45 863e
000001a0: 414c 833e 99e2 893d 25b9 ab3e 5c7b ea3e
000001b0: 0a70 ea3e 3b39 5bbf d751 483f 9b94 6ebf
000001c0: dc54 5dbe b005 1cc0 a199 84bd a593 d5bc
000001d0: 3035 763f 5249 b83e 706c 69bf ab79 5bbd
000001e0: 5092 1ebf f5d9 eebe 5ffc f53f 7a3c d2be
000001f0: 9b4b 003e dbb4 953f ec9f 703f efba b03f
00000200: 88c8 62bf 8271 dbbe a80e 4dbf 2e80 113f
00000210: 9a58 193f e1b1 ed3e cc5b fa3f e8e5 87bf
00000220: 5a58 a6bd 69d0 ff3d a80f 17bf 7aaa 9fbf
00000230: 125b e7bd 7400 84bf 2126 9ebe 12b2 7c3e

state_manager.sibling_embeddings.weight f4 [17, 16]
-0.24148181 0.12858649 0.24822398 1.1728015 0.27889943 0.37724635 -0.21285053 -0.10916486
0.17979603 -0.77653193 -1.8897516 0.13812867 -0.7052811 0.29600552 0.16139682 0.3832759
0.9657258 -0.9915152 0.30551195 -0.11448778 1.0116351 -0.5000734 0.76695067 0.6394024
0.30104876 0.2228697 -0.1056522 0.3526733 -0.3174126 -1.072347 0.22916095 -1.3892822
-0.058412097 -0.3588049 -1.5682168 -0.34468165 1.0799285 0.12528566 1.5846695 0.7828756
-1.0821128 -0.72265637 1.4742655 0.28371164 0.6647212 -0.9906821 -1.1906614 -1.1797334
-0.5518616 0.5288054 0.40180266 0.4014212 0.158566 0.8723032 -0.29079548 1.0263226
-0.08938916 -1.0894707 0.39597276 0.59424376 0.65536493 -1.1985736 0.6072772 -0.5459584
1.1782006 0.0989414 0.9407001 0.85503405 -1.2333916 0.97805923 -0.48880064 -1.273672
0.9494712 1.2722944 -0.6596875 0.58456695 0.28500083 -0.012508775 -1.0580722 -0.105210215
-0.33574197 1.579902 0.2119504 0.3835726 -0.1509889 0.617942 -0.30292827 -1.3279436
-0.15244976 -0.54182816 -0.5204075 0.8578972 -0.8619432 0.82598794 1.1472661 -1.7868211
-1.4818658 -1.7660211 0.06980312 -1.0804275 1.4431716 -0.11402353 0.57766294 -0.16391727
-0.06147024 1.0430951 0.9125025 -0.47927293 -0.86770046 0.14848907 1.8932364 0.39103222
-0.00856632 -0.78181505 -0.47042912 -0.3461606 0.5632972 -1.1772476 -0.15998693 -0.1781032
-0.12721352 1.3740921 0.6205298 -0.48111367 -0.3337939 -1.3549972 1.6822886 2.0539186
-0.24105074 0.69484395 0.57719964 0.26091358 -2.0605223 0.5308737 -0.5217272 -0.8682712
-0.028326292 1.1763675 0.40944502 -0.20637265 -1.1446846 -0.32531154 0.9333102 -1.1513345
0.5719975 0.8091004 -0.1979762 -0.72071445 -0.08393334 -0.9890533 0.06843951 -0.48016906
-0.8345141 0.82614934 -0.6238141 1.3004029 1.4757072 -0.62283105 1.004113 -0.43270856
-0.62968427 -0.22398931 -0.50295186 0.7830121 0.087465316 -1.1029265 -0.12992258 -1.0410333
-1.1987458 0.4881535 -1.2230486 -1.395294 1.544179 -0.036179896 -0.42884472 -0.24915119
-0.13161199 -0.062957026 0.40724787 1.1319132 1.9261017 0.996781 1.0058467 -0.43061754
-1.2583877 1.2977878 0.25169575 0.52696455 -0.013826585 -2.228682 1.4683032 -1.2221941
0.6458528 3.9198878 -0.12372519 0.3057969 0.3907678 -0.5734233 -1.000314 1.3539029
1.9405373 -1.2809877 -2.3497016 -2.0648825 0.9080339 -0.68930227 1.9585541 -1.1001263
0.5289158 1.5242345 1.0916916 1.242864 0.12383601 1.622601 0.47217318 1.295091
0.87830305 0.07652922 0.77679545 -0.9670866 -0.87937087 -0.31035835 -0.35058185 0.46436015
0.49600932 0.8849686 0.3894994 1.4554546 0.46674818 -0.5471395 -0.036943167 0.65223706
-0.2999663 -0.5570115 -0.47238833 -1.2820001 -0.17508046 0.548842 -0.18876395 -0.21805398
0.277047 0.78799325 1.265999 0.9298196 0.5464622 -1.5439292 0.3129687 0.71740556
1.4661124 4.1164675 1.0982263 -1.5842555 -0.7098147 0.58539385 1.2381805 -0.63966584
00000000: 0247 77be 2dac 033e 6d2e 7e3e 5c1e 963f
00000010: e8cb 8e3e 6f26 c13e 7df5 59be d391 dfbd
00000020: 731c 383e ccca 46bf 61e3 f1bf 9a71 0d3e
00000030: 4d8d 34bf 098e 973e 3545 253e bd3c c43e
00000040: ce39 773f f1d3 7dbf 106c 9c3e 9278 eabd
00000050: 427d 813f cf04 00bf e156 443f e0af 233f
00000060: 1023 9a3e f437 643e 2e60 d8bd 9891 b43e
00000070: e883 a2be ab42 89bf 2ba9 6a3e 00d4 b1bf
00000080: 8641 6fbd 47b5 b7be 54bb c8bf 1d7a b0be
00000090: 193b 8a3f e24a 003e 73d6 ca3f 896a 483f
000000a0: ac82 8abf 0200 39bf bbb4 bc3f a742 913e
000000b0: 2b2b 2a3f 589d 7dbf 9867 98bf 8101 97bf
000000c0: cd46 0dbf ca5f 073f 14b9 cd3e 1487 cd3e
000000d0: 205f 223e 434f 5f3f 25e3 94be 8a5e 833f
000000e0: aa11 b7bd c773 8bbf f1bc ca3e 5c20 183f
000000f0: ffc5 273f dc6a 99bf 8576 1b3f eec3 0bbf
00000100: 47cf 963f caa1 ca3d b9d1 703f 83e3 5a3f
00000110: c7df 9dbf 1762 7a3f 1444 fabe af07 a3bf
00000120: 8b10 733f 8bda a23f 48e1 28bf 2ea6 153f
00000130: a1eb 913e 9bf1 4cbc e96e 87bf 7478 d7bd
00000140: 5fe6 abbe 3b3a ca3f 8709 593e a163 c43e
00000150: d69c 1abe 7231 1e3f 6a19 9bbe 0efa a9bf
00000160: ca1b 1cbe 40b5 0abf 6d39 05bf 279f 5b3f
00000170: 4fa8 5cbf f273 533f 9ed9 923f 8eb6 e4bf
00000180: c7ad bdbf fb0c e2bf f0f4 8e3d 734b 8abf
00000190: d9b9 b83f 2b85 e9bd b8e1 133f eed9 27be
000001a0: 38c8 7bbd 2484 853f c499 693f 4363 f5be
000001b0: 9e21 5ebf 850d 183e 9255 f23f 6035 c83e
000001c0: c059 0cbc 0825 48bf 16dc f0be f63b b1be
000001d0: 3f34 103f 0db0 96bf 9dd3 23be af60 36be
000001e0: 4344 02be 40e2 af3f 0adb 1e3f 8854 f6be
000001f0: 09e7 aabe 8c70 adbf 3c55 d73f 6773 0340
00000200: 01d6 76be 4be1 313f 5bc3 133f 7796 853e
00000210: 99df 03c0 57e7 073f ea8f 05bf 0547 5ebf
00000220: 8a0c e8bc 3693 963f c7a2 d13e 5a53 53be
00000230: 0685 92bf 3c8f a6be 6bed 6e3f ee5e 93bf
00000240: 6e6e 123f 3421 4f3f 46ba 4abe be80 38bf
00000250: 3ee5 abbd 9932 7dbf 042a 8c3d b8d8 f5be
00000260: b7a2 55bf 867e 533f 48b2 1fbf 9a73 a63f
00000270: f9e3 bc3f db71 1fbf c686 803f fa8b ddbe
00000280: fd32 21bf 745d 65be 74c1 00bf 7b73 483f
00000290: 0421 b33d b22c 8dbf 6d0a 05be 9440 85bf
000002a0: 8170 99bf 41ef f93e db8c 9cbf fe98 b2bf
000002b0: a8a7 c53f 5f31 14bd 8991 dbbe 7d21 7fbe
000002c0: 4bc5 06be 9def 80bd cb82 d03e 88e2 903f
000002d0: 808a f63f 0a2d 7f3f 96bf 803f e779 dcbe
000002e0: d912 a1bf e91d a63f 44de 803e 26e7 063f
000002f0: e788 62bc baa2 0ec0 5cf1 bb3f db70 9cbf
00000300: 9c56 253f 71df 7a40 a263 fdbd 6991 9c3e
00000310: b812 c83e dfcb 12bf 4a0a 80bf b14c ad3f
00000320: 8763 f83f 68f7 a3bf 8361 16c0 0927 04c0
00000330: e974 683f 1d76 30bf e7b1 fa3f f0d0 8cbf
00000340: 0767 073f 1e1a c33f 8dbc 8b3f 2b16 9f3f
00000350: bc9d fd3d 64b1 cf3f afc0 f13e 8bc5 a53f
00000360: 78d8 603f 5abb 9c3d 11dc 463f fd92 77bf
00000370: 731e 61bf 4ae7 9ebe 777f b3be 9dc0 ed3e
00000380: eff4 fd3e 4d8d 623f 776c c73e 564c ba3f
00000390: 9ef9 ee3e 5611 0cbf b851 17bd 02f9 263f
000003a0: 2f95 99be 4e98 0ebf e2dc f1be 9418 a4bf
000003b0: 4b48 33be e980 0c3f 564b 41be 8b49 5fbe
000003c0: 1bd9 8d3e edb9 493f 410c a23f a808 6e3f
000003d0: f2e4 0b3f 799f c5bf 6f3d a03e e4a7 373f
000003e0: 92a9 bb3f 1aba 8340 ae92 8c3f e2c8 cabf
000003f0: 6bb6 35bf 5fdc 153f b37c 9e3f 24c1 23bf

model.decoder.weight f4 [18, 32]
0.0013765768 0.9688135 -1.0883968 1.7839009 -0.26325977 -0.2717738 0.7525467 -0.6106076
-0.9831744 0.27235046 0.6577262 1.8288746 1.1760428 -0.5681339 0.98203474 -1.4999185
2.2579396 1.2433158 -0.48928702 0.4509031 1.3572755 0.43984327 -0.48379755 -0.17827615
0.29598877 0.10088814 0.37118083 -0.74829644 0.20099634 -0.28271663 1.587893 -0.2390902
-1.2007798 -0.045296755 1.8165627 -1.0331788 3.3941166 -0.56152576 -0.48235577 1.7292805
-0.2190214 -0.33939797 1.319096 1.3190919 0.20826833 1.584743 -0.3784676 1.3705039
0.34772506 -1.5971028 -0.5997629 0.62895495 0.45686042 -0.07302489 0.3261358 -0.19419035
-1.4196308 0.606964 -1.139875 0.019357301 0.20185721 -0.94141245 1.5248642 -3.173409
-0.57049495 -0.43637753 -0.30876416 -1.5546625 -0.011916738 1.2170917 1.550504 -1.6645472
-0.05260342 0.61721265 0.28813088 -0.70632285 -1.0690155 1.6647846 -0.8806966 0.6279882
0.39790517 0.06145218 -1.3247408 -0.7070972 -0.1221774 -0.9849521 -1.0293422 0.68792444
-0.14798313 0.7137688 -2.0001085 -2.422816 0.23498227 -1.709694 1.282169 -1.6671798
-0.5688481 -0.63090265 -0.63163114 0.97710824 0.20626637 0.037983328 1.7000173 -0.69729656
-0.8114579 0.576097 -1.2240864 1.143589 0.72204536 1.2410493 -0.41420847 0.7950805
-0.8162765 0.39457962 -1.6053555 -2.4640894 0.021728573 -0.32097766 -0.37627766 -0.052069537
0.84646326 0.68673164 3.3976865 -1.6780113 0.49242923 -0.2907519 0.3374849 1.1619387
1.3104025 0.89238757 -0.51165277 -1.1735841 -0.7133731 -2.3173158 0.067896865 -0.18118922
-0.07632052 1.9813895 -0.3618432 0.32198623 0.5314338 1.9598378 -0.19303769 -0.040880468
0.11137975 0.022650367 0.81336033 0.42056313 -0.3554361 1.3283056 -0.9505249 0.8695758
-0.092711955 -0.6589004 -0.40477866 -1.6156598 0.50908136 2.3208518 0.20581971 -0.5299165
-0.8731042 0.0075405524 -1.2698711 -1.0940657 0.735205 0.32143584 -0.29291615 1.3199683
0.21457191 0.25484225 -0.9087018 -2.7049146 -0.56762344 -0.2849757 0.1513432 0.518445
0.27559552 -0.96231383 0.91316223 1.5841163 -0.082038105 -0.32795432 0.23497373 -0.29595217
0.13968052 2.4225621 1.3056704 -0.29044613 0.3714038 2.534366 -2.6780882 2.4220812
-0.024884034 -1.0191413 1.0061817 -0.45597407 -0.2821671 0.8411992 -1.0708424 2.2959874
-0.7568077 -0.4720274 -0.46920764 -0.17908984 2.2120104 -0.10926155 -1.0171765 0.16278003
-0.544795 -0.5338747 -0.9143035 -0.69836557 -0.11670264 1.1104877 1.3056039 -0.27217883
-0.8003156 -0.16314211 -2.1376283 0.727626 0.24667113 0.20437886 1.2536396 -1.379268
0.53960353 -0.9546143 0.21516623 -0.34209424 0.5509055 1.5689231 0.5964917 -0.35031667
0.44264856 0.8739505 -1.4435917 1.1534851 -0.27191406 2.2918167 0.29657325 2.1686587
-1.2546906 2.4716997 -0.68723196 1.1799532 -0.5514106 0.83628064 1.9751295 -0.46572557
-0.42759907 -0.4710262 0.31643462 -0.9618159 0.8122631 -0.5572632 0.17915273 0.20823818
00000000: 416e b43a 2904 783f 9650 8bbf dd56 e43f
00000010: fcc9 86be ef25 8bbe e7a6 403f c850 1cbf
00000020: 51b1 7bbf 8571 8b3e bf60 283f 9018 ea3f
00000030: 9288 963f 3971 11bf a166 7b3f 54fd bfbf
00000040: 1582 1040 f924 9f3f d483 fabe c5dc e63e
00000050: 34bb ad3f 2333 e13e 50b4 f7be 068e 36be
00000060: d78b 973e 719e ce3d 6a0b be3e 5b90 3fbf
00000070: fcd1 4d3e 3cc0 90be 1440 cb3f 10d4 74be
00000080: 27b3 99bf 1789 39bd 2085 e83f 343f 84bf
00000090: 3539 5940 27c0 0fbf 56f7 f6be 1059 dd3f
000000a0: 2547 60be 92c5 adbe 23d8 a83f 01d8 a83f
000000b0: 4b44 553e dcd8 ca3f 81c6 c1be ac6c af3f
000000c0: 0509 b23e dd6d ccbf 108a 19bf 3103 213f
000000d0: 9ce9 e93e 138e 95bd 46fb a63e d6d9 46be
000000e0: 76b6 b5bf fe61 1b3f 6de7 91bf 3493 9e3c
000000f0: a8b3 4e3e 6800 71bf c02e c33f 2219 4bc0
00000100: f50b 12bf e06c dfbe 5616 9ebe 2eff c6bf
00000110: 6c3e 43bc a9c9 9b3f ea76 c63f e20f d5bf
00000120: af76 57bd a601 1e3f e485 933e 93d1 34bf
00000130: 80d5 88bf a917 d53f 5575 61bf d6c3 203f
00000140: 3aba cb3e 48b5 7b3d 1b91 a9bf 5204 35bf
00000150: 2538 fabd d225 7cbf 7cc1 83bf d11b 303f
00000160: e488 17be 8db9 363f c701 00c0 6b0f 1bc0
00000170: 319f 703e 41d7 dabf 1d1e a43f 2666 d5bf
00000180: 07a0 11bf d682 21bf 94b2 21bf c423 7a3f
00000190: 7e37 533e 6894 1b3d 2b9a d93f 0782 32bf
000001a0: b4bb 4fbf 187b 133f ddae 9cbf 2061 923f
000001b0: f7d7 383f b4da 9e3f 2213 d4be 658a 4b3f
000001c0: 7ff7 50bf 5706 ca3e 4a7c cdbf a4b3 1dc0
000001d0: 1f00 b23c 2f57 a4be 77a7 c0be de46 55bd
000001e0: d1b1 583f a5cd 2f3f b273 5940 13c9 d6bf
000001f0: af1f fc3e 6fdd 94be d2ca ac3e 68ba 943f
00000200: 45bb a73f 8373 643f adfb 02bf 0138 96bf
00000210: 9f9f 36bf e74e 14c0 830d 8b3d ab89 39be
00000220: ef4d 9cbd 2c9e fd3f 8343 b9be 61db a43e
00000230: 0c0c 083f f7db fa3f acab 45be 4772 27bd
00000240: 111b e43d 438d b93c 6238 503f 0d54 d73e
00000250: b8fb b5be eb05 aa3f 9a55 73bf 859c 5e3f
00000260: c4df bdbd b2ad 28bf 263f cfbe f1cd cebf
00000270: 2853 023f d688 1440 67c2 523e 9ca8 07bf
00000280: c283 5fbf bd16 f73b 238b a2bf 580a 8cbf
00000290: 6536 3c3f 3d93 a43e 1bf9 95be b9f4 a83f
000002a0: bdb8 5b3e af7a 823e aea0 68bf 521d 2dc0
000002b0: c54f 11bf 56e8 91be b6f9 1a3e d0b8 043f
000002c0: db1a 8d3e 335a 76bf 00c5 693f 53c4 ca3f
000002d0: 9803 a8bd a1e9 a7be f49c 703e 0b87 97be
000002e0: 6908 0f3e 420b 1b40 3520 a73f 5bb5 94be
000002f0: a428 be3e 0d33 2240 cc65 2bc0 6103 1b40
00000300: 9ad9 cbbc 3973 82bf 90ca 803f 6f75 e9be
00000310: 3578 90be d558 573f 5d11 89bf 75f1 1240
00000320: 26be 41bf 93ad f1be fc3b f0be 5463 37be
00000330: 9491 0d40 85c4 dfbd d732 82bf cfaf 263e
00000340: af77 0bbf 03ac 08bf cb0f 6abf 16c8 32bf
00000350: cb01 efbd 7624 8e3f 071e a73f 065b 8bbe
00000360: 7ce1 4cbf ba0e 27be e7ce 08c0 b345 3a3f
00000370: 5b97 7c3e b148 513e 4377 a03f db8b b0bf
00000380: 7523 0a3f 9a61 74bf 8954 5c3e fa26 afbe
00000390: 2508 0d3f 79d2 c83f aeb3 183f b55c b3be
000003a0: d5a2 e23e 38bb 5f3f 9dc7 b8bf 66a5 933f
000003b0: 5238 8bbe 20ad 1240 73d8 973e 4ecb 0a40
000003c0: b499 a0bf 5430 1e40 6fee 2fbf b508 973f
000003d0: 3f29 0dbf 7d16 563f 0bd1 fc3f 9573 eebe
000003e0: 44ee dabe 592a f1be b803 a23e 9139 76bf
000003f0: 79f0 4f3f cda8 0ebf d073 373e 643c 553e

model.transformer.encoder.layers.0.self_attn.in_proj_weight f4 [96, 32]
0.21140249 -0.18731423 -0.11007011 0.11277788 -0.1786186 0.0890102 -0.024676403 0.07643963
0.072703116 0.1541931 -0.018262241 -0.050789252 -0.20378184 -0.103133135 -0.006450827 0.14155328
0.2124407 -0.017081996 -0.1428238 -0.18246217 0.0060541113 -0.14074233 0.124939926 -0.1838458
0.0014121145 -0.037858874 0.02337829 -0.0391806 0.042124335 0.11072242 -0.18775886 0.009616492
0.11127593 0.07395562 -0.036844295 0.16032647 0.121319 0.057300266 0.12122965 0.16031042
-0.11534211 0.112253696 0.110769086 0.022141755 0.17878306 0.095325775 -0.20010686 -0.06240364
-0.16191398 0.045943845 -0.010352776 0.08986645 -0.14983082 0.0795394 0.058159925 -0.13452822
-0.18699092 0.0022799352 0.0314764 -0.018257612 -0.017111743 0.10468149 0.11923653 0.08746336
0.047651943 -0.1555969 -0.040603727 -0.022361184 -0.047032006 -0.18489872 0.062970094 -0.06933585
0.07616275 -0.19821343 -0.09797729 -0.071471415 0.1371943 0.10600693 -0.21994226 -0.10997265
-0.0808116 -0.107754216 0.01959974 -0.06646305 0.009709144 0.14896278 0.20670867 0.12976348
-0.1349247 0.196789 -0.21752143 0.19406404 -0.051200833 0.12327795 0.00049038517 0.11532804
-0.022082869 0.14521372 -0.15065722 -0.018192817 -0.10937413 0.06412773 0.10235016 0.017574396
-0.22497956 -0.013596952 0.05707469 0.09868736 0.20139699 -0.10234568 0.061917577 -0.18889405
0.11346029 -0.07705504 0.11150688 0.1286196 -0.2020219 -0.04952644 -0.1615835 0.18576819
-0.028171532 -0.1761811 -0.09511246 0.10984193 -0.18147913 0.16614543 0.19885051 -0.06375478
0.08914589 0.09477166 -0.047553528 0.08760435 0.088248976 0.11811562 -0.018400721 -0.09289962
-0.18420346 -0.15375574 -0.16848266 0.15970922 0.060524147 -0.14735278 0.022891335 0.04880188
-0.0049032103 -0.0017376703 0.13468914 0.13252711 -0.12464992 0.07860911 -0.1726401 0.17527793
-0.054921836 0.18313538 0.07448019 0.16194479 -0.15756235 -0.14607443 -0.06850383 -0.083343424
0.014707793 -0.13531105 -0.102857925 0.10579969 -0.08854982 0.016310232 -0.17912538 -0.20325647
0.14928979 -0.04655021 0.08459898 0.034100458 0.13686328 0.0036604814 0.15192087 -0.06636494
0.04025599 0.06655211 -0.089936346 0.15943119 -0.05204128 -0.05760589 -0.022429047 -0.19606054
-0.037185434 -0.19569837 -0.20047511 -0.01114896 -0.06421614 -0.0737823 -0.043292575 0.19716355
-0.05936584 0.17596447 0.08556029 0.16416828 0.17774338 0.12650447 -0.1163914 -0.08305193
-0.20483759 -0.0056298813 -0.05963796 0.08130256 -0.19019133 -0.1163708 0.058863312 0.12855642
0.13029565 -0.0019630909 -0.060295954 -0.19678864 -0.05751875 0.13187234 0.15985294 0.023787808
-0.1822645 0.20272925 -0.15168071 0.15880361 0.0068011386 0.22701535 0.093430184 -0.16809325
-0.09156017 0.20616505 0.0065556816 0.122819595 0.19922334 0.025393412 0.13672729 -0.17156567
-0.12116243 0.15065286 -0.20529063 0.21941112 0.17860109 -0.2067844 -0.010441205 0.0068850694
-0.14262371 -0.113510005 0.14099196 0.045243043 -0.15947855 0.20632325 0.11913869 -0.1441647
0.021472612 -0.1422374 -0.19839348 0.07955529 -0.037685093 0.11241578 -0.21467653 -0.15275477
00000000: e579 583e 4dcf 3fbe 706c e1bd 17f8 e63d
00000010: cbe7 36be fb4a b63d 2b26 cabc 618c 9c3d
00000020: 5fe5 943d cce4 1d3e b29a 95bc 6408 50bd
00000030: 30ac 50be 7737 d3bd 7561 d3bb 58f3 103e
00000040: 0e8a 593e 8bef 8bbc 6740 12be 5dd7 3abe
00000050: 9161 c63b c21e 10be 81e0 ff3d 1342 3cbe
00000060: b316 b93a e811 1bbd d483 bf3c d67b 20bd
00000070: 918a 2c3d 70c2 e23d dc43 40be 7e8e 1d3c
00000080: a3e4 e33d 0b76 973d 0bea 16bd 9f2c 243e
00000090: 1976 f83d afb3 6a3d 4047 f83d 6a28 243e
000000a0: 7c38 ecbd 44e5 e53d e7da e23d a062 b53c
000000b0: e812 373e 293a c33d d0e8 4cbe f69a 7fbd
000000c0: c7cc 25be 9d2f 3c3d b19e 29bc e70b b83d
000000d0: 406d 19be 8ee5 a23d 1a39 6e3d c4c1 09be
000000e0: 8c7a 3fbe f76a 153b 66ed 003d fd90 95bc
000000f0: ed2d 8cbc 4063 d63d 4832 f43d fd1f b33d
00000100: af2e 433d cb54 1fbe 1850 26bd cd2e b7bc
00000110: a2a4 40bd 1756 3dbe 77f6 803d f4ff 8dbd
00000120: 37fb 9b3d 76f8 4abe 51a8 c8bd 9b5f 92bd
00000130: aa7c 0c3e 291a d93d 8b38 61be 5739 e1bd
00000140: 8d80 a5bd 3eae dcbd a28f a03c c81d 88bd
00000150: 1a13 1f3c b389 183e 70ab 533e b8e0 043e
00000160: b329 0abe 0e83 493e f0bd 5ebe b9b8 463e
00000170: f7b7 51bd 2679 fc3d 318d 003a 1c31 ec3d
00000180: 22e7 b4bc e8b2 143e e345 1abe 1a09 95bc
00000190: 8bff dfbd 6655 833d f69c d13d 2ef8 8f3c
000001a0: 0b61 66be c0c5 5ebc 26c7 693d 991c ca3d
000001b0: 033b 4e3e 9d9a d1bd 499d 7d3d 716d 41be
000001c0: de5d e83d 08cf 9dbd b85d e43d dbb4 033e
000001d0: d4de 4ebe 3ddc 4abd 2576 25be 043a 3e3e
000001e0: fcc7 e6bc d168 34be 52ca c2bd cef4 e03d
000001f0: aad5 39be 0722 2a3e 789f 4b3e de91 82bd
00000200: 1f92 b63d a517 c23d 7dc7 42bd e969 b33d
00000210: e1bb b43d 9ae6 f13d 1cbd 96bc 2842 bebd
00000220: d59f 3cbe 2572 1dbe b886 2cbe d08a 233e
00000230: 2be8 773d a6e3 16be 9c86 bb3c 7be4 473d
00000240: 1cab a0bb 8ac2 e3ba f3eb 093e 30b5 073e
00000250: 7548 ffbd d0fd a03d 91c8 30be 0f7c 333e
00000260: b8f5 60bd d787 3b3e 1289 983d dbd4 253e
00000270: 0658 21be 8994 15be bc4b 8cbd f5af aabd
00000280: f4f8 703c fb8e 0abe 2da7 d2bd 82ad d83d
00000290: 9c59 b5bd 099d 853c a56c 37be 7722 50be
000002a0: 6cdf 183e 6fab 3ebd 3b42 ad3d ecac 0b3d
000002b0: e325 0c3e b0e4 6f3b 2591 1b3e 57ea 87bd
000002c0: 77e3 243d 794c 883d 8c30 b8bd ee41 233e
000002d0: 3d29 55bd 27f4 6bbd 1fbd b7bc 18c4 48be
000002e0: c14f 18bd 2765 48be 5949 4dbe 21aa 36bc
000002f0: c083 83bd 2d1b 97bd 8e53 31bd 3ee5 493e
00000300: 9829 73bd 0830 343e 3c3a af3d bb1b 283e
00000310: 5c02 363e 638a 013e 9d5e eebd 2117 aabd
00000320: f2c0 51be de7a b8bb ef46 74bd f581 a63d
00000330: 84c1 42be d053 eebd a81a 713d 4ba4 033e
00000340: 396c 053e 33a7 00bb e4f8 76bd f682 49be
00000350: c898 6bbd 8b09 073e 7db0 233e a6de c23c
00000360: 8ca3 3abe 4298 4f3e 3052 1bbe 6a9d 223e
00000370: 16dc de3b b676 683e 5358 bf3d a320 2cbe
00000380: e683 bbbd ee1c 533e 0bd1 d63b d788 fb3d
00000390: 3401 4c3e d805 d03c 3d02 0c3e e9ae 2fbe
000003a0: 0224 f8bd be44 1a3e b537 52be 4fad 603e
000003b0: 34e3 363e 4abf 53be 9711 2bbc 269c e13b
000003c0: f30b 12be ef77 e8bd 3260 103e c550 393d
000003d0: 584e 23be 6746 533e fcfe f33d e99f 13be
000003e0: 55e7 af3c aea6 11be a927 4bbe e2ed a23d
000003f0: af5b 1abd 3f3a e63d 2ad4 5bbe bf6b 1cbe

model.transformer.encoder.layers.0.self_attn.in_proj_bias f4 [96]
-0.012078179 0.0073628756 -0.0030015332 -0.012358822 -0.0052027805 -0.014600747 0.010632719 -0.008057415
0.0033640894 0.0107613355 0.0038472316 0.007758734 -0.0067368867 0.0033201727 -0.0033909944 0.007215824
-0.005173605 -0.0071025426 -0.007650282 0.0025746494 0.003362851 -0.0054882835 0.0011753698 -0.010134804
-0.0047067814 -0.013881048 -0.013856959 0.008162653 0.012221578 0.0021958502 0.016096255 -0.014392631
0.006969601 0.00664085 -0.0079657985 -0.0064593614 -0.0111209145 -0.012917437 0.00046509082 -0.004411656
-0.00087614066 0.0019630196 0.008734598 0.0011621917 -0.0029878295 -0.00015371086 -0.0007538826 -0.00097191683
-0.00037866493 -0.0009801958 -0.007154508 0.008013319 0.0032524776 -0.00096114475 -0.0025951013 -0.0030002864
-0.0015753612 0.009256261 -0.0012757838 0.0028721157 0.005723326 0.002413903 -0.0005114783 0.001843145
0.006647405 -0.0010451473 0.0005452278 -0.0005466183 -0.0014098904 0.0012279751 0.0010813791 -0.0011412246
0.0017747735 -0.0040683057 0.0124377655 0.0049658963 -0.004268706 -0.001370331 -0.0004783113 -0.0016357121
0.0018610272 0.0028169376 0.009908135 0.012379527 0.0017200394 0.009490027 -0.011032836 0.0073639164
-0.0020405161 -0.0064267935 -0.0043267244 0.0037000526 0.007992586 -0.0009790858 0.002790169 -0.0019392745
00000000: 8ee3 45bc 4744 f13b 5fb5 44bb a87c 4abc
00000010: 167c aabb f937 6fbc db34 2e3c 3f03 04bc
00000020: 0e78 5c3b 5050 303c d621 7c3b fa3c fe3b
00000030: 1ac1 dcbb 4197 593b 723b 5ebb b872 ec3b
00000040: 5887 a9bb 72bc e8bb 37af fabb 73bb 283b
00000050: 4763 5c3b 0fd7 b3bb de0e 9a3a 730c 26bc
00000060: 583b 9abb 566d 63bc 4c08 63bc a6bc 053c
00000070: 033d 483c 41e8 0f3b 4bdc 833c 12cf 6bbc
00000080: 4061 e43b 7d9b d93b fb82 02bc 0da9 d3bb
00000090: 7f34 36bc a8a3 53bc 6fd7 f339 a78f 90bb
000000a0: ceac 65ba 01a6 003b 8f1b 0f3c af54 983a
000000b0: 76cf 43bb 722d 21b9 34a0 45ba 3cc8 7eba
000000c0: 8c87 c6b9 ea79 80ba 5d70 eabb 4c4a 033c
000000d0: 8527 553b 55f5 7bba 9312 2abb 74a0 44bb
000000e0: 5a7c ceba 93a7 173c 3338 a7ba 1b3a 3c3b
000000f0: bd8a bb3b 9232 1e3b ba14 06ba af95 f13a
00000100: 7ad2 d93b 53fd 88ba 9eed 0e3a ef4a 0fba
00000110: 12cc b8ba 02f4 a03a 10bd 8d3a 2595 95ba
00000120: 849f e83a 6c4f 85bb c5c7 4b3c f5b8 a23b
00000130: 80e0 8bbb ae9c b3ba dbc5 fab9 6465 d6ba
00000140: b6ed f33a 5f9c 383b bb55 223c 80d3 4a3c
00000150: f272 e13a 0f7c 1b3c 11c3 34bc 024d f13b
00000160: 2eba 05bb da97 d2bb 32c7 8dbb 957c 723b
00000170: 56f3 023c ab54 80ba 45db 363b 412f feba

model.transformer.encoder.layers.0.self_attn.out_proj.weight f4 [32, 32]
0.07199347 0.016758658 0.14939456 0.1840204 -0.051506758 0.12320687 -0.04393717 -0.1775558
0.0145805655 0.057441324 0.18105501 0.12468891 -0.011130931 -0.22715387 -0.11501737 -0.29962176
0.07587163 -0.26078537 -0.0068774875 0.23889229 0.1629571 -0.21425122 0.017618088 -0.024995346
0.021533772 0.1058928 -0.1428043 -0.20373622 -0.24535002 -0.1332972 -0.076349474 0.026439015
0.16857074 -0.055315558 -0.2875719 -0.19879751 0.20021655 -0.014818957 -0.020568028 0.102742776
0.123217 -0.12612008 0.09375473 -0.19283733 0.23430912 -0.034258455 0.026342163 -0.20057896
0.22121999 -0.24592176 0.18923631 -0.10239534 -0.093227856 -0.06514031 0.10901197 -0.060276974
0.2212859 0.28735256 0.032915138 0.08912591 0.0922212 0.1799353 -0.30700564 -0.21922573
-0.09917442 -0.1994439 -0.16310099 0.2850743 -0.06555098 -0.21971038 -0.14922966 0.030146558
-0.20378833 0.14482927 0.25867653 -0.17503962 -0.037382245 0.0584443 0.017842421 -0.19879211
-0.2903868 -0.16923589 0.18279392 -0.2502044 0.06350717 -0.11109693 0.17876515 0.075115
0.06116543 -0.06856922 -0.28007853 -0.23372637 -0.07298324 0.29541633 -0.21400672 0.29760036
-0.2143696 0.2505791 -0.11129123 0.28389546 -0.072207905 -0.24493779 -0.057009917 -0.16983724
-0.093891405 0.15042691 -0.060737636 0.13512397 -0.2592105 -0.029165244 -0.028904514 -0.0064381985
-0.12154415 -0.00016831027 0.018931188 0.12069059 -0.19683686 -0.10578937 0.10197519 0.1330482
-0.11188871 0.054438654 0.06580356 -0.2649874 0.021297324 -0.038214333 -0.26125935 -0.026419733
-0.06727507 -0.25481212 0.19166118 -0.10834309 -0.08712314 0.15018646 0.14651674 -0.035267062
0.10800006 0.05837769 -0.31445494 0.2127036 0.13525659 -0.24062234 -0.10258053 0.15769808
0.19999512 0.11558717 0.15183587 -0.20239615 0.2808652 0.25934702 -0.17358485 -0.1055317
0.12000852 0.03759381 -0.056169227 0.018347329 0.21000065 0.22248556 -0.28065637 0.27743572
-0.034796655 -0.08431267 -0.09484761 -0.20282413 0.2899642 -0.25847554 0.1414702 0.016967567
0.11879237 -0.14031653 -0.14001629 -0.115741335 -0.054170463 -0.045097895 0.15188436 -0.21921255
-0.11211171 -0.2955937 0.27453282 0.11351162 -0.047897033 -0.15538903 -0.15511383 0.2589735
0.2526004 0.25861394 -0.27003294 0.14336957 0.12744758 0.12674263 -0.06832139 -0.09890032
-0.15167679 -0.2739567 0.2578134 0.045295116 0.24059294 0.19957937 0.2995509 -0.079394996
0.16873872 0.002528405 -0.009091167 0.084788084 -0.24501422 0.23042558 0.1347902 0.22950503
0.14312223 0.25894135 -0.14689927 -0.1306984 0.28504914 0.20950124 -0.115074165 -0.27795243
-0.21296412 0.2480792 0.13430157 0.15349081 -0.27600226 -0.05935946 -0.23510617 0.070379436
-0.058750324 0.058144864 0.0003640855 -0.039895892 -0.13378505 -0.18691635 -0.29691687 0.0962611
0.18324363 0.038942147 0.27083278 -0.15338829 -0.07869801 0.26027766 0.041793983 0.15387966
-0.04366255 0.11869533 -0.02887923 -0.065961994 -0.27427405 0.23624068 -0.27779707 -0.1908902
-0.2045142 0.05738394 -0.135001 0.0501032 0.117792904 0.14548212 0.18153459 -0.2786762
00000000: 5071 933d 7449 893c e3fa 183e d86f 3c3e
00000010: c0f8 52bd e253 fc3d 76f7 33bd 30d1 35be
00000020: 53e3 6e3c 9847 6b3d 7c66 393e e65c ff3d
00000030: 825e 36bc 069b 68be 3a8e ebbd 0668 99be
00000040: 9662 9b3d a985 85be 8c5c e1bb 2ea0 743e
00000050: 3ade 263e ac64 5bbe cf53 903c 0ac3 ccbc
00000060: 9867 b03c 53de d83d 4a3b 12be 3aa0 50be
00000070: 093d 7bbe 107f 08be 1d5d 9cbd a296 d83c
00000080: cf9d 2c3e 9192 62bd a03c 93be 9391 4bbe
00000090: 9105 4d3e 36cb 72bc 487e a8bc ce6a d23d
000000a0: 3259 fc3d 9f25 01be 7b02 c03d 2677 45be
000000b0: bbee 6f3e 9852 0cbd 85cb d73c 9264 4dbe
000000c0: 7e87 623e ead2 7bbe 2ac7 413e a6b4 d1bd
000000d0: 3fee bebd 4868 85bd ab41 df3d fde4 76bd
000000e0: c598 623e e01f 933e 06d2 063d a587 b63d
000000f0: 78de bc3d f640 383e d82f 9dbe b67c 60be
00000100: f51b cbbd 063b 4cbe f203 27be 42f5 913e
00000110: 983f 86bd c2fb 60be a9cf 18be eaf5 f63c
00000120: e3ad 50be 204e 143e 4071 843e 963d 33be
00000130: 201e 19bd 4a63 6f3d 452a 923c 2990 4bbe
00000140: 94ad 94be 2c4c 2dbe 542e 3b3e cb1a 80be
00000150: 0c10 823d ca86 e3bd 360e 373e e5d5 993d
00000160: 9a88 7a3d 056e 8cbd 7466 8fbe f755 6fbe
00000170: 3d78 95bd cf40 973e 9424 5bbe 135f 983e
00000180: b483 5bbe e74b 803e a8ec e3bd bf5a 913e
00000190: bde1 93bd f9d0 7abe 3b83 69bd d0e9 2dbe
000001a0: 234a c0bd 8309 1a3e 07c8 78bd f05d 0a3e
000001b0: 3db7 84be f3eb eebc 29c9 ecbc 86f7 d2bb
000001c0: 24ec f8bd 727c 30b9 9415 9b3c a12c f73d
000001d0: 9a8f 49be 19a8 d8bd 5ed8 d03d ca3d 083e
000001e0: e825 e5bd 11fb 5e3d 04c4 863d 6eac 87be
000001f0: ba77 ae3c a286 1cbd c9c3 85be 326e d8bc
00000200: 83c7 89bd bc76 82be d442 443e fbe2 ddbd
00000210: 9e6d b2bd 7bca 193e 7c08 163e 3274 10bd
00000220: 232f dd3d 721d 6f3d 3d00 a1be f9ce 593e
00000230: b480 0a3e b465 76be be15 d2bd 9b7b 213e
00000240: 85cb 4c3e f7b8 ec3d dd7a 1b3e f040 4fbe
00000250: 90cd 8f3e 22c9 843e 3ac0 31be 0121 d8bd
00000260: 07c7 f53d f8fb 193d b411 66bd 234d 963c
00000270: 690a 573e 41d3 633e 31b2 8fbe 0e0c 8e3e
00000280: f086 0ebd 1fac acbd 773f c2bd 21b1 4fbe
00000290: 3076 943e e856 84be 90dd 103e 91ff 8a3c
000002a0: 6a49 f33d 23af 0fbe 6e60 0fbe cb09 edbd
000002b0: d9e1 5dbd 92b8 38bd 9387 1b3e 4179 60be
000002c0: d39a e5bd 0f58 97be 918f 8c3e c878 e83d
000002d0: ae2f 44bd 4d1e 1fbe 29d6 1ebe 2d98 843e
000002e0: d754 813e 0c69 843e c241 8abe 79cf 123e
000002f0: 9e81 023e d2c8 013e 16ec 8bbd 408c cabd
00000300: 2951 1bbe 0d44 8cbe 1e00 843e 5f87 393d
00000310: ff5d 763e 895e 4c3e bc5e 993e d899 a2bd
00000320: d8c9 2c3e 99b3 253b 1ef3 14bc 60a5 ad3d
00000330: 02e5 7abe aff4 6b3e 7106 0a3e 5e03 6b3e
00000340: a28e 123e f693 843e c36c 16be cdd5 05be
00000350: f6f1 913e 7e87 563e 01ac ebbd c84f 8ebe
00000360: 4413 5abe 7908 7e3e 5a86 093e b22c 1d3e
00000370: 2b50 8dbe e822 73bd acbf 70be 1823 903d
00000380: 2ea4 70bd 4f29 6e3d bbe2 be39 e069 23bd
00000390: f3fe 08be 0067 3fbe 7d05 98be 8a24 c53d
000003a0: 38a4 3b3e cd81 1f3d 98aa 8a3e d211 1dbe
000003b0: 6c2c a1bd 1d43 853e 2b30 2b3d a192 1d3e
000003c0: 81d7 32bd 8a16 f33d 2394 ecbc 1517 87bd
000003d0: a66d 8cbe 14e9 713e 6b3b 8ebe b878 43be
000003e0: 2c6c 51be 6c0b 6b3d b43d 0abe 0339 4d3d
000003f0: 683d f13d 44f9 143e 34e4 393e a6ae 8ebe

model.transformer.encoder.layers.0.self_attn.out_proj.bias f4 [32]
0.0067598843 -0.006988459 0.0026476926 -0.008435494 -0.0057445974 0.0023805958 -0.0006815111 0.003218432
0.010969124 7.194327e-05 0.0014641343 -0.003987951 0.0033819843 0.0033999917 0.009600965 -0.0051339087
-0.0022137254 -0.0103632435 -0.0029883606 0.005682632 -0.011287813 -0.0042868913 0.0016004202 -0.003980931
-0.0021476867 0.0054381457 0.004932332 0.0019705805 0.004606412 0.0085045975 -0.00019629889 0.0018624862
00000000: 0582 dd3b 71ff e4bb e984 2d3b 0735 0abc
00000010: 2d3d bcbb c503 1c3b 70a7 32ba 54ec 523b
00000020: d7b7 333c 40e0 9638 32e8 bf3a 5cad 82bb
00000030: 48a4 5d3b 65d2 5e3b 5e4d 1d3c 593a a8bb
00000040: 2614 11bb 98ca 29bc 5fd8 43bb 5f35 ba3b
00000050: 85f0 38bc 0d79 8cbb 31c5 d13a 7872 82bb
00000060: 34c0 0cbb 7932 b23b 669f a13b db24 013b
00000070: 62f1 963b de56 0b3c 95d5 4db9 ab1e f43a

model.transformer.encoder.layers.0.linear1.weight f4 [128, 32]
0.15692668 0.07516623 -0.08272876 -0.09805956 -0.15173998 0.03854505 -0.15946901 -0.082679965
-0.020856496 0.12461038 -0.16018377 -0.09172571 -0.14147736 -0.14574476 -0.11479696 0.10781362
-0.026422702 -0.033783685 0.0019287395 -0.08300366 0.16959432 -0.048594218 -0.15554337 -0.026465503
0.03312538 -0.17321602 0.10569989 -0.06700058 -0.09623522 -0.13277972 0.102910034 -0.06558239
-0.073320076 0.041173153 0.17619362 0.11232785 0.15471727 -0.16230083 -0.05176979 -0.0536377
0.17679946 0.17443632 -0.06927835 -0.14871734 0.15862124 -0.06787896 -0.16246484 0.18238954
0.13770364 0.021054624 -0.061886564 0.11921035 -0.18428928 0.04600368 -0.052420978 -0.0463258
0.048105847 0.114892736 -0.07773103 0.089384586 -0.05339491 -0.1560679 -0.17095622 -0.011194108
-0.17622957 0.10071393 0.035239786 -0.10057633 -0.060788695 -0.19050719 0.09386717 0.12270873
0.04288226 -0.17395227 0.1351134 -0.10575755 -0.14968805 0.0067307246 0.13017134 -0.09512783
0.025359834 0.12466436 0.064872414 0.04079919 0.036791924 0.09412841 0.07941092 0.15615155
-0.08613913 0.029767862 0.15096034 0.14678511 -0.011291981 -0.15859431 -0.12859018 0.00040146083
-0.06978422 0.1286161 0.0650215 -0.20049682 0.05848334 0.012835544 -0.17124127 -0.011250674
0.17614096 0.12786211 -0.14967267 0.07781584 -0.0876843 0.068505265 0.048569366 0.0434255
0.16427018 0.14746322 0.16505529 0.090668514 -0.080136694 0.17176992 -0.20346242 0.088266544
-0.1027934 0.16979618 0.035567053 0.16476077 0.041954815 -0.08923946 0.0046362006 -0.06279006
0.068607464 0.156542 -0.039336577 0.13891684 -0.11306191 0.09072673 -0.17334884 0.004281588
-0.07185588 0.16092403 0.08805453 -0.14550021 -0.053106878 -0.09219614 -0.016214592 -0.097363755
-0.06168254 -0.15991396 0.012663207 -0.09675532 0.048454713 0.11145256 0.1855016 -0.14389576
-0.0612585 0.07786931 0.013362999 0.16629142 -0.0058198036 -0.12690604 -0.034495156 0.18025082
0.11835568 -0.10383269 -0.1561464 0.08478026 0.05032191 0.10135421 -0.17741232 -0.15594037
-0.13632049 -0.1376536 0.11464446 0.15631515 -0.038463853 -0.14988755 -0.017331637 0.083397694
-0.1381025 -0.09544174 0.019772595 -0.092560574 0.12457938 0.14790358 0.035588395 -0.14141488
-0.013240083 0.118395165 -0.1264417 -0.032398943 0.16335814 0.09519812 0.07393612 -0.0020815227
-0.055659067 -0.054411065 0.13624822 0.13758832 0.09591569 0.07373033 0.16530748 -0.13871811
0.0751749 -0.057692766 -0.0048487955 0.18076125 -0.09874258 0.0397141 -0.0032617045 0.096552774
0.019824238 -0.13045311 0.11431767 -0.15790807 -0.026564628 -0.05686881 -0.0696532 0.059618533
-0.13212895 -0.1447897 -0.10251661 0.010083492 -0.12966444 -0.064103216 -0.057048365 -0.14322853
-0.16035338 0.12718305 -0.121016085 0.13902883 0.14993191 -0.106049724 0.039689966 0.08861959
0.0023688532 -0.10158618 0.15087828 0.06389551 -0.12861815 -0.01444273 0.15421063 -0.16395423
0.18019775 0.08457314 -0.14579436 0.058749866 -0.05349011 0.111790724 -0.030785765 -0.07632685
-0.012811311 -0.11803906 0.179079 -0.20792082 -0.01359525 -0.12964648 -0.16520132 -0.061794385
00000000: 63b1 203e c1f0 993d b26d a9bd 73d3 c8bd
00000010: ba61 1bbe 6ae1 1d3d d84b 23be 1d54 a9bd
00000020: 3edb aabc ba33 ff3d 3707 24be b0da bbbd
00000030: 71df 10be 1d3e 15be ab1a ebbd 63cd dc3d
00000040: 6c74 d8bc c360 0abd c2cd fc3a d3fd a9bd
00000050: 22aa 2d3e bb0a 47bd c346 1fbe 2fce d8bc
00000060: 7aae 073d 8a5f 31be 2f79 d83d 9a37 89bd
00000070: f916 c5bd 68f7 07be 7fc2 d23d 0f50 86bd
00000080: d628 96bd 2ea5 283d 1a6c 343e 250c e63d
00000090: 346e 1e3e 3032 26be 8f0c 54bd 34b3 5bbd
000000a0: eb0a 353e 6f9f 323e cfe1 8dbd 5c49 18be
000000b0: 9b6d 223e 2004 8bbd 2f5d 26be 53c4 3a3e
000000c0: 2f02 0d3e bf7a ac3c c47c 7dbd 8e24 f43d
000000d0: 54b6 3cbe 5b6e 3c3d 61b7 56bd 1fc0 3dbd
000000e0: a30a 453d e24c eb3d 7231 9fbd 440f b73d
000000f0: 9fb4 5abd 43d0 1fbe 260f 2fbe 7e67 37bc
00000100: 8675 34be 1b43 ce3d 9857 103d f7fa cdbd
00000110: 91fd 78bd 5114 43be 6e3d c03d b74e fb3d
00000120: 4fa5 2f3d 8b20 32be 2b5b 0a3e 6a97 d8bd
00000130: d347 19be 698d dc3b a34b 053e 61d2 c2bd
00000140: 6dbf cf3c 0750 ff3d d4db 843d 0d1d 273d
00000150: 21b3 163d 65c6 c03d 31a2 a23d 31e6 1f3e
00000160: b669 b0bd bbdb f33c 5995 1a3e d64e 163e
00000170: 0002 39bc 8c66 22be 25ad 03be 297b d239
00000180: 07eb 8ebd f0b3 033e fe29 853d 0a4f 4dbe
00000190: 3a8c 6f3d 2c4c 523c df59 2fbe bf54 38bc
000001a0: 4c5e 343e 49ee 023e cb43 19be e95d 9f3d
000001b0: d493 b3bd 7d4c 8c3d acf0 463d f0de 313d
000001c0: 7136 283e 9900 173e 4104 293e 6ab0 b93d
000001d0: b51e a4bd 74e4 2f3e 7458 50be 17c5 b43d
000001e0: 5985 d2bd 0ddf 2d3e c2ae 113d 0cb7 283e
000001f0: d0d8 2b3d 2ec3 b6bd 45eb 973b 1398 80bd
00000200: 1282 8c3d 8c4c 203e 641f 21bd 3740 0e3e
00000210: 018d e7bd f0ce b93d 5c82 31be 904c 8c3b
00000220: 2d29 93bd 45c9 243e ef55 b43d 02fe 14be
00000230: 9986 59bd 54d1 bcbd 77d4 84bc a666 c7bd
00000240: d5a6 7cbd 7cc0 23be 5779 4f3c a727 c6bd
00000250: 7378 463d 3d41 e43d 22f4 3d3e 6959 13be
00000260: 31ea 7abd f279 9f3d 7bf0 5a3c 4c48 2a3e
00000270: 0db4 bebb a8f3 01be cb4a 0dbd ac93 383e
00000280: 7664 f23d 3ca6 d4bd d8e4 1fbe 46a1 ad3d
00000290: 591e 4e3d cc92 cf3d 93ab 35be d5ae 1fbe
000002a0: 9997 0bbe 11f5 0cbe b7ca ea3d 1411 203e
000002b0: 468c 1dbd 1f7c 19be 14fb 8dbc 69cc aa3d
000002c0: be6a 0dbe f576 c3bd 23fa a13c 6690 bdbd
000002d0: 7923 ff3d 0974 173e 23c5 113d 10cf 10be
000002e0: efec 58bc 2a79 f23d ef79 01be c1b4 04bd
000002f0: 5b47 273e 3bf7 c23d d26b 973d 286a 08bb
00000300: c3fa 63bd 23de 5ebd a784 0b3e f4e3 0c3e
00000310: 726f c43d edff 963d 5d46 293e 1f0c 0ebe
00000320: 4cf5 993d 404f 6cbd a5e2 9ebb 7a19 393e
00000330: 8d39 cabd 41ab 223d 52c2 55bb 76bd c53d
00000340: 7166 a23c 8095 05be 621f ea3d a7b2 21be
00000350: 109e d9bc 45ef 68bd 56a6 8ebd 9032 743d
00000360: d04c 07be c043 14be 3af4 d1bd 3b35 253c
00000370: c1c6 04be 8c48 83bd 8cab 69bd 80aa 12be
00000380: ad33 24be 463c 023e 48d7 f7bd 935d 0e3e
00000390: c087 193e 9930 d9bd f291 223d 307e b53d
000003a0: c33e 1b3b 6a0c d0bd d67f 1a3e a6db 823d
000003b0: 7ab4 03be 33a1 6cbc 64e9 1d3e 9ee3 27be
000003c0: c285 383e af34 ad3d 1e4b 15be b3a3 703d
000003d0: 7218 5bbd 89f2 e43d 6e32 fcbc 4051 9cbd
000003e0: 88e6 51bc 76be f1bd 7c60 373e 32e9 54be
000003f0: 9dbe 5ebc 0cc2 04be 892a 29be 1c1c 7dbd

model.transformer.encoder.layers.0.linear1.bias f4 [128]
-0.08044766 0.023662243 -0.08408266 0.038863376 -0.045833837 -0.105216 0.0009697165 0.055331096
-0.028518692 0.004603184 -0.1881496 -0.063204974 -0.18114156 0.17071846 0.15490776 -0.16187213
-0.1425383 -0.14423326 0.09452622 0.030594038 -0.17974235 -0.05366855 0.12677804 -0.00997067
-0.16123103 0.058365196 0.16540806 0.15680079 0.022151101 -0.043930974 0.021973433 0.12909685
0.06302818 -0.14530246 0.093410775 0.11292781 -0.15311572 -0.11711822 0.122770734 0.09782468
-0.16006276 0.050704915 0.088024825 0.024140619 0.08644751 0.067483336 0.047628533 0.11305629
-0.049999077 0.008992116 -0.05135474 -0.023004642 0.069159836 -0.07885676 -0.008377749 0.14698999
0.04671393 0.1654151 5.444521e-05 -0.05779674 0.14259487 -0.12761876 0.0793128 0.1604262
-0.10223081 -0.029401407 0.1551375 -0.010563414 -0.15803385 -0.10223979 -0.1631876 -0.033356845
0.1051421 -0.028143516 -0.036292803 0.025203925 -0.017260877 -0.04623928 -0.059045374 0.013448418
-0.00909749 -0.03276334 -0.049540147 0.055495173 -0.0694164 -0.014817832 -0.030319165 0.13046873
0.07992248 0.07460178 -0.0028285617 -0.116478674 0.011383601 -0.13801324 -0.0055930233 0.16707373
-0.015006423 0.17061722 -0.10564797 0.12118446 0.07115539 -0.07455376 -0.18915784 -0.081283905
0.07827383 0.18020828 -0.1398539 -0.081283934 0.054691687 -0.04002217 -0.16463624 -0.051373832
0.054114994 -0.18622349 -0.06784934 0.10957838 0.084461115 -0.07564322 0.16039436 0.024302771
0.07646055 -0.01111754 -0.0665247 0.14495519 -0.16764006 0.05356074 -0.07790146 -0.063244715
00000000: bec1 a4bd 52d7 c13c 8833 acbd 342f 1f3d
00000010: 43bc 3bbd 7c7b d7bd 9334 7e3a dca2 623d
00000020: 08a0 e9bc 4ed6 963b 4aaa 40be 9c71 81bd
00000030: 2c7d 39be d2d0 2e3e 24a0 1e3e cfc1 25be
00000040: 8ff5 11be e2b1 13be f696 c13d 59a0 fa3c
00000050: 610e 38be 8ed3 5bbd 1ad2 013e 055c 23bc
00000060: bf19 25be 5810 6f3d bb60 293e 6390 203e
00000070: 3a76 b53c f7f0 33bd a101 b43c f731 043e
00000080: eb14 813d 2bca 14be 264e bf3d b246 e73d
00000090: 5eca 1cbe addb efbd 396f fb3d 4e58 c83d
000000a0: 7ee7 23be f5af 4f3d 5c46 b43d 8cc2 c53c
000000b0: 640b b13d b434 8a3d 2316 433d 0e8a e73d
000000c0: d5cb 4cbd ab53 133c 5959 52bd 3b74 bcbc
000000d0: aca3 8d3d a77f a1bd d342 09bc 8b84 163e
000000e0: 1b57 3f3d 9362 293e 195c 6438 46bc 6cbd
000000f0: 6404 123e 7eae 02be c06e a23d c446 243e
00000100: 635e d1bd 38db f0bc 5ddc 1e3e 2b12 2dbc
00000110: a0d3 21be 1863 d1bd a61a 27be 30a1 08bd
00000120: be54 d73d 3b8d e6bc c3a7 14bd 7678 ce3c
00000130: af66 8dbc 6665 3dbd 90d9 71bd c156 5c3c
00000140: a40d 15bc da32 06bd 9cea 4abd e84e 633d
00000150: 2f2a 8ebd 7ec6 72bc e65f f8bc 9899 053e
00000160: 66ae a33d d1c8 983d 645f 39bb 5f8c eebd
00000170: 4982 3a3c 5853 0dbe ae45 b7bb 6015 2b3e
00000180: 80dd 75bc 48b6 2e3e f75d d8bd 8f2f f83d
00000190: ebb9 913d a4af 98bd 98b2 41be 2d78 a6bd
000001a0: 084e a03d 8588 383e dc35 0fbe 3178 a6bd
000001b0: 6404 603d 49ee 23bd 6796 28be 5e6d 52bd
000001c0: afa7 5d3d 5fb1 3ebe 98f4 8abd a16a e03d
000001d0: f3f9 ac3d d5ea 9abd 6b3e 243e 9b16 c73c
000001e0: 5997 9c3d 5826 36bc 1a3e 88bd 226f 143e
000001f0: d6a9 2bbe 8262 5b3d cd8a 9fbd 7286 81bd

model.transformer.encoder.layers.0.linear2.weight f4 [32, 128]
0.09944879 -0.07044985 -0.09374145 -0.00649734 -0.056085147 -0.04981895 -0.0012873246 0.13168265
0.19924901 0.032616828 0.15115406 -0.1507567 0.17812863 0.08821106 0.18115719 0.027645845
0.03849727 -0.0015689754 0.17326139 0.16026567 0.12267018 -0.04592293 -0.15630707 0.039323714
-0.05621887 -0.010617214 -0.11653398 0.042784195 -0.16451904 -0.06691625 0.091999866 0.08575008
0.10845873 0.10746838 -0.13127454 -0.050407354 -0.07393124 -0.16758604 0.0019336732 -0.14865497
-0.14078179 0.039592113 0.17164892 -0.12592159 -0.08671447 -0.06336378 0.05272907 -0.16772999
0.159719 -0.13713095 -0.018449841 0.13344187 -0.018151969 0.15931289 -0.08282524 0.158747
0.10423038 0.1422552 -0.07462498 0.008291547 0.100428015 0.05846869 -0.17286053 -0.14267069
0.11871067 -0.16536865 -0.052516367 0.04493463 0.14137056 0.18280813 0.14051966 0.027456226
-0.19439629 0.18696485 0.16187145 -0.08187513 -0.0062171654 -0.0020813341 -0.10958511 0.05054384
-0.015129147 -0.056499545 -0.11809315 -0.0038534082 -0.13149418 0.013776715 -0.124926284 -0.104484
0.027131893 0.123971745 0.07781931 -0.12456415 -0.028393215 0.16130751 -0.18340951 0.15679884
-0.16717048 0.14612651 -0.039156977 0.1810307 0.09329704 0.05598713 0.0001536643 -0.14299314
0.13866025 0.02768562 -0.13121073 0.00857066 0.08309478 -0.034680076 0.19762495 -0.1397263
0.10989829 -0.07880818 -0.15898529 0.014315173 -0.0519547 -0.045447525 -0.017923232 -0.07137027
-0.03650448 -0.14162873 0.038043886 -0.005834251 -0.16166332 -0.13859905 -0.13962573 -0.046380665
0.14605676 0.01572771 0.09380517 0.013259742 -0.014318697 0.024256546 -0.10467947 0.18371747
-0.06137317 -0.14265409 0.09527541 -0.077883795 0.16617557 0.15117136 0.13663119 0.08932476
0.0137382215 -0.10875479 0.07046142 -0.03743979 -0.03704545 0.16147141 0.064677514 0.17723273
-0.046485446 0.12235842 0.07904197 -0.12291962 -0.121015385 -0.06618794 -0.12806483 0.04625396
-0.18479256 0.12780018 0.09950246 -0.07397993 0.09114571 -0.1215181 -0.09881443 0.077743605
-0.0007909814 0.00064591155 0.20164892 -0.09467151 0.017620077 -0.06670516 0.16820547 -0.113827325
0.0739745 -0.029583378 0.15071921 0.17060965 -0.10136925 -0.1591649 -0.079288624 -0.018665925
0.14490272 0.051385093 0.032451738 -0.03130376 -0.068260886 0.095460005 0.17050113 -0.08506248
-0.0018543152 -0.18845922 0.16088216 -0.026590664 0.18949383 -0.10607644 0.14047115 -0.14246991
-0.17381254 0.11999414 -0.0042156866 -0.047898542 -0.12062038 -0.10517345 0.025502183 0.16166294
-0.079641834 0.017241681 0.104365245 -0.06466228 0.14310008 -0.12802427 -0.054085422 0.08082729
-0.090893686 -0.103900515 0.07460275 -0.16472584 -0.16398752 0.15143563 0.16737108 -0.10948015
-0.1343566 -0.031242093 0.019801075 0.1617226 -0.1429396 -0.12061925 0.013792586 -0.10170514
-0.18161988 0.16824211 0.17999436 0.1291178 0.0879185 0.078763366 -0.13759868 0.046925247
0.1384729 0.106599145 -0.20015405 0.07972615 0.17836262 0.13294545 0.008965871 -0.019332996
0.1287321 0.09289163 -0.017780801 0.07422055 -0.08864393 -0.084434815 0.05383118 -0.10439657
00000000: cfab cb3d 0348 90bd 84fb bfbd a3e7 d4bb
00000010: 8ab9 65bd f50e 4cbd 72bb a8ba d1d7 063e
00000020: ef07 4c3e 3999 053d 21c8 1a3e f75f 1abe
00000030: 5a67 363e 00a8 b43d 4581 393e 8a79 e23c
00000040: 50af 1d3d 14a6 cdba 6f6b 313e af1c 243e
00000050: 813a fb3d af19 3cbd f60e 20be e711 213d
00000060: c245 66bd d3f3 2dbc 5ea9 eebd 7b3e 2f3d
00000070: ae77 28be 630b 89bd 6d6a bc3d bd9d af3d
00000080: 9c1f de3d 6218 dc3d d56c 06be f177 4ebd
00000090: 4369 97bd ad9b 2bbe 4e73 fd3a 0239 18be
000000a0: 1a29 10be 572b 223d bcc4 2f3e 97f1 00be
000000b0: 5b97 b1bd dfc4 81bd 70fa 573d 69c1 2bbe
000000c0: 618d 233e 0e6c 0cbe 1f24 97bc fca4 083e
000000d0: 70b3 94bc eb22 233e 48a0 a9bd 938e 223e
000000e0: bd76 d53d 59ab 113e fbd4 98bd 45d9 073c
000000f0: 34ad cd3d dd7c 6f3d 5a02 31be 4418 12be
00000100: 941e f33d 6656 29be 671b 57bd 600d 383d
00000110: 72c3 103e 0e32 3b3e 63e4 0f3e e1eb e03c
00000120: d20f 47be b773 3f3e a1c1 253e 26ae a7bd
00000130: 5db9 cbbb fe66 08bb 286e e0bd 0f07 4f3d
00000140: 3ee0 77bc 116c 67bd d2da f1bd 7689 7cbb
00000150: 69a6 06be bbb7 613c 5ad9 ffbd b5fb d5bd
00000160: b443 de3c e6e4 fd3d bb5f 9f3d 7d1b ffbd
00000170: e398 e8bc cc2d 253e b4cf 3bbe e08f 203e
00000180: bd2e 2bbe 30a2 153e 1163 20bd 1d60 393e
00000190: 8512 bf3d c352 653d f220 2139 cb6c 12be
000001a0: f4fc 0d3e f4cc e23c 1b5c 06be f46b 0c3c
000001b0: 992d aa3d b20c 0ebd 325e 4a3e 6914 0fbe
000001c0: 5b12 e13d 2f66 a1bd 0acd 22be 308a 6a3c
000001d0: 74ce 54bd 2f27 3abd bed3 92bc 932a 92bd
000001e0: b985 15bd 1f07 11be e8d3 1b3d 3f2d bfbb
000001f0: 128b 25be e9ec 0dbe 0cfa 0ebe a7f9 3dbd
00000200: e78f 153e 66d7 803c ed1c c03d 643f 593c
00000210: f898 6abc aab5 c63c 3162 d6bd 6f20 3c3e
00000220: 6f62 7bbd ea13 12be c11f c33d 8a81 9fbd
00000230: ee29 2a3e aacc 1a3e 0ce9 0b3e e6ef b63d
00000240: 4716 613c d5ba debd 144e 903d 775a 19bd
00000250: f8bc 17bd c358 253e a575 843d 7f7c 353e
00000260: 8667 3ebd 0d97 fa3d c2e0 a13d 48bd fbbd
00000270: ead6 f7bd 8b8d 87bd 6d23 03be cb74 3d3d
00000280: 433a 3dbe 0dde 023e f2c7 cb3d ca82 97bd
00000290: 9aaa ba3d 7bde f8bd 385f cabd 0a38 9f3d
000002a0: dd59 4fba 6452 293a 0e7d 4e3e 23e3 c1bd
000002b0: fb57 903c b79c 88bd 0e3e 2c3e 4d1e e9bd
000002c0: f17f 973d d758 f2bc 2356 1a3e 4cb4 2e3e
000002d0: ae9a cfbd 20fc 22be 1362 a2bd 48e9 98bc
000002e0: 6161 143e 2d79 523d 1dec 043d 5f38 00bd
000002f0: 5dcc 8bbd 8980 c33d d997 2e3e 3d35 aebd
00000300: 7e0c f3ba 74fb 40be 4bbe 243e aad4 d9bc
00000310: ac0a 423e 9b3e d9bd abd7 0f3e a2e3 11be
00000320: eafb 31be 7dbf f53d be23 8abb 4331 44bd
00000330: d107 f7bd 2e65 d7bd f4e9 d03c f88a 253e
00000340: 421b a3bd 6d3e 8d3c 72bd d53d a86d 84bd
00000350: d488 123e cb18 03be ad88 5dbd c788 a53d
00000360: 7826 babd cbc9 d4bd 54c9 983d e4ad 28be
00000370: 58ec 27be f111 1b3e 5363 2b3e 2137 e0bd
00000380: c794 09be 6bef ffbc dd35 a23c 9c9a 253e
00000390: c25e 12be 3a07 f7bd 4cfa 613c c94a d0bd
000003a0: 90fa 39be a947 2c3e 7150 383e 7537 043e
000003b0: 9d0e b43d b04e a13d abe6 0cbe b034 403d
000003c0: d7cb 0d3e a750 da3d 2ff5 4cbe 7747 a33d
000003d0: b1a4 363e da22 083e 97e5 123c 3b60 9ebc
000003e0: 59d2 033e f83d be3d 0ba9 91bc f200 983d
000003f0: f38a b5bd 29ec acbd 157e 5c3d decd d5bd

model.transformer.encoder.layers.0.linear2.bias f4 [32]
0.04189618 -0.031305417 0.0663828 0.02881451 -0.071648344 0.0033523706 0.085893996 0.058960304
-0.026471233 -0.06991795 0.022752505 0.042015076 -0.014098463 -0.07564247 0.0957264 0.03764743
-0.08780709 -0.007003143 -0.025378028 0.08603024 0.036157686 0.0213498 -0.024051659 -0.069586076
0.029814607 0.03661904 0.009211359 0.081956975 0.052067727 -0.06443996 -0.009377765 -0.03669674
00000000: 549b 2b3d 1c3a 00bd b5f3 873d 680c ec3c
00000010: 5ebc 92bd 72b3 5b3b 31e9 af3d 5c80 713d
00000020: 33da d8bc 2431 8fbd 7663 ba3c 0018 2c3d
00000030: 3dfd 66bc 70ea 9abd 340c c43d 3134 1a3d
00000040: 34d4 b3bd 9f7a e5bb 95e5 cfbc 9f30 b03d
00000050: 151a 143d c7e5 ae3c fc07 c5bc 2583 8ebd
00000060: c33d f43c d9fd 153d 3deb 163c 0fd9 a73d
00000070: f844 553d 19f9 83bd 32a5 19bc 524f 16bd

model.transformer.encoder.layers.0.norm1.weight f4 [32]
0.9934379 1.0059935 0.99710256 1.0113858 0.99606186 1.001626 1.0070467 0.9926027
1.0074147 1.0034999 0.9960626 0.9905729 1.0036881 1.0219854 1.0045887 1.0067488
1.0002186 1.0030614 1.0036479 0.9962531 0.9907302 0.9844569 1.0027767 1.0091937
1.0050732 0.9987642 0.99094254 1.0026417 0.9932913 1.002858 1.0022888 0.9983947
00000000: f251 7e3f 65c4 803f 1d42 7f3f 1775 813f
00000010: e9fd 7e3f 4835 803f e8e6 803f 361b 7e3f
00000020: f7f2 803f af72 803f f5fd 7e3f 3096 7d3f
00000030: da78 803f 6bd0 823f 5d96 803f 25dd 803f
00000040: 2a07 803f 5164 803f 8977 803f 710a 7f3f
00000050: 7fa0 7d3f 5e05 7c3f fd5a 803f 422d 813f
00000060: 3da6 803f 03af 7f3f 69ae 7d3f 9056 803f
00000070: 5748 7e3f a75d 803f 004b 803f cc96 7f3f

model.transformer.encoder.layers.0.norm1.bias f4 [32]
0.0058378833 -0.0069448524 0.0030323246 -0.008045914 -0.0055139945 0.0022219268 -0.00010167356 0.0030568633
0.01127532 0.0006934776 0.0009592819 -0.003944096 0.003365019 0.002574359 0.009194761 -0.0049979184
-0.0020732754 -0.010379353 -0.0033228532 0.0057027265 -0.010304556 -0.0038238436 0.00239037 -0.0040843543
-0.0010230258 0.005339176 0.0052442285 0.0027786987 0.004454722 0.008865449 0.00020947523 0.0018412494
00000000: b74b bf3b a591 e3bb f7b9 463b 02d3 03bc
00000010: bdae b4bb bf9d 113b 9439 d5b8 a855 483b
00000020: 1fbc 383c 7eca 353a 5278 7b3a 7a3d 81bb
00000030: a787 5c3b 94b6 283b 9fa5 163c 94c5 a3bb
00000040: cadf 07bb 290e 2abc 3ac4 59bb f0dd ba3b
00000050: 71d4 28bc 7399 7abb c1a7 1c3b 0cd6 85bb
00000060: 0d17 86ba 41f4 ae3b c7d7 ab3b d41a 363b
00000070: ebf8 913b 6340 113c 94a6 5b39 1456 f13a

model.transformer.encoder.layers.0.norm2.weight f4 [32]
1.0003098 1.0039599 0.99605554 1.0108734 1.0015477 1.0021689 1.0068303 0.9959997
0.97909296 1.0057346 0.9973328 0.9946936 1.0030965 1.0140799 1.0040973 1.0041854
0.99712825 0.9915389 0.99683636 0.9964315 1.0093777 0.99331427 1.0051936 1.005312
1.0305172 0.9990265 0.99406826 1.0039084 0.9877756 1.0114396 0.9989168 1.0018947
00000000: 270a 803f c281 803f 7ffd 7e3f 4d64 813f
00000010: b732 803f 1247 803f d1df 803f d6f9 7e3f
00000020: d6a5 7a3f e9bb 803f 3451 7f3f 3da4 7e3f
00000030: 7765 803f 5fcd 813f 4386 803f 2689 803f
00000040: cc43 7f3f 7ed5 7d3f ab30 7f3f 2316 7f3f
00000050: 4a33 813f d849 7e3f 2faa 803f 10ae 803f
00000060: fde7 833f 33c0 7f3f 427b 7e3f 1280 803f
00000070: ddde 7c3f da76 813f 03b9 7f3f 163e 803f
