models/dgsr_pre_train/12_covar_koza/controller.pt (torch, 902509 bytes, 196 tensors)

state_manager.parent_embeddings.weight f4 [9, 16]
00000000: 615e 7b3f b6ec 6b3e c61b 5abf 2a09 99be
00000010: d448 49bf 73fa 88be 6a60 b9bf 9532 ba3e
00000020: 476f 1dbc f818 c5bd 78c7 a83e 98e1 d6bc
00000030: a49b 9b3f 56f1 d2be e0c9 1e3e 4e8e ecbd
00000040: 3fe3 dbbf da3e f03f f7ca 17bf 17e9 d0bf
00000050: 4072 37bf ce61 c8bf a6be f43f d153 6bbc
00000060: 8caa af3e 5607 70be 69cc 363f 1e87 443f
00000070: 1085 313f ca32 c3bf aa93 3dbf 424b 1bbf
00000080: 26b6 983f b93e 043f 7519 b03e d0d9 bbbf
00000090: 8ea0 a7be f4aa 3fbf e5a7 d0be e704 473f
000000a0: ad7a 953f 28d6 ac3f ce7e 6f3e 5f76 c0bf
000000b0: 1b1c 483f f71e 84be 5704 413f aa33 943f
000000c0: 4703 0ebf 80e0 aebf 9867 cf3f 2df9 783f
000000d0: 56ef ba3f be9b 6b3f 5b8f 4bbe 4b18 2e3f
000000e0: 310b adbe 0ecb 5d3f d1f3 263f 85a8 cd3f
000000f0: 1b42 c73f e323 e03d bf5f bf3e f155 c2bc
00000100: b5c3 793f 4b50 563f 73ad 1d3f 9d85 96bd
00000110: a605 3ebf 5ef4 243f a03b 3140 7019 c6bf
00000120: 9a8e 29be 8085 84bf caed 7dbe ffed 9a3f
00000130: 1776 67be c31c 1abf 7937 593f b1cc a43f
00000140: 0d2d 8f3f 6d40 cebe 39ef 0bbf c179 6b3d
00000150: 002f 30be e641 b83f e2d2 49bf 2528 4cbf
00000160: 92b6 27be b3d0 653e 8859 72bf 6c8f 233f
00000170: 011b 213f 5be1 06c0 6099 d4bf ceb5 3c3f
00000180: 6558 243f 40b4 f53f eba3 bfbd 27f7 d63e
00000190: 9968 89bf 792d 843d 024d de3f 65eb 86bf
000001a0: 381e d3be 33fe ce3e bea7 c8bd 3904 67be
000001b0: 4aab 623f 52bc 8dbf 5c8b 4a3f 103f 423e
000001c0: c299 273d f367 e9bf 11d1 97be 0b88 a73f
000001d0: e561 a53f ae39 0e3f c35f 943e 8f5b 7fbe
000001e0: f5e1 903f 9438 b63f f823 88bf d65e df3f
000001f0: 3a4e a33f 5f43 3cbf 6ed9 903f 41bb d33e
00000200: 0282 583e 0416 7bbf 1d9e 843f a1f4 423f
00000210: 43c8 4f3f 79b7 d6bf d100 72bf b3ad c6bf
00000220: b630 d0bf 97f4 3ebf 7877 debe b26c 84bf
00000230: b029 31bf de46 efbd b5ed ac3e 2b5c 9abf
0.98190886 0.23039517 -0.8519863 -0.29889804 -0.7862675 -0.26753578 -1.4482548 0.36366716
-0.00960905 -0.09623903 0.32964683 -0.026230618 1.2156873 -0.4119975 0.15506697 -0.1155058
-1.7178725 1.8769181 -0.59294075 -1.6321133 -0.71658707 -1.5654848 1.9120681 -0.014363245
0.34309804 -0.23440298 0.71405655 0.7676867 0.6934366 -1.5249875 -0.7405344 -0.6066171
1.1930587 0.5165821 0.34394422 -1.4675846 -0.3273968 -0.7487023 -0.40753093 0.77741855
1.1678063 1.3502855 0.23388216 -1.5036124 0.78167886 -0.25804874 0.7539725 1.1578267
-0.5547375 -1.3662262 1.6203489 0.9725521 1.460429 0.9203452 -0.19878905 0.6800582
-0.337976 0.8663796 0.65215784 1.6067053 1.5567049 0.10944345 0.37377736 -0.02372262
0.9756425 0.8371627 0.6159279 -0.073497035 -0.7422737 0.64435375 2.7692642 -1.5476513
-0.16558304 -1.0353241 -0.2479774 1.2103881 -0.22603641 -0.60200137 0.8485027 1.2874967
1.1185623 -0.40283528 -0.546619 0.05748916 -0.17205429 1.4395111 -0.78837407 -0.79748756
-0.16378239 0.22442894 -0.94667864 0.6389072 0.6293183 -2.1075046 -1.6609306 0.7371491
0.6419738 1.9195633 -0.09357437 0.41985437 -1.0735046 0.06453986 1.7367251 -1.0540587
-0.41233993 0.40428314 -0.09797619 -0.22560205 0.88542616 -1.1073096 0.79118896 0.18969369
0.04091812 -1.8234848 -0.29651693 1.3088392 1.29205 0.5555676 0.2897931 -0.2493727
1.1318957 1.4236016 -1.0635977 1.7450817 1.2758248 -0.735403 1.1316354 0.413538
0.21143344 -0.9808047 1.0360752 0.76154524 0.8116495 -1.6774741 -0.94532496 -1.5521759
-1.6264865 -0.74591964 -0.43450522 -1.0345671 -0.69204235 -0.11683439 0.33775106 -1.2059377

state_manager.sibling_embeddings.weight f4 [21, 16]
00000000: d1bd 8d3f 0eb0 e4bf aee9 5b3f 414d 31be
00000010: ec6c 2340 fd0a bcbe 8ea7 ddbe 298b 8fbf
00000020: bd64 17c0 6e63 07bf c378 ca3f 0a0a 89be
00000030: 7ef2 a3be 894b f13e 049e c9bf 18b3 de3d
00000040: edee 46be 2159 84bf a2d1 6a3e a9f0 91bf
00000050: 0fbb 05bf 26c5 85be ffde 25bf 83b8 c1be
00000060: 7e85 df3f ef62 ffbd 6cb4 6c3f 180d 293f
00000070: a652 78bf 3d02 8bbf 92f6 e7be 704c 763f
00000080: eee6 ebbe 92d2 c9be 5f82 7fbf a3ea 2bbe
00000090: 80d3 75be c790 053f 87e9 793e 5cf1 7e3e
000000a0: efc4 acbc d823 b2bd 8884 7a3f 680e 9bbe
000000b0: 284b 62bf 1876 ac3d f11d a03e a575 afbf
000000c0: 2505 f13e 6e0b 9abf e9a0 00bf 6c21 093f
000000d0: d942 bbbe c61f a0bd 51d4 2b3e 2e9e a0bf
000000e0: e5c7 0c3e 7de0 1240 edc4 7b3f 40e6 1fbf
000000f0: 7f50 1240 c5b0 95bf 4180 21bf 8831 9cbf
00000100: 8d5a 18c0 b1aa 073d 70da 333d e5bb d9bb
00000110: d62b b13e be50 44bf b0e3 d2bf e0df bb3f
00000120: 573e eebe 1c6c 10be d4b9 a4bf c9f5 8dbe
00000130: 4ffb 07bf 0704 d63d 6eb7 503f 768c 97bf
00000140: ecee a83e 3c70 263f 38e8 c1bf 4f86 5abf
00000150: 3657 413e f44d 1240 8d4f 9abe 22a8 093f
00000160: 1bc1 483f ca88 24be a5c1 1a3f 2e4d 0c3f
00000170: 0ef2 bebf 9e78 fe3e 49e5 473e d5c5 35c0
00000180: 20a1 293f eddd 91bf 7194 833f 42e1 aebd
00000190: 2d39 fb3e ef91 3a3f 90bc 91be 800d 303f
000001a0: fde6 8a3f 4620 dbbe ead4 7dbd 195d dc3e
000001b0: 5e42 263f f41f a93d 110d 883e ac57 5f3e
000001c0: 1fae 2bc0 62ca c13d 84e8 9fbf 3651 94bf
000001d0: c691 0fbf d1b2 58bf 5541 353e 1cd0 4dbf
000001e0: 14e5 cdbf 4663 c0bf da19 a93e 3d2b 383f
000001f0: eec2 c53f b478 ac3f 32a5 0c40 53a1 b03e
00000200: 6d15 33c0 c007 9a3e 8192 0cc0 51aa c73e
00000210: 58a8 333f ae67 96be 4d02 28bf 66f8 4bbf
00000220: 441c 2a3f 8e5c 16c0 5d9e 8a3f 772d 40bf
00000230: db2d 26bf ecbc 133f cf52 203f 771b 3ebe
00000240: 572a 47be 5654 89bf 94c6 3a3e b071 1b40
00000250: 9632 e1be 5d09 063f a84d f23e d12f cdbe
00000260: 61d7 bfbe 8c36 11c0 ba39 103f 10f1 b5be
00000270: 2df3 9f3d 55ba f03e 6101 35bf 9cf8 f03e
00000280: 90c3 b63f 5630 5a3f 7489 41bf 7c9c 43bf
00000290: 82d8 593f d0f6 1a40 33ca 6f3f e41d 00be
000002a0: f72b 72bd 269b 373f 005c 4d3f 96dd 393e
000002b0: 5ddc abbe 6067 8b3e 45cd 1a3f 805c 2d3f
000002c0: 4be6 ecbf 931b fbbe b773 0c40 af51 1fc0
000002d0: 714a 553f e3a1 533c ea09 3ec0 648e 143f
000002e0: e87b 1d3f c299 6f3e 46ad 92bd 6fa6 b0bf
000002f0: ab01 c23f 1de1 0740 e920 05bf be1c 833f
00000300: 5491 07bf 86b6 0fc0 2e8d 3a3f 0b55 dabb
00000310: dc15 00bd d9a3 2a3e 6637 86be 7df4 e9bf
00000320: 379b dbbd d6e5 a23f 6dd5 133f 54d5 3a3f
00000330: c174 7d3f 9267 8dbf d8a9 1040 87f0 1e3f
00000340: c304 55be 7356 75bf 3308 863f 6259 c9be
00000350: db7f 4b3f ccd1 b33f 27cf 95bf 1428 ca3e
00000360: c79d 39bf 7ab8 373f 3522 113e 501e 39c0
00000370: b181 253e 679d abbe dcdc 45bf 4cb5 6e3f
00000380: e353 3140 cc8e 23bf 38f1 1abf cf7f 7c3f
00000390: a235 c43f 25cf 64bf 8795 e6be 73bc 503f
000003a0: 1fba a43d 362f df3e 8153 9d3e 531c 393e
000003b0: e615 ae3f a904 883e 43e2 963c 581b 6dbf
000003c0: ccc5 403f 08dd 553e 8502 ed3d c1b1 94be
000003d0: 7bc4 b83e db16 58bf 8344 1c3e dc5d 0c3d
000003e0: 57a9 43bf bf0e 9fbe 8d6f 1cbe 7a0a a53e
000003f0: 7eed 723f 3d88 c33f 535a 9cbe b211 d13f
1.1073552 -1.7866228 0.8590344 -0.17314626 2.553523 -0.36727133 -0.43291897 -1.1214343
-2.3655236 -0.5288609 1.5818104 -0.26765472 -0.32020944 0.4712794 -1.5751348 0.10874003
-0.1942708 -1.03397 0.22931531 -1.1401569 -0.52238554 -0.26126975 -0.6479339 -0.37836084
1.7462614 -0.12470042 0.924628 0.66035604 -0.9700111 -1.0860058 -0.45305306 0.96210384
-0.46074623 -0.39418465 -0.99808306 -0.16788726 -0.24006462 0.5217404 0.2440549 0.24896759
-0.021089999 -0.08698243 0.97858477 -0.3028443 -0.8839593 0.08420962 0.31272843 -1.3707777
0.47074237 -1.2034738 -0.5024553 0.5356662 -0.36574438 -0.0781856 0.16780211 -1.2548273
0.13748129 2.2949517 0.9834736 -0.6246071 2.286163 -1.1694571 -0.63086325 -1.2202616
-2.3805268 0.03312177 0.04390949 -0.006644713 0.34603757 -0.766857 -1.6475735 1.4677696
-0.46531937 -0.1410374 -1.286921 -0.27726582 -0.5311784 0.10449987 0.8152989 -1.183974
0.32994783 0.65015006 -1.5148993 -0.8536119 0.18880925 2.286008 -0.30138817 0.53772175
0.78419656 -0.16067806 0.6045173 0.54805267 -1.4917619 0.497014 0.19521059 -2.8401997
0.6626148 -1.1395851 1.0279676 -0.08539058 0.4906706 0.72878927 -0.28464174 0.687706
1.0851742 -0.4279806 -0.06197063 0.43039778 0.6494502 0.08258048 0.2657247 0.21810788
-2.6825025 0.094624296 -1.2492833 -1.1587284 -0.5608181 -0.8464785 0.17700703 -0.80395675
-1.6085534 -1.5030296 0.33027536 0.71940976 1.5450113 1.3474336 2.1975827 0.3449808
-2.7981827 0.30084038 -2.196442 0.3899713 0.7017875 -0.29375976 -0.6562851 -0.796759
0.6644938 -2.349399 1.0829579 -0.75069374 -0.6491372 0.57710147 0.62626356 -0.18565165
-0.19449745 -1.0728862 0.18239814 2.428814 -0.43983907 0.5235804 0.47324872 -0.40075544
-0.3746901 -2.2689543 0.56338084 -0.3553548 0.07810054 0.4701716 -0.7070523 0.47064674
1.4278431 0.85230005 -0.7560036 -0.7641065 0.8509599 2.4213142 0.93667907 -0.12511402
-0.05912396 0.7172111 0.80218506 0.18150935 -0.3356656 0.27227306 0.60469466 0.6771927
-1.850778 -0.49044475 2.1945627 -2.4893606 0.83316714 0.012917015 -2.969355 0.5802977
0.6151719 0.23398498 -0.071619555 -1.3800792 1.5156759 2.1231148 -0.5200334 1.0243146
-0.5295613 -2.2455153 0.72871673 -0.00666297 -0.031270847 0.16664065 -0.2621414 -1.8277737
-0.10722964 1.272639 0.57747537 0.7298176 0.9900628 -1.1047232 2.2603664 0.62085766
-0.20802598 -0.95835036 1.0471252 -0.39326006 0.79491967 1.40484 -1.1703843 0.39483702
-0.72506374 0.71765864 0.14173205 -2.8924751 0.16162755 -0.33518526 -0.7729013 0.9324539
2.770745 -0.63889766 -0.6052432 0.9863252 1.5328867 -0.8937858 -0.45035955 0.8153755
0.08043312 0.43590707 0.3072777 0.18077211 1.3600433 0.26566055 0.018418437 -0.9261985
0.75301814 0.20885098 0.11572746 -0.29041865 0.36087403 -0.84409875 0.1526051 0.0342692
-0.7643027 -0.31065938 -0.15276928 0.32234555 0.94893634 1.5275952 -0.30537662 1.6333525

model.decoder.weight f4 [22, 32]
00000000: cd80 02bf f1a3 05c0 2b5e b23f a8da 06c0
00000010: 7bfc 86be 5adf 0c40 4168 823e 3f01 23be
00000020: 989d 823d 366a ac3f e5d0 183c 5724 ab3f
00000030: c865 c53b 210d a73e 4672 353f 092e 7cbf
00000040: 350a 383f 8304 8d3f b8b9 99be 81e1 ccbf
00000050: 1638 1ebd 2e76 6c3f 4864 583f 1609 413f
00000060: 6a70 bebf 6889 ec3f ccf6 bdbf 0687 9dbe
00000070: 010c a43f 0383 613f 5f8c 24c0 ae79 45bf
00000080: f163 8ebf c7e5 fcbe f3b7 063e 7b70 b3be
00000090: f231 333f 142d 58bf 7df8 b2bf 90f6 3b3f
000000a0: ae1d 93be 706b c73f c83c 25bf a2aa 943f
000000b0: 490c e23e 8779 8b3f 9399 a73e ea6b 223f
000000c0: 9a29 a0be 91f3 90bf 35c1 95bf 4b52 0c3f
000000d0: 8ed6 983f 8cb8 913e 7df2 a4bf 71f3 01bf
000000e0: 3cc3 ccbe 1596 3bbe 434a d03e 970b 09bf
000000f0: 9f84 483f 1e03 da3e 9963 bfbe 5040 1dbf
00000100: b0dc bb3e 6a56 d1be c490 a03f eebc 11be
00000110: 90e9 a33f 5cb3 89bd dbc2 89be 671e d9be
00000120: 7ebb 4c3f d376 afbf fe95 cbbe 7004 fe3f
00000130: d12e 9d3f 9610 94bd 3f61 a23e 4f20 8dbd
00000140: 883f d53e 275d 00be 9bef 15bf 4b6b 5bbf
00000150: 4159 5f3f b653 1f3f 44c2 95be 36df 0b3f
00000160: 9c21 fdbe 9e51 843f 55fe 0cbf b8e1 b53e
00000170: bf1e ac3f 6332 81bf dedd 4f3f c080 57bf
00000180: 598d 41c0 487a a1bd 750b 4e3f a0dd 453f
00000190: a1ba bdbd 9cf6 25be 490e b63e e2f1 8ebe
000001a0: 751a 0f3e f220 57be 6f2d bbbf bc86 e03e
000001b0: 6ec0 ddbf 37bf 2bc0 a0ac 87be ff18 cbbf
000001c0: aad2 133e 1fcc 16bf 7d59 6d3f 00af 013f
000001d0: cc0c 563f 1139 0840 bd5a 1dbf da4c ccbf
000001e0: b590 083f 7086 57be e575 d73d 1dd2 e4be
000001f0: 0a4c 673f 07cc 1fbf 25cd 203f 02df bd3d
00000200: 1770 1540 dbce acbf 92d6 2fbe 871c c5be
00000210: be70 7bbe ed57 c63f f52e 983e 2a4f 3940
00000220: 9707 b7bf 3fce 0b3f 0193 f23e 0cb7 12c0
00000230: 4251 4b3f 8a3f 0d3e 7027 ffbf 76c4 a5bf
00000240: 3a16 c6be 7799 eebf 60ca cfbf 8823 32bf
00000250: db0b f93e b0ed 72bf 8192 44bf 4099 aabf
00000260: 191c 5f3f e722 3d3e 4fa7 eb3d 6fdc 033f
00000270: 6292 c2bf e473 0a3f bb38 13bf 1f65 94be
00000280: fbd3 82bf e453 f13f 1bec 4d3f 7584 a8bf
00000290: 0cad 183e bde7 9d3f 8fc4 f83e e0bf 6abf
000002a0: 48bc 983f 4e98 413f 029f 2fbf b5af e03e
000002b0: c52a 8c3e 7cef 06bf 147c b4be d3e3 9d3e
000002c0: 92b6 893f 1069 81bf 778d 2cbe b38b 983f
000002d0: 495f 9ebf 00f9 ebbe 7701 2cbf 3871 3fbf
000002e0: 967a 283f 034f b8bf 47fe b2be b69a 4b3f
000002f0: f744 97bf af64 303f b0e6 18bf 509c 993f
00000300: d9ed 2bbe 9719 ab3f 7674 23bf c339 5abf
00000310: 07bb e13f 7b3c ed3f 2099 f5bb 6942 6f3f
00000320: f9ce 59bf 6009 673f 0e68 063f 8a9c 7a3e
00000330: ec8b d0be d5e3 7ebf 4d54 27bc 80e0 8a3f
00000340: a758 2abf fdc8 103d 6c58 babe cc6d 923e
00000350: 6500 7cbf bd68 02bf 5274 c63e 4102 d43f
00000360: a849 3abf 289d 91bf d2dd 45bf 9fdd dbbf
00000370: 5afb 623f 1758 7f3f eb36 a83e 5108 ad3f
00000380: b93c c23f c77f 22bf 20b7 e2bd a136 d0be
00000390: 9805 b3bf 8b93 afbe a23f a63f be76 cabf
000003a0: 3c7b babf 01c3 9dbe cb48 313f fe8c 69bf
000003b0: bcdb 743f 745c 64bf 5e74 3cbf df99 b6be
000003c0: e258 5fbf 1a77 61be e4a7 973f 16b9 dabe
000003d0: 841e 4abf 5ed3 9cbf 8c94 68bb 9904 6d3d
000003e0: 37d4 823f 9372 63bf a7f6 bc3f ae2a 8b3f
000003f0: abcc a63f 85ae 473f 779f 8dbf e6d0 f3bf
-0.50977784 -2.0881312 1.3934988 -2.1070957 -0.26364502 2.2011323 0.25470164 -0.15918444
0.06377715 1.3469913 0.009327148 1.3370465 0.006024096 0.32627204 0.7087749 -0.98507744
0.71890575 1.1017002 -0.30024505 -1.6006318 -0.038627706 0.9236783 0.8452802 0.7540449
-1.4878056 1.8479433 -1.4840941 -0.30767077 1.2816163 0.88090533 -2.5710676 -0.77138793
-1.112425 -0.49394056 0.13156109 -0.35046753 0.69998085 -0.84443784 -1.3982083 0.734231
-0.2873358 1.5579662 -0.6454587 1.1614573 0.44149998 1.0896462 0.32734355 0.63445914
-0.3128174 -1.132433 -1.1699587 0.5481307 1.1940477 0.2846111 -1.2886502 -0.5076209
-0.39992702 -0.1831897 0.40681657 -0.5353331 0.78327364 0.42580503 -0.37380674 -0.6142626
0.3669181 -0.4088624 1.2544179 -0.14232227 1.2805653 -0.06723663 -0.26906475 -0.42406008
0.7997359 -1.3708137 -0.39762872 1.9845104 1.2279912 -0.07229726 0.31714818 -0.06890928
0.41650033 -0.12535535 -0.58568734 -0.8571059 0.87245566 0.6223711 -0.29249775 0.5463747
-0.49439704 1.0337408 -0.5507558 0.35523772 1.3446883 -1.0093502 0.8119792 -0.8418083
-3.0242522 -0.078846514 0.8048623 0.772913 -0.09264112 -0.16207355 0.35557774 -0.27918917
0.13974936 -0.21008661 -1.462324 0.43852794 -1.732435 -2.6835458 -0.2649889 -1.5867003
0.1443583 -0.58905214 0.92714673 0.50657654 0.83613276 2.128483 -0.6146658 -1.5960953
0.53345805 -0.21047378 0.105205335 -0.44691554 0.903504 -0.62420696 0.62813026 0.09271051
2.3349664 -1.3500627 -0.17171696 -0.38498327 -0.24554726 1.5495583 0.29723325 2.8954568
-1.4299191 0.5461158 0.4737778 -2.2924223 0.79420865 0.1379377 -1.993391 -1.295058
-0.38688833 -1.8640584 -1.6233635 -0.69585466 0.48641858 -0.9489393 -0.7678605 -1.3328018
0.8715225 0.18470345 0.11506521 0.5150823 -1.5200922 0.54083085 -0.5750844 -0.289834
-1.0220941 1.8853726 0.80438393 -1.3165423 0.14909762 1.2336346 0.48587462 -0.9169903
1.1932459 0.75623024 -0.68602 0.43884054 0.2737638 -0.52709174 -0.35250914 0.3083788
1.0758841 -1.0110188 -0.1685084 1.1917633 -1.2372829 -0.4608841 -0.67189735 -0.74782133
0.6581205 -1.4399112 -0.34959623 0.79532945 -1.1817921 0.6890363 -0.59727 1.2000828
-0.1678995 1.3367184 -0.6384958 -0.8524439 1.7635201 1.8534082 -0.0074950606 0.9346071
-0.8508144 0.9024868 0.52502525 0.24473777 -0.40731752 -0.99566394 -0.01021297 1.0849762
-0.6654152 0.035347927 -0.36395586 0.28599393 -0.984381 -0.5094107 0.3876062 1.6563188
-0.7276864 -1.1376085 -0.77291596 -1.7177008 0.8866478 0.9974379 0.328544 1.3518163
1.5174781 -0.6347622 -0.110700846 -0.4066668 -1.3986082 -0.34292254 1.2988169 -1.5817487
-1.4568858 -0.3081284 0.692517 -0.9123076 0.9564779 -0.8920357 -0.7361506 -0.3566427
-0.87245 -0.2201809 1.1848111 -0.42719334 -0.78952813 -1.2252004 -0.0035488931 0.057865713
1.0221013 -0.888467 1.4762772 1.08724 1.303121 0.7800067 -1.106429 -1.9048126

model.transformer.encoder.layers.0.self_attn.in_proj_weight f4 [96, 32]
00000000: caf2 c038 a221 563e 60b6 363d 071a e73d
00000010: 20c4 cbbd d905 053e 2b4a 17be d2dc 743e
00000020: 3157 10bd eddc cf3d a063 0cbe 3e7f f03d
00000030: c0c6 53bd 6ae3 5a3e 7bc7 00b8 e849 e2bd
00000040: 2c16 b0bd 1582 94be 37b1 4e3d 2378 37be
00000050: b621 d4bd 153e e03d 4052 21be e201 bd3d
00000060: c6c6 dbbd 5435 2d3e a581 39be d881 53be
00000070: 3f63 b5bd ac3f 8e3d 17b2 b1bd ba29 f4bb
00000080: ee5d 6b3d 109b 9f3c ddd6 15be 44c9 e9bd
00000090: dbc4 e0bc 1867 adbd 9d9f a2bd aa59 283e
000000a0: e85b babd 7e63 c13d bba6 8d3d b455 093e
000000b0: 5b6e 593e a5f6 b73d ca2d 7ebe 47fa 14be
000000c0: a2b6 04be e5a5 92bc ae6f 9fb9 00b3 83be
000000d0: 931f d0bd 5bca 1e3e 3c63 e93d f8eb 1ebe
000000e0: dc71 c7bd fa4a cf3c cbd6 de3d e3be 2ebe
000000f0: 3d34 3e3e 43e9 73bc 1b71 28be 6c82 5c3c
00000100: b030 57bd f213 ebbc c36c 5c3e 4bec 25bd
00000110: 6834 723e f4c7 2fbe 1e0c 5c3d 097f 1cbe
00000120: f6f5 9dbd 70ef 013e 5f1e 40bd a40a 06be
00000130: 0fe3 bbbc 6088 2ebc 99b8 713e 22e0 273c
00000140: 6451 2ebd fc4e 48bc f6dc 6dba 14de 963d
00000150: 93cf 343e 1e7f 64be ec42 253e 0e3a 2abd
00000160: 99b2 103e 0708 e9bd 9881 dc3c f88c b7bd
00000170: e5f9 fc3d 2101 353e 8d77 153e 64ac 5e3e
00000180: b04d 6b3d 3ff1 e93d 728e 31be a01f 893d
00000190: f52f 17be a84e 023d 09f6 97bd 5061 c7bd
000001a0: 2147 0abe 9ce8 fe3d 0b13 e43d 1df1 babd
000001b0: a3c5 093c f1f8 c03d 7c8b 17be 8da0 3abe
000001c0: 45e3 f83d db03 b0bd b516 24be 1da0 443e
000001d0: 5790 b13d fbd8 b63d fbf9 1dbe 7ac8 0ebe
000001e0: b030 0c3e b597 bebd a002 20be 684a 52bc
000001f0: bca6 263e cc37 7cbd d466 36be 4cff f73d
00000200: b115 843e d53e 76be 9c54 103e fd7c 1b3e
00000210: f9f5 053c 2b66 6fbe 3a5d fe3d e3c0 cd3d
00000220: e5d8 70bd 2e9f 843d 97bd 7c3c 5d98 2dbc
00000230: d4cd d73d ce54 6e3c 0482 41be eabf 663d
00000240: 29ab d6bd 2b18 173d 0ab5 2ebe e04f 7cbd
00000250: a3fb 07be 1ddb b7bd 7d6c 46bd a14d 383e
00000260: e446 0dbe 1e84 303c 7737 d83d d9c5 4b3e
00000270: 472b f2bd 637c c43d 4b22 07be 95a2 513e
00000280: d4b3 223e fb87 afbd 569d 52be 708e 10be
00000290: c951 5f3e e666 44be 4fcb 4c3d 1ea3 07be
000002a0: 1101 4ebe 97f8 22be 5626 47be 7819 f43b
000002b0: 2501 1b3e a316 c93d 2e17 1a3e 7be3 07be
000002c0: 4f29 ab3d 3bd9 bcbd cbf2 43bd e552 01be
000002d0: 1736 463e 24ac 2ebe f6aa 213e 871e 54be
000002e0: aa4c dd3d 0b0c bfbd 284a 263d 9dd1 bd3c
000002f0: 2c29 51be 21b6 1ebe 52aa ab3d 2f02 9ebd
00000300: 3788 ce3d 93c8 21be bbe4 bc3d 6181 0d3e
00000310: a66b 10be 6a00 04be ae28 a63d 1b87 033e
00000320: ef9c f8bd 29a0 3cbe d46e 87bd fbd9 ca3d
00000330: e0db 58bd 793d 3f3d ca09 213e eccd 68be
00000340: 5448 9dbd f9cc 393e 882a 67be 2682 22be
00000350: 41fe 413e 1c4d 10be 04b6 163e 3aaa 973d
00000360: 660e c53c 91b6 5abe 53ce 003e dce1 2bbe
00000370: c01f b6bd 8fe6 533e 6239 ab3b 4683 223d
00000380: ec64 923c 59fc dd3d 9f56 e9bd 73a2 f13c
00000390: 5b5e f43c 1184 2fbd f61b c8bd a0d4 3f3e
000003a0: 4d91 02be ac6c cebd bddc f8bc 8bac f0bd
000003b0: e267 313e 3af2 c23d 90a3 64be 3e9d 153e
000003c0: 8383 7f3d e5e3 e43d 985c 653e 206d ccbd
000003d0: 0b16 25bd f653 1a3e 4149 f33c c2da 683d
000003e0: 4a32 3e3e 2cd5 3f3e 445e cebd 3b47 ff3d
000003f0: e6e3 3abe 235d b23d e8ef 31be c48e b1bd
9.2004964e-05 0.20911267 0.04460752 0.11284261 -0.09949517 0.12990512 -0.14774387 0.23912361
-0.035239402 0.1014956 -0.13709879 0.117430195 -0.051703215 0.21375814 -3.070336e-05 -0.11049253
-0.08597979 -0.29005495 0.050461974 -0.17916922 -0.10357992 0.10949341 -0.15754032 0.09228875
-0.107312724 0.16914874 -0.18115862 -0.20655 -0.0885682 0.06945738 -0.08676546 -0.0074512633
0.057462625 0.01948312 -0.14632745 -0.114153415 -0.027437618 -0.08466929 -0.079406 0.16440454
-0.09099561 0.09442805 0.06916567 0.134116 0.21233504 0.089825906 -0.24822155 -0.14548598
-0.12960294 -0.01790137 -0.0003041005 -0.25722504 -0.10162272 0.1550688 0.113958806 -0.15519702
-0.09738514 0.025304306 0.10880812 -0.17065005 0.18574615 -0.014887157 -0.16449396 0.013458829
-0.052536666 -0.028696034 0.21525864 -0.04050855 0.23652804 -0.1716612 0.053722493 -0.15282835
-0.07712929 0.12688994 -0.046903964 -0.13089997 -0.022935418 -0.0106526315 0.23605575 0.0102463085
-0.04255809 -0.012225863 -0.0009073758 0.07366577 0.17657308 -0.22314116 0.1613881 -0.04155927
0.1413063 -0.11378484 0.026917264 -0.089624345 0.12352351 0.17676212 0.14596386 0.2174545
0.057447135 0.11422967 -0.17339495 0.06695485 -0.14764388 0.031813294 -0.07419974 -0.09735358
-0.13503696 0.124467105 0.11136445 -0.0912802 0.008408937 0.09422482 -0.14799303 -0.18225308
0.12152723 -0.08594485 -0.16024287 0.19201703 0.08670109 0.089281045 -0.15427391 -0.13943663
0.13690448 -0.093062796 -0.15626001 -0.012835123 0.16274542 -0.06157665 -0.17812663 0.12109241
0.257978 -0.24047406 0.14094776 0.15184398 0.00817632 -0.23378818 0.12420125 0.10046556
-0.058800597 0.064756736 0.015426061 -0.010595408 0.105373055 0.014546586 -0.18897253 0.056335367
-0.10481865 0.036888283 -0.17061248 -0.061599612 -0.13279586 -0.089773394 -0.048443306 0.17998363
-0.13796574 0.010773687 0.10557454 0.19899692 -0.11824661 0.095940374 -0.13196675 0.20472176
0.15888911 -0.08570858 -0.20567831 -0.14116836 0.21808542 -0.19179878 0.049998578 -0.13245818
-0.20117594 -0.15915142 -0.19448218 0.007449325 0.15137155 0.09818771 0.15047905 -0.1327037
0.08357488 -0.09221121 -0.047838967 -0.12629278 0.19356571 -0.17057854 0.15787873 -0.2071477
0.10805638 -0.09328469 0.040598065 0.02317124 -0.20425862 -0.15499164 0.083820954 -0.0771526
0.10084575 -0.15799169 0.092233144 0.13818885 -0.14103565 -0.12890783 0.08113228 0.12844507
-0.12139308 -0.18420471 -0.06612936 0.09904858 -0.052944064 0.046689484 0.1572639 -0.22734803
-0.07679811 0.18144597 -0.22574818 -0.1586996 0.18944646 -0.14091915 0.14717871 0.07405515
0.024054717 -0.21358706 0.12578706 -0.16785377 -0.088927746 0.2069342 0.0052253464 0.039675973
0.017870389 0.10839147 -0.11393475 0.029496407 0.029830148 -0.042850558 -0.09770958 0.18733454
-0.1275074 -0.10079321 -0.030378694 -0.1175166 0.17324784 0.09518857 -0.22328019 0.14610764
0.06238128 0.1117628 0.22398603 -0.099817514 -0.040304225 0.15071091 0.029698016 0.05684925
0.18573871 0.18733662 -0.100765735 0.12464758 -0.18250999 0.08709171 -0.17376673 -0.086698085

model.transformer.encoder.layers.0.self_attn.in_proj_bias f4 [96]
00000000: be2e 2fbd 3b72 1abd 027f c43c 046c 323d
00000010: 34f0 2c3d 1db3 293c dc79 953a 9052 66bc
00000020: 5c7f 553c 2dc5 c03d 2dde bd3d 77fe 0abd
00000030: 9ab8 a0bd 4d34 25bd eedb 3b3d 94d0 8abd
00000040: dc37 9fbd a287 c33c c696 05bd 01aa 1c3d
00000050: 4912 7e3b da32 c4ba 50cb cd3b 5aeb 3f3d
00000060: 32ce 923d 0a9a 2a3d 3749 fcbc 43d3 39bd
00000070: 559a 18bd 22af 2ebd e2e4 cb3c 8b4f 273d
00000080: b11d 36bd 2d8c 2abd e31b 353d 3fee 48bd
00000090: 20b5 393d 1e3b 503d 038a 7f3d 7fd1 9f3b
000000a0: cb42 eebc 9ccb 663d 5914 7e3d 4794 66bd
000000b0: 2446 43bd cdc3 5fbd b2d3 633d 3762 45bd
000000c0: fa28 5cbd 2119 523d a6c6 0b3d 057d a8bc
000000d0: 894d 713d 6e9f 4b3d 0359 4dbd 8455 453d
000000e0: e51b 5b3d 700e 6c3d 4f45 933c 2c02 28bd
000000f0: 32a1 76bd bfd1 0a3d 92c6 2d3d ffa5 7e3d
00000100: 83b8 0b3c fe76 e83b 0139 b13c a72f e73c
00000110: 2521 e837 1395 a6bc 3561 a33a f81a 48bc
00000120: b9e6 053c 5825 9f3b 841c 80bc b4a8 a03c
00000130: faf0 893c 7f73 03bb 5d72 27bc 7de8 253b
00000140: d4e5 6dbb 0c7b fd3c f8ac 4dba c0cc 3cbc
00000150: 7903 103c 9765 9eba 3bbb ffbb 53f7 263d
00000160: 44c3 953c 404b ec3b 4631 043c 8c97 8fba
00000170: 8c89 17bc 6642 81ba bf1a 7b3b 9837 0e3c
-0.042769186 -0.037706595 0.023986343 0.043560043 0.042221263 0.010357645 0.0011404115 -0.01405777
0.013030853 0.09412608 0.09270892 -0.033934083 -0.0784771 -0.04033308 0.04586404 -0.06778064
-0.07774326 0.023868386 -0.032614492 0.038248066 0.0038768223 -0.0014968768 0.0062803403 0.046855308
0.07168235 0.04165081 -0.03079663 -0.04536749 -0.037256557 -0.04264749 0.024889413 0.040847342
-0.04446191 -0.04163759 0.044216048 -0.049055334 0.04533875 0.05083763 0.062387478 0.004877269
-0.029084584 0.05634652 0.062031124 -0.056293752 -0.047674313 -0.05463009 0.05562181 -0.048189368
-0.053750016 0.051293496 0.034124993 -0.020567426 0.058911834 0.04971259 -0.050133716 0.048177257
0.0534934 0.057630956 0.017977385 -0.041017696 -0.06021232 0.033891436 0.0424257 0.062170025
0.008527878 0.007094263 0.021633627 0.028220965 2.767199e-05 -0.020334756 0.0012464883 -0.012213461
0.008172684 0.0048567466 -0.015638597 0.019611694 0.01683854 -0.0020057855 -0.010220137 0.0025315576
-0.0036300318 0.030942462 -0.0007845904 -0.011523426 0.00878989 -0.001208472 -0.007804302 0.04076321
0.018281586 0.007211119 0.008068388 -0.0010955199 -0.009249102 -0.0009861707 0.0038315502 0.008680247

model.transformer.encoder.layers.0.self_attn.out_proj.weight f4 [32, 32]
00000000: cb7d 32be eee5 a63e 547b 2f3e d7c1 573e
00000010: ef47 66be 2ffb 82be 4530 81be a288 0f3e
00000020: 8f34 173c bb3a 33be 271c 873e c929 8d3e
00000030: 8e17 bf3d 572d 103e 1637 8cbd e064 0abe
00000040: 8ef2 ac3d 609f 13be 42ae 4c3e bfd7 5d3e
00000050: 593c 6a3e 8bf7 963d 6e24 c4bd 3c6c 923e
00000060: 7f12 4c3e 90c8 3abd cedd 7b3e 75e8 1abe
00000070: 322e 063e 57dc 5c3e 2d02 c03d 62df 8cbe
00000080: c304 1e3e 1f4f eebd 1ae4 93be ab26 33be
00000090: 0a07 2a3d f5fd 493e 87cd 7cbe ce44 093d
000000a0: 885a 89be 7a02 3b3d 50f8 9ebd a40a 80be
000000b0: 0ad6 85be 2837 893d 9f4c 2fbe 465a 8abd
000000c0: 9e29 6abe 1da1 923d 48dd 763e 9956 223e
000000d0: 92d9 503d 56fb 7e3e fa9f df3d 77e2 6dbe
000000e0: a121 c93d d52c 983d 5483 97bc f1c6 3cbe
000000f0: 5098 933e 5ed5 0cbd c8d6 42be 6289 053c
00000100: c5af a0bd 8e6d 783e bfd9 0a3e f40e 863a
00000110: dbea 27bd 3b86 8f3e 0b6e 84be a27b 14be
00000120: 72f7 80be a18f 09be 186a a03d 619f f9bd
00000130: 76f2 d2bd 6ff3 11bd 9b31 ba3d d338 ccbc
00000140: 61f4 5a3e 376f 26be 586f 77be 89bf 83be
00000150: d004 7fbe 13f1 88be 2eec 333e 66b5 753d
00000160: 34ef 543d b9ba 8a3d e1e4 e1bc 7dae 9d3d
00000170: 16f1 893e 6a6c 843d 9283 43be b6c6 4ebe
00000180: 1193 9d3e d69e 343e 54d4 96be 6d29 2fbd
00000190: 7e74 293e 13f4 9a3c e5fc 38be 8c71 063e
000001a0: 91fa aebd 612d 80bc 31fa 6f3d a1b5 0a3e
000001b0: 84ef 1c3e f2c2 1b3e 4bc7 343e f0bf 5ebe
000001c0: 9def 31be 6024 a23e 4043 d23c ff0a 4d3d
000001d0: 5592 88bd eb96 553e fa58 b03e 8000 953e
000001e0: 9ef5 49be 3fa6 9a3e 8d4d 95be 4dc0 813e
000001f0: a2bf 7c3d 2c38 183e 793f 5abe d430 5ebe
00000200: d72e 3fbc 3d84 e43d 56de 343e 74e7 aebd
00000210: e7a4 8dbc fc97 73be 6331 14be 8349 73be
00000220: aacd 933e f26a f5bd bc41 373b d401 71be
00000230: 0840 633e 3a4d d0bc 6e83 25be b056 333e
00000240: f18b cebd 43b2 55bb c8a7 11be 1f03 993e
00000250: 5e7d 87bd 2aa0 90be a560 f6bd a1b8 783e
00000260: a645 933e b62b 8c3c c0e9 a23d 5ea9 383d
00000270: 1ea3 d33d c0a8 dfbd 2a15 8cbe b8c1 debc
00000280: dc63 0ebe 500e 25be fb25 bcbd d865 6b3c
00000290: acdd f6bd 52f0 c33d 71a9 f93d 187b ccbc
000002a0: a2e0 8e3e 2b60 213e 2746 1dbe f515 fabd
000002b0: e40e 5dbe 6c72 373e 118a 323e 2f9d 03be
000002c0: 7d46 9b3e 650e 693e 7887 3d3e b039 6ebe
000002d0: 9991 f53d 26cd 60be fe55 09be 6f78 9ebe
000002e0: a67b d8bd fe25 0dbe 94b0 c3bd 169c 8fbe
000002f0: 4844 01be 2189 58be 0e56 b23d 385c 71be
00000300: 7bd4 b1be 72df 903e c6fc 2a3e 47d5 7e3e
00000310: 726f 8abe 1ac8 733e 84ba a0be 6654 c2bc
00000320: 3ce8 07be 325f e93d 59ce 08bd cca3 36be
00000330: 9316 963e 8913 623d efa7 7c3e 4b79 183e
00000340: 658c cb3d 9c4c 5cbd 1c78 393e c434 87be
00000350: 83a5 373e 7cfe df3c 8ea2 083e 5cf0 30bc
00000360: e47b 573e f65c fcbd 1901 e23d 9b18 143e
00000370: 1880 9e3e fa11 3abe 65a0 893c 029f a63d
00000380: ff36 7dbd 0ab8 51bd af1d 71be 3bc7 8c3d
00000390: df72 1d3e 6b39 863a f81a 743d 5c42 3f3e
000003a0: 5e7c 463c b5ca 43be cd08 59be 2338 793d
000003b0: ec96 9abd fccd 91be a60e 8a3e f2c8 8dbe
000003c0: de55 16bb 35ff 8d3e bc7d c1bd a607 4b3e
000003d0: 2702 053d df17 3f3e 2d77 df3d 1d00 fe3d
000003e0: 388b 83be 5ad0 663d 1373 dc3d 0c53 69be
000003f0: c03e 56bd 68f8 85be 7656 adbd bec6 d63c
-0.17430799 0.32597297 0.1713689 0.21070038 -0.22488378 -0.25582263 -0.2523214 0.14016965
0.00922884 -0.17502873 0.26388666 0.27570942 0.093306646 0.14079796 -0.06846444 -0.13515043
0.08444701 -0.14416265 0.19988349 0.21664332 0.22874583 0.07371434 -0.09577261 0.285982
0.1992893 -0.045601428 0.2459633 -0.15127738 0.1310356 0.21568428 0.09375415 -0.27514178
0.15431504 -0.11636185 -0.28884965 -0.1749522 0.04151062 0.19725783 -0.24687777 0.033512883
-0.26826882 0.04565666 -0.077622056 -0.25008118 -0.2613986 0.06699973 -0.17119072 -0.067554995
-0.22867438 0.07159636 0.2410785 0.15853347 0.05098874 0.24900565 0.10919185 -0.2323092
0.09820867 0.07430426 -0.01849524 -0.18435265 0.28827143 -0.03438317 -0.19027245 0.00815043
-0.078460254 0.24260542 0.13559626 0.0010227845 -0.04099546 0.28032097 -0.25865206 -0.14500287
-0.25188786 -0.13433696 0.07832736 -0.12188602 -0.10300152 -0.035632547 0.09091493 -0.02492944
0.21382286 -0.16253363 -0.24163568 -0.25732067 -0.2490418 -0.26746425 0.17570564 0.05998745
0.051985934 0.06773896 -0.027574958 0.076992966 0.26941746 0.06465991 -0.19093159 -0.2019299
0.30776265 0.17638716 -0.29458869 -0.042764116 0.16548344 0.018915212 -0.18065222 0.13129252
-0.085438855 -0.015646638 0.05858821 0.13545848 0.15325743 0.15211084 0.17654149 -0.21752906
-0.17376561 0.31668377 0.025666833 0.050059315 -0.066685356 0.20858352 0.34442884 0.29101944
-0.19722602 0.3020496 -0.2916073 0.25342026 0.061706193 0.14865178 -0.21313275 -0.21698314
-0.011668882 0.11158035 0.1766294 -0.0854024 -0.017290546 -0.23788446 -0.14471965 -0.23758511
0.28867847 -0.11983289 0.0027962765 -0.23535854 0.22192395 -0.02542745 -0.16163418 0.17513537
-0.100852855 -0.0032607473 -0.1422416 0.29885194 -0.06615709 -0.28247195 -0.12030152 0.2428918
0.28764075 0.017110687 0.079547405 0.045083396 0.103338465 -0.109208584 -0.27359897 -0.027191982
-0.13905281 -0.16118741 -0.09186932 0.014367543 -0.12053999 0.09567322 0.121905215 -0.02496104
0.27905756 0.15759341 -0.15358792 -0.12211219 -0.21587712 0.17914742 0.1743548 -0.1285293
0.30327216 0.22759397 0.18508708 -0.23264194 0.11990661 -0.21953258 -0.1341171 -0.3095126
-0.10570459 -0.13784024 -0.09555164 -0.28048772 -0.12623703 -0.2114606 0.0870782 -0.23570335
-0.34732422 0.28295475 0.16697988 0.24886046 -0.2703815 0.23806801 -0.313923 -0.023721885
-0.13272184 0.1139511 -0.033399913 -0.17835921 0.29314098 0.05519441 0.24673437 0.1489002
0.099388875 -0.053783998 0.18112224 -0.26407444 0.17934231 0.027343027 0.1334326 -0.010799494
0.21043354 -0.123224184 0.110353656 0.14462511 0.30957103 -0.1817092 0.016800115 0.08135797
-0.061820026 -0.051200904 -0.2354648 0.06873938 0.15375851 0.00102405 0.059596032 0.18677658
0.012114612 -0.19120295 -0.21194763 0.06084455 -0.07548317 -0.28477466 0.269643 -0.27692372
-0.0022939364 0.2773377 -0.0944781 0.19827136 0.032472756 0.1866145 0.10911403 0.12402365
-0.25692153 0.056351043 0.10764136 -0.22785586 -0.052305937 -0.2616608 -0.08463757 0.026217815

model.transformer.encoder.layers.0.self_attn.out_proj.bias f4 [32]
00000000: a89c 9a3c 5d75 c9bc 4d5d 0b3c 6041 88bc
00000010: eb33 503c 4a4c e63c faba 00bc cf20 8a3c
00000020: 031e 7b3c dcad 8dbc 5c6d adbb 7257 09b8
00000030: 2810 173b bdbf f13c 526a c33a 6a98 773c
00000040: 4446 8cbc 57bd 273c 3efb 443b eab5 e9ba
00000050: 8290 61bb b38d a73c 2185 753d 79da 24bd
00000060: 28d7 04bb 2b3c aebc b52e 24bb a467 09bd
00000070: b48a 593c 874c 5bbd 7a53 db3b eea4 573c
0.018873528 -0.024592096 0.008506131 -0.016632736 0.012707691 0.02811255 -0.007857079 0.016861347
0.01532698 -0.017294817 -0.0052925777 -3.2744785e-05 0.0023050401 0.029510373 0.0014909005 0.015112022
-0.017123349 0.010238013 0.0030056979 -0.0017830704 -0.0034418409 0.02045331 0.059941415 -0.040247414
-0.0020269845 -0.021268925 -0.0025052254 -0.033546105 0.013277698 -0.05353978 0.006693301 0.013161881

model.transformer.encoder.layers.0.linear1.weight f4 [128, 32]
00000000: 4dfd 0dbe b9e2 023b c911 2e3e 0ff9 bc3c
00000010: a811 d4bd 1260 e6bc 4a56 02be ded8 5c3e
00000020: dbcb 6abc 979a b8bc 65c3 3dbe 8d2b 1f3e
00000030: 6061 cdbd 0b44 383e 3aec c13d 09ef 083e
00000040: bcc0 2f3e a43a 27be 24b0 a0bc 6479 03bd
00000050: 79fc 473d 7da3 0f3e 5b6a 1c3e de38 1ebe
00000060: b382 f23c ac3c 89bd 5986 e9bd dae2 2abd
00000070: bba1 8abd 115a a1bc 5a74 39bb 7fed 1fbe
00000080: caee 183d f44d 393e 4632 21be a3e6 203e
00000090: f9f5 d6bd f982 cdbc a2ac 333d 1888 223d
000000a0: 8b1f 49bc 17a7 ffbd 82ad 373c 7d30 1cbd
000000b0: 38bc 8ebd 48af c4bc 02e9 be3c 5489 4f3d
000000c0: 95de 6bbe 049a 04be ed18 033d a692 2e3d
000000d0: d00f 623e 5939 523e 11c4 0dbe 4e11 babd
000000e0: f115 fb3d 9e83 e0bc 5975 1cbc 531b c9bd
000000f0: b586 a03d ad49 e2bd 182c 96bd a3b3 2ebe
00000100: a145 ab3d f364 82bd 4a32 aebd a59f 373e
00000110: 22e3 7bbb 8691 47be c426 2a3e ad19 ae3c
00000120: 22ca 14be 7ebd 153e 6271 413d b7a6 08be
00000130: 5c66 22bd 5404 0f3e 6286 0b3e 5055 563c
00000140: dfae be3d b84b cf3d c2ea 873d 9f3c f8bc
00000150: aee5 5dbc b9af 97bd 9275 9c3d e66e 75bb
00000160: 3129 a7bd 241d 003e 347e aa3d 0ed6 1b3e
00000170: df20 fbbd b661 d63b 582c 31be 0cf2 5f3e
00000180: 1d29 97bd f5e7 023d 1cab 5bba a0b3 073e
00000190: 9344 5dbd 7642 51bc ec56 1c3e d5ab 443e
000001a0: b8e7 36bd db48 75bd a6f2 07be 7be6 383e
000001b0: d3db 043e 0352 693b d9ca 86bc f5d7 fc3d
000001c0: 6955 ffbd 3e18 b13d 672c c4bd 5d8a 273d
000001d0: e053 77bd e47e d8bb a25f 073d 5a2d 023e
000001e0: 4fa8 6b3c edb1 0b3c b208 49be 507d 9e3d
000001f0: cfb6 393d 4a74 16bd ab45 86be 1c9c 1e3e
00000200: 3785 e3bc 0bee e23d ca9c 213e bd5e 2a3c
00000210: 4c25 e43d 07d0 d73c b8fa ee3d 1aa8 183c
00000220: 843f 413e 30e0 9a3c 8c4d d83d 1ca2 bcbd
00000230: fc68 1bbc 4587 e03d 22f3 1d3e 3eaa 18ba
00000240: 6a57 ea3d cc3e c1bd 981d 79bd ce14 1ebe
00000250: 72de 5c3c 5254 403e 9e5c 88bd bc66 91bc
00000260: 35e1 d4bd 3859 fe3d 2107 41bc 81cc 883a
00000270: 9a5e 263e 2209 c43d f759 693d cb73 15be
00000280: 9dc0 ccbd 6f56 5c3e b7ac 8f3c 08d6 01be
00000290: 4fbc 8abc f7f6 153e 00f8 183e 6324 88bd
000002a0: aa7c bb3d 3e59 943d d3a1 bcbd d3da 973c
000002b0: b902 d5bc 7e10 113e 140b 833d 1039 2cbe
000002c0: d3bb 073e 1889 48ba d87a 80bd 9d00 3c3e
000002d0: 94fb 103e 385c f0bd 89a2 0bbe bdfe 21be
000002e0: 3a45 773c bfca 0cbe 1637 8fbd dc93 ecbd
000002f0: aa07 31be adf1 66bd b7fa 17be 5fa0 a9bd
00000300: b60e 61be fc50 1a3e 09e6 f8bd 804a 32be
00000310: 26e7 273c f0ff 073e 5489 0fbe af9c 33bd
00000320: da01 fd3d cc8d 5f3e 331e e0bd b992 1ebe
00000330: 70ba e7bd 6ebb ddbd 9c4b b63c 52a2 453d
00000340: cacd f23c ee8e d13d 3939 873d 7b41 f2bd
00000350: 9b02 63be 108e 343e 9524 e43d ebec 0e3e
00000360: eadd 1e3e 7ad2 0fbe 28a7 5fbc 5247 f93d
00000370: f181 13be 53d9 2a3d ff9b f2bd 1ca6 28bc
00000380: b4d9 103d b779 083e 339d eebd c9dc 0bbe
00000390: 4e0c 1abe 00c7 3cbe 5630 7b3e fdfe f23b
000003a0: 5ae3 1dbe 2e2f 2d3c ff66 9e3d f07f 823d
000003b0: 4569 30ba 341c 2ebe bca8 4fbd 3c9c 083e
000003c0: f8ea f7bd 1b7b 9bbd 3775 23be af53 843d
000003d0: 1e7f 56be 77b6 dabc cadc 0bbe ed46 5a3d
000003e0: bf0f 593e 1ce8 00bb 0739 30bd b941 163e
000003f0: 346d 13be d908 863d 6bd9 7bbd 4f34 af3b
-0.13866158 0.0019971563 0.16998972 0.02306798 -0.1035493 -0.028121982 -0.12728229 0.21567103
-0.0143308295 -0.022534652 -0.18531568 0.15543957 -0.100283384 0.17994706 0.09468885 0.13372435
0.17163366 -0.16330963 -0.01961524 -0.03209819 0.04882476 0.1402721 0.15274946 -0.1545138
0.029603338 -0.06701025 -0.11402578 -0.04172025 -0.06769129 -0.019696267 -0.002829811 -0.15617941
0.037337102 0.18096143 -0.15741834 0.15712981 -0.10496134 -0.025086867 0.043865807 0.03968057
-0.012275587 -0.12483042 0.011210801 -0.03813218 -0.06969494 -0.024009362 0.023304466 0.050668076
-0.23034127 -0.12949377 0.032006193 0.042620324 0.22076344 0.20529689 -0.13844325 -0.09085332
0.12260044 -0.02740651 -0.009549462 -0.09819665 0.07838193 -0.11049209 -0.07332629 -0.17060713
0.0836289 -0.06366911 -0.085056856 0.17931993 -0.0038434942 -0.19489107 0.1661635 0.021252478
-0.14530233 0.14623067 0.04722727 -0.13344847 -0.0396484 0.13966495 0.13625482 0.0130818635
0.09310698 0.10121864 0.066365734 -0.030302344 -0.013543529 -0.07406563 0.07639612 -0.0037450134
-0.081621535 0.12511116 0.083248526 0.15218374 -0.12262129 0.00654241 -0.17302072 0.21869677
-0.073808886 0.031959493 -0.00083796843 0.13252115 -0.054020476 -0.012772193 0.15267533 0.19206174
-0.044654578 -0.059883934 -0.13276157 0.18056671 0.12974481 0.0035601861 -0.016454147 0.12345878
-0.124674626 0.08647202 -0.095787816 0.040903438 -0.060382724 -0.0066069234 0.033050187 0.12712613
0.01438339 0.0085263075 -0.19632223 0.07738745 0.045340355 -0.036731996 -0.26225027 0.15489239
-0.027773483 0.11080559 0.15782467 0.010398564 0.11139926 0.026344312 0.116689146 0.009317422
0.18871886 0.018905729 0.10561666 -0.092106074 -0.009485479 0.109633006 0.15424779 -0.0005823708
0.11442454 -0.09435806 -0.06081924 -0.15437624 0.0134807695 0.18782166 -0.0665829 -0.017749183
-0.10394517 0.12419361 -0.011781485 0.0010436923 0.16247025 0.095720544 0.056970563 -0.14594953
-0.099976756 0.21517347 0.017538412 -0.12679303 -0.016935496 0.14644991 0.14938354 -0.06647565
0.09154637 0.07243584 -0.09210553 0.01853696 -0.026002275 0.14166448 0.06398597 -0.16818643
0.13255243 -0.0007649823 -0.062734306 0.18359609 0.1415847 -0.11736339 -0.13636221 -0.15819831
0.0150921885 -0.13749216 -0.06992929 -0.115516394 -0.1728808 -0.056382824 -0.14841734 -0.082825415
-0.21978268 0.15069956 -0.12153251 -0.17411232 0.010247981 0.13281226 -0.1401723 -0.043850597
0.12353869 0.21831435 -0.1094326 -0.15485658 -0.11314857 -0.10826765 0.02225285 0.048250504
0.029639143 0.1023234 0.06602711 -0.11828896 -0.22168963 0.17632318 0.1113979 0.13957565
0.15514341 -0.14045134 -0.013650693 0.121718064 -0.14405037 0.041711163 -0.1184616 -0.01029351
0.035363868 0.1332768 -0.11651077 -0.13658442 -0.15043756 -0.18435287 0.24530157 0.007415651
-0.15418759 0.010570331 0.07734489 0.063720584 -0.00067295536 -0.17002946 -0.050698027 0.13340849
-0.121053636 -0.0759184 -0.15962683 0.06461274 -0.20946929 -0.026698334 -0.13658443 0.053290296
0.21197413 -0.0019669598 -0.043023136 0.14673509 -0.14397126 0.06544656 -0.061486643 0.005346812

model.transformer.encoder.layers.0.linear1.bias f4 [128]
00000000: 9286 edbd 237f 3ebd 589d 783d d449 47bd
00000010: 892b ab3c 795a 7cbd 2a32 f23c d4f0 64bd
00000020: 1546 f63d c210 983d 2d16 e33c daa8 893d
00000030: db33 a83c b62c 533d 5815 06be ed73 49bc
00000040: 4aec dfbd d466 80bd d7b0 373d 7de6 25be
00000050: 0439 aebd a550 11be a3ac 1dbe 1410 a63c
00000060: e145 dcbd 5563 0bbe f06c 2cbc 0a09 6f3e
00000070: b636 9dbd a261 17be 90d7 00bc 6133 26be
00000080: 59e9 103e c429 d4bd 28f6 833d 9736 023e
00000090: 0325 2dbe 1d8d 2cbe ebee 1a3e 348a d73d
000000a0: a988 ebbb 1b98 be3d 91a4 543d bd24 bfbc
000000b0: cd23 edbd 5147 063d 4241 b6bd 7b3e bdbd
000000c0: 5d7a 153e c5ad 50bd 41bb 1abd e183 3f3d
000000d0: 8c07 f3bd c2b4 f43d fadc d63c ec51 8dbd
000000e0: 40f6 c63c eee1 863c 8120 fbbd 2d43 0c3e
000000f0: c73c a43d e59b c63d 286e 123e 26cf 1ebe
00000100: 272a 273c 925a 153c 209a 2a3d 9dcf 07be
00000110: bbad 02bd cdb4 323e 940d 30bd b1c0 403d
00000120: 0a0e a13a 2e58 63bd eaf8 02be 3211 dabd
00000130: 86ca bf3d 6a11 aa3d bbcf 7abd 26de 94bd
00000140: af9b 263e 662c cf3c 10f7 e3bd ef4d 38be
00000150: 7856 3b3d 3463 3a3d 513b 15be 998e 3dbe
00000160: 00ea 5cbd ba78 a9bd 634c 2cbc 2797 203e
00000170: e871 ad3d 8d5d d63b 4acf 383e 1747 643d
00000180: 6a25 01be 7d1f ba3c f320 9c3d 342d c33d
00000190: 824e ed3d f680 9d3d 78ea d33d b483 bf3c
000001a0: e2ea 24bc 454b ea3d 3599 8f3d 8bec e3bd
000001b0: 3b16 183e 09eb ecbd e174 8e3d b1b6 46bd
000001c0: 9c9e 32be 86e6 3ebd f4af 0abd 2b60 07bd
000001d0: fb89 5c3d 5378 efbd dfa3 973d c598 c83c
000001e0: 87c3 22bd 3e29 17be 6940 e1bd 5fcc 1cbe
000001f0: d8b2 8f3c e1ca da3c c3e2 e03d f34f 113e
-0.11597933 -0.046507966 0.06069693 -0.048654392 0.020894783 -0.06160972 0.029564936 -0.055893734
0.12025086 0.07425071 0.027720535 0.06721659 0.02053254 0.05155631 -0.1309408 -0.012295705
-0.109337404 -0.06269613 0.044846382 -0.16201206 -0.085069686 -0.1419092 -0.15397887 0.020271339
-0.10755516 -0.13612111 -0.01052402 0.23343292 -0.07676451 -0.14783338 -0.007863894 -0.16230537
0.14151515 -0.10359529 0.06443435 0.12716137 -0.1690865 -0.16850705 0.15130202 0.10524407
-0.007187922 0.093063556 0.051914755 -0.023332948 -0.11579094 0.032782856 -0.08899166 -0.09240433
0.14597459 -0.05094697 -0.037776235 0.04675663 -0.11866674 0.11948539 0.026228417 -0.06900391
0.024287343 0.016465154 -0.12262059 0.136975 0.08019405 0.09697703 0.14299834 -0.15508708
0.010202921 0.009115832 0.04165089 -0.13262792 -0.031903964 0.17451783 -0.0429817 0.047058765
0.0012287509 -0.055504017 -0.12790266 -0.10647811 0.093648 0.08304103 -0.061233263 -0.07268934
0.16270326 0.025289726 -0.11131108 -0.1799848 0.04573676 0.045504764 -0.14573409 -0.18511428
-0.053934097 -0.0827498 -0.010516259 0.1568266 0.084689915 0.006541914 0.18047825 0.05573186
-0.12611929 0.022720093 0.07623472 0.09530106 0.1158724 0.07690613 0.10347456 0.02337823
-0.010065766 0.11440138 0.07011644 -0.11129101 0.1485223 -0.11568267 0.06955887 -0.04851407
-0.17443317 -0.046606563 -0.03385921 -0.033050697 0.053842526 -0.11692872 0.07404303 0.024486909
-0.03973725 -0.14761826 -0.109986134 -0.15312336 0.017541334 0.026708068 0.10980751 0.14190654

model.transformer.encoder.layers.0.linear2.weight f4 [32, 128]
00000000: eb8b 54bd 5ea1 e73d eb83 913d 39b8 6d3d
00000010: 56b4 e2bc cf36 9dbd 59e2 f7bd 19e7 e63d
00000020: a008 97bd a452 24be d2a4 3fbe bd6a 253e
00000030: cd60 09bc aa5f 213e a0cc f23c 4bfc 21be
00000040: 38cb 43be 5cd0 e53d 4f13 033e 0d0c c53c
00000050: 8bc8 e2bd abac f9b9 3818 cfbd c296 cf3c
00000060: 3958 51be 5904 343e a75f c6ba 1ffe 4dbe
00000070: f961 923c 83b5 25be d90b a9bc 67f0 25bc
00000080: 4562 1a3e 6c18 063e e1f5 13bd 4d10 98bd
00000090: 2433 5d3c 0d7b f9bd 2ba8 e1bc 80d2 43bd
000000a0: 0469 363d 2719 853d e853 de3d 7c7e 9f3d
000000b0: 8176 f3bd c7dd 403d 69f3 043e 2de7 343e
000000c0: a0e9 99bd 9f40 a5bc 19fc 373c 9d33 00be
000000d0: f110 d43d 0dbd 82bd 2e98 e8bd dc08 e4bd
000000e0: 3e6a d33d 646c 233e 3179 11be 9543 893d
000000f0: f46a bdbd 44fd c03d 457c 223e b1b6 953d
00000100: 7c6f a83d e014 a83c afc6 d43a d544 68bb
00000110: 8283 243e 4723 2b3e 4fde 243e 3746 24bc
00000120: 73a2 a1bd af7b 4cbe 7e66 12be 6c13 c33d
00000130: 3015 afbd dcef 0bbe 4674 06be a265 89bd
00000140: 58b6 f7bd f22a 03be 8809 793d 8b7e c33d
00000150: 7e55 a63d 2e08 993d 7549 b3bd 4b30 353d
00000160: 2e78 bbbd 960d b53d 1ec0 a4bd bcb0 423e
00000170: c183 31be 312d 20be b72a fdbc 00b3 0ebe
00000180: 51dd 70bd 6662 f83c d34e 833d 1be7 0abe
00000190: 7307 ea3d a1e2 aabd f18a 153d c22f d53c
000001a0: 0b1f 40bb e189 ddbd 7d04 f93d 2ef9 ea3d
000001b0: 67f9 0a3d f36a d23d a973 0e3e 6c66 0a3e
000001c0: 0879 33be b855 37be 1999 ab3d b707 c43d
000001d0: 04c6 2bbe b4ab c63d 6dc6 9f3d 1e5e 20bd
000001e0: ba89 b73c 3e6a 6f3d 383c dcbc 55a9 a93d
000001f0: f73e c83d dc0c 5e3d 894f 0cbe 5cd2 2cbe
00000200: 014e 293e 3aa9 8fbd c2c4 0a3c 05d1 413e
00000210: d218 13bd 60fd 4dbd eb1c 103e 0365 21be
00000220: 0fff 2d3d 5f21 84bd 6046 143a bf95 b53d
00000230: 3326 83bd cb65 a53d 9df9 4abd 0a9a c43d
00000240: e44e f73b af15 103e 372a fabd c9b9 1a3e
00000250: 1fd3 2bbe 5f2e 40bd de49 463c edc5 dd3d
00000260: 6d42 b43d 7c87 f43d 5d0b 1dbe 9f3e f9bd
00000270: 1241 9c3c 18ab 40be 7bc1 0ebe 4762 16bd
00000280: 10a7 11be 4578 1abe d071 56be f17c d6bd
00000290: 90f7 d23d eca1 c5bd e07f 123e caf9 a3bc
000002a0: b164 40bd 06e4 18be 2e79 c4bd d44c 3d3b
000002b0: bdbd d7bd 65cb 75bd 2782 9abd 3323 21be
000002c0: ef9c c03c 645e 143e 3a39 a7bc ba05 dc3d
000002d0: b30d 15be a2d6 39bd 7768 363c e384 aabb
000002e0: 72c0 2dbe 8af4 ef3d a1a3 393e 7ef0 45be
000002f0: 9ec3 1f3e ebd0 1bbe 76d6 213e 78aa 883d
00000300: 996b 02bd da87 efbd 2831 98bd feab 043e
00000310: b66f e5bd dcb9 e23d 2256 9cbb d5bd 323e
00000320: 48c4 173e 007d 34bd e43b f23d a844 ad3d
00000330: d5ae 6f3d 0d0e 76bc 705e c13d 2eda aebd
00000340: c112 ba3d 257b 40be 62e2 6c3d 7cac ec3d
00000350: 044b 52bc 7bde f23b c917 193e b95c 6bbd
00000360: 21b4 003d 512e a3bd 4e05 c9bc 01e3 97bb
00000370: 8e2f 1b3a fb08 c1bd 3c10 323d a4d4 21bd
00000380: ed17 0b3e 705c f83c cb90 723d 1f19 0e3e
00000390: fa7b f3bc c732 063e a0cb 38be 3c17 53bd
000003a0: 197d f53d 281a 103e 46f3 0bbe 4373 7f3d
000003b0: 39c1 34be 8e71 e9bd 39a5 953d 8d11 89bb
000003c0: 066c d83c 5e35 703d 8a31 0fbd 12a7 73bd
000003d0: de28 363e 254d 1dbe ba37 c7bd 7d76 753d
000003e0: 7c99 7c3e 4405 8dbc 1108 1c3e 0e25 2a3d
000003f0: 3ce6 b03d e9c1 e3bd a82d 303c a683 e2bd
-0.05189125 0.11310075 0.071052395 0.058037017 -0.027673882 -0.076764695 -0.12103719 0.11274547
-0.07374692 -0.1604715 -0.18715218 0.16153999 -0.0083848955 0.15759149 0.029638588 -0.15818898
-0.1912049 0.11221382 0.12800334 0.024053598 -0.11073407 -0.0004762163 -0.10112041 0.025340442
-0.2044381 0.17579783 -0.0015134708 -0.20116471 0.017868983 -0.16182522 -0.020635532 -0.010128117
0.1507655 0.13095254 -0.03612316 -0.07424984 0.013500962 -0.12181673 -0.027546009 -0.04780817
0.044533744 0.06498938 0.108558476 0.07787797 -0.11887837 0.047086503 0.12983479 0.17666312
-0.075152636 -0.020172415 0.011229538 -0.12519689 0.10354794 -0.06383715 -0.11357151 -0.11134502
0.103229985 0.15959316 -0.14206387 0.067023434 -0.09248915 0.094233066 0.15867718 0.07310236
0.08224389 0.020517766 0.0016233529 -0.0035441418 0.16065791 0.16712676 0.16100429 -0.010026506
-0.07892313 -0.19969057 -0.1429691 0.09525189 -0.08548963 -0.13665718 -0.13130292 -0.06708838
-0.12095326 -0.12809351 0.060800105 0.095456205 0.08121775 0.07472263 -0.08754245 0.04423551
-0.09153782 0.08840482 -0.08044456 0.19012731 -0.17335416 -0.15642239 -0.030904157 -0.1393547
-0.058804814 0.030320358 0.06411519 -0.13564722 0.11427202 -0.08344007 0.036509458 0.02602375
-0.0029315378 -0.10817314 0.12159059 0.114733085 0.033929255 0.10274305 0.13911308 0.13515633
-0.17526639 -0.17903793 0.083788104 0.09571784 -0.16774756 0.097007185 0.078015186 -0.039152257
0.02240454 0.05845093 -0.026884183 0.08284251 0.097776346 0.054211482 -0.13702215 -0.1687712
0.16533662 -0.07014699 0.008469762 0.18927391 -0.035912342 -0.050290465 0.14073531 -0.15761189
0.04247957 -0.064516775 0.00056562386 0.088664524 -0.0640377 0.08076056 -0.049554456 0.09599693
0.0075472463 0.14070772 -0.12215083 0.15109934 -0.16779755 -0.046919223 0.012102572 0.10828767
0.08801732 0.11939904 -0.15336366 -0.12170147 0.019073997 -0.18815267 -0.13940994 -0.03671482
-0.14223886 -0.15084942 -0.20941854 -0.104730494 0.10301125 -0.09650025 0.14306593 -0.02001657
-0.046971027 -0.14930734 -0.09593426 0.0028884904 -0.105342366 -0.060008425 -0.07544356 -0.15736084
0.023512332 0.14489132 -0.02041303 0.1074328 -0.14556007 -0.045370705 0.011133305 -0.0052038296
-0.16967943 0.11716564 0.18128826 -0.19330022 0.15601966 -0.15216415 0.15804467 0.06673139
-0.031840894 -0.116958335 -0.07431251 0.12956235 -0.11202948 0.11070606 -0.00477101 0.17455228
0.14820969 -0.04406452 0.118278295 0.08460361 0.058516342 -0.015017998 0.09441841 -0.08537708
0.09085608 -0.18796976 0.057833083 0.11556336 -0.012835268 0.0074117756 0.1495048 -0.057461474
0.031421784 -0.079678185 -0.024538662 -0.0046352153 0.0005919867 -0.09425541 0.043472514 -0.03950943
0.13583346 0.030317515 0.059220117 0.1387677 -0.029722203 0.13105308 -0.18046427 -0.05153583
0.11986751 0.14072478 -0.1366702 0.06236578 -0.17651834 -0.11398612 0.07306904 -0.0041830004
0.026418697 0.058644645 -0.034959354 -0.059485503 0.17789027 -0.1536146 -0.09727426 0.059927452
0.24667925 -0.017214425 0.15237452 0.041539244 0.08637664 -0.1112097 0.010753073 -0.11060266

model.transformer.encoder.layers.0.linear2.bias f4 [32]
00000000: a26c 973d 4172 ed3a 13c5 633d 1a3d 8d3d
00000010: 1324 803d 5502 8cbd 4d1d 0f3d 7e36 8d3d
00000020: 962b 28bd 4845 05bd a1cb 013d 94d5 4bbd
00000030: 9c69 a0bc c145 c3bc eda8 33bd b8ca 52bd
00000040: 0367 b5bd e902 0d3d 5a27 8fbd ac00 c23c
00000050: 3eea 32bd f611 9d3d 7acc 3ebd a253 2cbc
00000060: 3c09 99bd ef06 063c 590e b3bc 55c7 ad3c
00000070: 2735 b73d b3d0 81bd 61de f7bc 694e 9dbd
0.07393767 0.0018115715 0.055607866 0.0689642 0.062568806 -0.06836382 0.034940053 0.06895159
-0.04105719 -0.032536775 0.031688336 -0.04976423 -0.019581608 -0.023836972 -0.043862272 -0.05146286
-0.088575386 0.034426603 -0.069899276 0.023681961 -0.043680422 0.076694414 -0.046581723 -0.0105179865
-0.074724644 0.008180364 -0.021857427 0.021213213 0.08945685 -0.06338634 -0.030257406 -0.07680971

model.transformer.encoder.layers.0.norm1.weight f4 [32]
00000000: 312f 6f3f 9838 873f e435 773f 3edc 6d3f
00000010: 802b 793f f73e 783f 7065 8d3f 71bf 7d3f
00000020: 659e 7a3f 329d 823f 45df 833f 5612 783f
00000030: ca20 7d3f e8bb 743f f69e 8b3f a357 7a3f
00000040: 4079 7b3f c839 7c3f d72d 7b3f 3270 7c3f
00000050: cc09 843f fc00 793f 3cf5 793f 27b1 743f
00000060: 7ebb 803f bb97 7a3f 044a 7f3f d81a 683f
00000070: 402d 713f 0185 783f 0da5 9a3f d336 803f
0.93431383 1.0564146 0.96566606 0.9291419 0.97332 0.96971077 1.1046581 0.9912024
0.9789794 1.0204222 1.0302511 0.9690298 0.9887816 0.9559922 1.0907886 0.97789973
0.9823189 0.9852567 0.9811682 0.98608696 1.031549 0.9726713 0.9763982 0.95582813
1.0057218 0.9788777 0.99722314 0.9066596 0.9420967 0.9707795 1.208162 1.0016731

model.transformer.encoder.layers.0.norm1.bias f4 [32]
00000000: b5f9 d13c 5474 c0bc 72fd 173c 09a6 3abc
00000010: bb35 593c 0eaa cf3c 9ff5 ddbb 16ac 923c
00000020: 76c9 7b3c 311f 85bc 7715 77bb cf28 323b
00000030: d71e 6a3b b05a fa3c 9b74 193b d6c1 643c
00000040: 3a8f 83bc c016 313c 6693 633b 21f8 0939
00000050: c9cc 6cbb 4ac6 ab3c aa57 683d 2ffd ffbc
00000060: bfbc 3dbb 6e6d 81bc 25cb 21ba 1c69 d3bc
00000070: 654c 4c3c 1bc0 47bd cc79 b93b db47 413c
0.025631765 -0.02349297 0.009276735 -0.011392125 0.013257439 0.025349643 -0.006773665 0.017904323
0.015367856 -0.016250225 -0.0037702003 0.0027184968 0.0035723948 0.030560821 0.002341545 0.01396223
-0.016059507 0.010808647 0.0034725307 0.00013157773 -0.0036132804 0.020968575 0.056724228 -0.031248657
-0.0028951613 -0.01579925 -0.00061719335 -0.025806956 0.012469386 -0.04876719 0.0056602713 0.011796917

model.transformer.encoder.layers.0.norm2.weight f4 [32]
00000000: 5766 7a3f 38fe 823f 1537 7c3f 84d7 7a3f
00000010: 154f 8d3f 8fe1 873f e3fa 973f 06ad 723f
00000020: 46d5 813f cfdc 803f b52d 813f a539 7a3f
00000030: b00b 7d3f 4430 763f 761e 843f 1e77 7e3f
00000040: 57f0 803f c9cf 803f 9ef6 753f 1c26 7e3f
00000050: 0f48 873f 55d6 783f 77fe 823f ee94 753f
00000060: 41fb 743f daa0 803f 0ba7 843f 1cc5 7b3f
00000070: 67e2 7f3f 1367 7c3f 426c 993f d740 7d3f
0.9781241 1.0233831 0.9852155 0.979851 1.1039759 1.061571 1.187344 0.9479526
1.0143211 1.0067385 1.0092074 0.9774421 0.9884596 0.961674 1.0321796 0.9940051
1.0073346 1.0063411 0.9607943 0.992769 1.0568866 0.97202045 1.0233907 0.95930374
0.95695883 1.0049088 1.0363477 0.9834764 0.9995484 0.9859478 1.1986163 0.9892706
